backend/ml/research/models/best_scalping_mca.pth (torch, 318761 bytes, 35 tensors)

conv_eyes.conv1.weight f4 [64, 4, 3]
0.14968541 -0.134597 0.22209495 -0.23738156 0.20468588 0.21610548 0.13819654 -0.09819497
0.050439708 -0.27565482 0.13212544 0.084366284 -0.15621717 0.024012135 0.092579596 0.06369356
-0.2912881 0.26014933 0.25546744 -0.25538716 0.21169358 0.15802114 -0.16822486 -0.14987935
0.013979079 -0.011004822 -0.035434168 -0.057177763 -0.14138569 0.11953426 0.18410887 -0.08496958
0.21260266 -0.24423912 -0.2750601 0.21372962 0.013613919 -0.014582154 -0.056841567 -0.024221744
-0.23131803 -0.04102114 -0.24269003 -0.059436884 0.2772152 -0.25397205 0.25253102 0.07533272
-0.25163752 -0.24969597 -0.18546487 -0.13326514 -0.067699656 0.019760594 0.06632584 -0.10517788
0.16170083 -0.12266279 -0.24481387 0.13014261 -0.06730223 0.10325315 0.28001368 -0.2798618
0.047931798 -0.061530486 -0.04690954 0.16411653 -0.06782153 0.004365262 0.154109 0.07058152
0.07218273 0.20115162 -0.08207969 -0.13377327 -0.14845084 0.2686285 0.028649636 -0.28383338
-0.02357448 0.13622369 -0.16797893 0.18394421 -0.0819069 -0.15756533 0.12494158 0.00015840039
-0.18759964 -0.23943663 0.16599888 -0.24824262 -0.06369248 0.11072996 -0.07985141 -0.15492435
0.26279247 -0.14282387 0.11761586 -0.09011512 0.2986212 -0.22909445 -0.050589632 0.012691159
0.0089121135 -0.152074 -0.06345417 0.0012159134 0.13691187 -0.047043033 0.15112333 0.051623408
0.12333369 -0.15891099 0.20400804 -0.009862354 0.081231095 -0.08472933 0.034409758 -0.1136512
-0.032238156 0.2332296 -0.2618264 0.13715993 -0.10501303 -0.26934084 -0.03182544 0.027613321
-0.2240661 0.27725816 -0.037216563 0.18211527 0.13452543 -0.17322181 -0.15467626 0.17370994
-0.25764278 0.25318965 0.18168451 0.122749746 -0.020665582 0.08246803 -0.060375288 -0.19761328
0.17026801 -0.14396755 0.19856061 0.2396977 -0.18247987 -0.15819745 0.17426395 0.2166229
-0.24285093 0.04279687 -0.06891311 0.007294602 0.2912977 -0.10152642 0.048953563 -0.13364336
-0.21413197 -0.14999038 -0.24172188 0.22929448 0.04008575 -0.06710415 -0.01239502 0.11579115
-0.26840806 -0.021740051 -0.24818282 0.2512 0.20315099 0.022145648 -0.2718187 0.26074544
0.14048961 0.18949653 -0.1341584 0.03524446 -0.25712392 -0.13624926 0.16309045 -0.12510306
0.07648325 -0.15223125 0.16765584 -0.26897994 0.11099529 0.23230587 -0.18812738 -0.035739943
-0.2174897 -0.1283244 -0.26437423 -0.21059793 0.1463687 -0.23992366 -0.11454147 0.030673223
-0.100333095 -0.019936576 -0.076614566 -0.20429993 -0.06304681 -0.09821291 0.21275881 -0.14658828
-0.16994087 0.14220871 0.10931264 0.21550772 0.1835199 -0.05988635 -0.12949558 -0.14115219
0.0024224657 0.21313925 -0.2770511 0.016115509 -0.120788425 -0.24104802 -0.2069157 0.25423136
0.20856345 0.026745746 0.22877088 -0.08584036 0.2993212 0.24773894 -0.0023213136 0.27344725
0.13231188 -0.18604665 -0.24616095 0.08786159 -0.0873385 0.19389486 0.16946638 0.2394675
-0.19233033 0.2144613 0.007823474 -0.120158575 0.12846494 0.2628347 0.22848776 -0.053224396
0.18195538 0.052524608 -0.14563024 -0.03372333 0.062042646 0.21874438 0.097887926 -0.16097476
00000000: 2247 193e ccd3 09be dc6c 633e 2714 73be
00000010: 2d99 513e c14a 5d3e 6583 0d3e 721a c9bd
00000020: de99 4e3d a122 8dbe e44b 073e 3bc8 ac3d
00000030: 65f7 1fbe 19b5 c43c 5f9a bd3d c571 823d
00000040: b723 95be 4b32 853e a1cc 823e 1bc2 82be
00000050: 34c6 583e 4bd0 213e 2343 2cbe f979 19be
00000060: 8208 653c 924d 34bc 6b23 11bd 3b33 6abd
00000070: 69c7 10be 61ce f43d 0987 3c3e 8804 aebd
00000080: 83b4 593e d219 7abe add4 8cbe f0db 5a3e
00000090: ea0c 5f3c fde9 6ebc b4d2 68bd ae6c c6bc
000000a0: a2de 6cbe c805 28bd bc83 78be 1774 73bd
000000b0: 27ef 8d3e a008 82be bf4b 813e 0b48 9a3d
000000c0: a2d6 80be 4db0 7fbe 81ea 3dbe a876 08be
000000d0: 1ea6 8abd f8e0 a13c d8d5 873d 8067 d7bd
000000e0: e794 253e a136 fbbd 7db0 7abe 1b44 053e
000000f0: c0d5 89bd 6376 d33d f45d 8f3e 0c4a 8fbe
00000100: 2254 443d 6407 7cbd 3824 40bd 2a0e 283e
00000110: 04e6 8abd 790a 8f3b c0ce 1d3e 0b8d 903d
00000120: 8ad4 933d b1fa 4d3e 6619 a8bd dcfb 08be
00000130: 7f03 18be ad89 893e a4b2 ea3c 9c52 91be
00000140: 451f c1bc 397e 0b3e ab02 2cbe df5b 3c3e
00000150: cebe a7bd ce58 21be 5fe1 ff3d 4818 2639
00000160: 1f1a 40be e02e 75be 9cfb 293e 5033 7ebe
00000170: 3471 82bd 64c6 e23d 2389 a3bd 7da4 1ebe
00000180: bc8c 863e 6c40 12be 96e0 f03d 478e b8bd
00000190: e1e4 983e bc97 6abe 1337 4fbd 94ee 4f3c
000001a0: 1d04 123c 49b9 1bbe 43f4 81bd 495f 9f3a
000001b0: a032 0c3e 32b0 40bd 13c0 1a3e 1173 533d
000001c0: 6096 fc3d 90b9 22be 7ce7 503e b695 21bc
000001d0: 7d5c a63d 9286 adbd 3ff1 0c3d f6c1 e8bd
000001e0: 280c 04bd bed3 6e3e 1c0e 86be a773 0c3e
000001f0: 1211 d7bd 0be7 89be 645b 02bd 5535 e23c
00000200: 9571 65be c8f4 8d3e 6570 18bd 6d7c 3a3e
00000210: 09c1 093e 0f61 31be 7463 1ebe 05e1 313e
00000220: c1e9 83be 13a2 813e 810b 3a3e 3864 fb3d
00000230: de4a a9bc 00e5 a83d 144c 77bd 235b 4abe
00000240: bd5a 2e3e 3b6c 13be 7953 4b3e 5073 753e
00000250: 01dc 3abe 83fe 21be 4072 323e 65d2 5d3e
00000260: eaad 78be c54b 2f3d 5122 8dbd 8f07 ef3b
00000270: f924 953e 15ed cfbd 8883 483d ced9 08be
00000280: 6945 5bbe 1497 19be f185 77be 2ccc 6a3e
00000290: f530 243d e76d 89bd 7b14 4bbc e923 ed3d
000002a0: c86c 89be 3118 b2bc a323 7ebe 499d 803e
000002b0: d006 503e ca6a b53c d22b 8bbe 6d80 853e
000002c0: 82dc 0f3e 610b 423e d260 09be 7f5c 103d
000002d0: bfa5 83be ed84 0bbe 2f01 273e 041b 00be
000002e0: 40a3 9c3d 82e2 1bbe f9ad 2b3e bdb7 89be
000002f0: 8051 e33d 97e1 6d3e 77a4 40be 0c64 12bd
00000300: 9fb5 5ebe 7967 03be 0f5c 87be fca6 57be
00000310: ade1 153e 8cae 75be b894 eabd 6946 fb3c
00000320: 707b cdbd 0852 a3bc 19e8 9cbd 0034 51be
00000330: b01e 81bd da23 c9bd 72dd 593e 3d1b 16be
00000340: fb04 2ebe 299f 113e 4edf df3d 0eae 5c3e
00000350: a4ec 3b3e 644b 75bd 7d9a 04be 338a 10be
00000360: 3bc2 1e3b 2d41 5a3e a4d9 8dbe ac04 843c
00000370: ec5f f7bd 4bd5 76be b6e1 53be 9d2a 823e
00000380: a891 553e e519 db3c ea42 6a3e 12cd afbd
00000390: a140 993e 47af 7d3e 2e21 18bb 4701 8c3e
000003a0: c47c 073e 0383 3ebe 9e11 7cbe c7f0 b33d
000003b0: 87de b2bd 608c 463e 9888 2d3e f836 753e
000003c0: 3ef2 44be be9b 5b3e 072e 003c b315 f6bd
000003d0: 508c 033e 4592 863e b2f8 693e d301 5abd
000003e0: 8352 3a3e 0b24 573d 1820 15be 7921 0abd
000003f0: 6e20 7e3d 87fe 5f3e 7779 c83d 91d6 24be

conv_eyes.conv1.bias f4 [64]
0.035974603 -0.20649584 -0.03398445 0.121961914 -0.24656941 -0.15927872 -0.20810363 -0.25506246
-0.1417997 0.18152654 0.2517761 0.26098707 -0.042918824 0.22041833 0.17865942 -0.066510186
-0.058942355 0.11627096 0.15212463 -0.25644797 0.010392812 -0.02814625 -0.08159079 -0.089634195
0.0020336604 0.11312177 -0.05293018 -0.07816646 0.057912707 0.17924502 -0.17554471 -0.21557368
0.2157733 -0.17907019 -0.22962873 -0.013172853 -0.052852422 0.2388249 -0.21399641 0.25853866
-0.017315187 0.24964222 0.22440098 -0.0392184 0.10577721 0.16616176 -0.19120394 0.19752192
0.24432032 -0.14369296 -0.0131595405 0.27608097 -0.093575954 -0.08382477 -0.22138178 0.0064937146
0.20739606 0.013671437 0.09550955 -0.12173556 0.08961846 0.10995863 -0.28069496 -0.006093231
00000000: 1b5a 133d a573 53be 4733 0bbd 2bc7 f93d
00000010: b17c 7cbe f619 23be 1e19 55be 8c97 82be
00000020: f133 11be 18e2 393e cce8 803e 19a0 853e
00000030: a6cb 2fbd 58b5 613e 7ff2 363e 7e36 88bd
00000040: 8a6d 71bd 781f ee3d 8fc6 1b3e 264d 83be
00000050: 9d46 2a3c f792 e6bc 1219 a7bd 2292 b7bd
00000060: 2947 053b 63ac e73d 51cd 58bd bd15 a0bd
00000070: e035 6d3d 028c 373e fec1 33be 59bf 5cbe
00000080: adf3 5c3e 2d5e 37be cb23 6bbe f3d2 57bc
00000090: c87b 58bd 848e 743e e021 5bbe 2e5f 843e
000000a0: 94d8 8dbc 36a2 7f3e 5fc9 653e 79a3 20bd
000000b0: b9a1 d83d 4f26 2a3e f7ca 43be 3043 4a3e
000000c0: 1b2f 7a3e 3f24 13be 1d9b 57bc 7c5a 8d3e
000000d0: c0a4 bfbd 52ac abbd e8b1 62be 3ac9 d43b
000000e0: a25f 543e 2afe 5f3c 839a c33d 7e50 f9bd
000000f0: e289 b73d fd31 e13d 40b7 8fbe baa9 c7bb

conv_eyes.conv2.weight f4 [64, 64, 5]
-0.043634854 0.02474275 -0.043625765 -0.034941074 0.033642497 -0.0454671 0.015394128 -0.014454775
-0.041037813 -0.03701403 0.032591455 0.009102521 -0.08350075 -0.009743849 -0.0016212822 0.047954284
-0.045188148 0.011278427 -0.056852594 -0.07703919 0.042437162 -0.035834927 0.024943788 -0.032557305
-0.060735703 0.017417189 0.04432073 0.02430069 0.011838258 -0.014471277 -0.043683406 -0.00071974524
-0.011401486 0.009922773 -0.025036436 -0.02423715 -0.024483074 0.03106855 -0.02189951 -0.03224508
0.03416136 -0.06929339 0.017163994 -0.068808325 0.04475897 0.039955396 -0.007502929 0.012937137
0.06348974 -0.044790514 -0.07863219 0.03994835 -0.055798475 -0.04047561 0.017463792 -0.05764273
0.058988802 -0.036233984 -0.037159316 0.06892328 -0.041152373 0.052472394 0.022613766 -0.044635583
0.032437243 -0.059090365 -0.04731607 0.008656873 -0.01343962 0.021421904 0.05091829 0.04831876
0.030450732 0.004751566 -0.0028230345 -0.05757687 -0.021203907 -0.033586916 -0.027382722 -0.021817684
0.0033956293 -0.06954221 -0.029807094 -0.06539066 -0.012530761 -0.040380396 0.0029016624 0.024540719
0.045610134 -0.06606455 0.007012936 0.00220261 -0.08865255 0.02677079 0.026776655 0.040813483
-3.9082595e-05 -0.046908885 0.038135584 -0.012261678 0.02069706 -0.015508776 -0.050898578 -0.0057689133
0.010028927 -0.035016958 -0.06466385 -0.028904233 0.03683328 0.0367254 -0.003113035 0.05546033
0.01524332 -0.029009234 -0.027914003 -0.035784543 0.0058667096 -0.024955016 0.031481583 0.06034879
-0.013066319 -0.0706861 -0.019571446 -0.09344896 -0.03206256 -0.0070538316 -0.07450029 0.021796376
0.025000283 -0.0066688983 0.030667365 -0.029876158 0.022221925 0.03382419 -0.0585957 0.03471163
0.030983983 -0.032536827 -0.045280736 0.01541174 0.0029988356 -0.031756047 -0.051007763 -0.027448157
0.03374429 -0.005606093 -0.015167908 -0.008141592 -0.08160697 -0.02176158 0.0076171323 -0.051513273
0.019637583 -0.01831062 0.01361172 -0.037942063 -0.03026056 -0.034286402 -0.016424732 0.056030944
-0.054879665 0.035518445 0.027312374 -0.06352255 0.008592957 0.008833711 0.020275358 -0.027572932
0.07579673 0.043141115 0.0021008188 -0.046313893 -0.055705868 -0.051443543 -0.054346144 0.015879836
-0.023028823 -0.049730897 -0.013238552 -0.045375336 0.04186921 0.012682377 -0.06085972 -0.051635634
0.008125121 -0.016669728 0.00037211127 -0.07239671 -0.0043447562 -0.02175999 0.0024590117 0.018833978
0.0087842 -0.06710155 -0.046543702 0.030616982 0.01774317 0.058845177 0.02530821 0.053696416
-0.023243634 -0.036738586 -0.008575438 -0.0030409808 -0.025413584 0.0065673287 -0.06439539 0.009629369
0.03752576 0.025777098 0.042058367 -0.013541576 -0.03238565 0.02910618 0.012057255 -0.0038436872
0.0026280198 -0.018494742 -0.021264853 0.013533401 -0.020415567 0.047375266 -0.03306705 0.00833133
0.032513656 0.017703837 0.028164752 0.003522712 -0.0106663825 0.00032916092 -0.016508786 0.009149163
0.0035078337 0.027306614 -0.011462648 0.019652976 0.045724865 -0.021659367 0.0018754296 -0.04786097
-0.017151605 0.0537518 0.020858202 0.020590436 -0.01956224 0.052922215 -0.037955955 -0.0011981778
-0.05595544 -0.06453142 -0.0021142433 -0.050570816 0.0377974 0.04839606 0.04029186 -0.02414905
00000000: 76ba 32bd 4fb1 ca3c eeb0 32bd 5f1e 0fbd
00000010: b7cc 093d b63b 3abd a737 7c3c b8d3 6cbc
00000020: 4417 28bd 069c 17bd 9e7e 053d be22 153c
00000030: 7102 abbd aaa4 1fbc 3481 d4ba b66b 443d
00000040: 3517 39bd 27c9 383c 44de 68bd b9c6 9dbd
00000050: 97d2 2d3d a5c7 12bd ea56 cc3c cf5a 05bd
00000060: 00c6 78bd 7eae 8e3c a789 353d 3e12 c73c
00000070: 41f5 413c ef18 6dbc 5fed 32bd 49ad 3cba
00000080: 4ccd 3abc 2093 223c 3619 cdbc fd8c c6bc
00000090: ba90 c8bc 7983 fe3c 9a66 b3bc 6b13 04bd
000000a0: c8ec 0b3d b1e9 8dbd 819b 8c3c 61eb 8cbd
000000b0: 2f55 373d 45a8 233d 21db f5bb 49f6 533c
000000c0: e906 823d 4276 37bd ea09 a1bd e2a0 233d
000000d0: f18c 64bd c1c9 25bd 3a10 8f3c c91a 6cbd
000000e0: 3e9e 713d 166a 14bd 5e34 18bd a627 8d3d
000000f0: 648f 28bd 4bed 563d 8140 b93c cdd3 36bd
00000100: eadc 043d bd08 72bd 7fce 41bd 8fd5 0d3c
00000110: da31 5cbc fd7c af3c b28f 503d e4e9 453d
00000120: d073 f93c 06b3 9b3b a902 39bb b9d5 6bbd
00000130: d1b3 adbc 6f92 09bd bb51 e0bc 00bb b2bc
00000140: 3589 5e3b 256c 8ebd 022e f4bc 8aeb 85bd
00000150: d24d 4dbc ea65 25bd d129 3e3b 9e09 c93c
00000160: b1d1 3a3d da4c 87bd c5cc e53b aa59 103b
00000170: 788f b5bd 6a4e db3c b75a db3c 0a2c 273d
00000180: 9eec 23b8 8823 40bd 0f34 1c3d 35e5 48bc
00000190: e18c a93c 8518 7ebc 077b 50bd 2709 bdbb
000001a0: 5e50 243c f16d 0fbd 7b6e 84bd 92c8 ecbc
000001b0: 7ede 163d 5f6d 163d 1004 4cbb 5f2a 633d
000001c0: 1ebf 793c c6a4 edbc e8ab e4bc d092 12bd
000001d0: 873d c03b 766e ccbc d5f2 003d 4b30 773d
000001e0: 1d14 56bc e0c3 90bd 4c54 a0bc 2b62 bfbd
000001f0: 0854 03bd d423 e7bb 9c93 98bd 508e b23c
00000200: 65cd cc3c c686 dabb 203a fb3c d8be f4bc
00000210: c10a b63c 3c8b 0a3d 0b02 70bd c82d 0e3d
00000220: 1fd2 fd3c 5645 05bd 4b78 39bd 8681 7c3c
00000230: 1d88 443b a112 02bd 84ed 50bd f5da e0bc
00000240: 7437 0a3d 51b3 b7bb d182 78bc 5064 05bc
00000250: 8e21 a7bd 5745 b2bc 2399 f93b 95ff 52bd
00000260: ffde a03c 2700 96bc b103 5f3c 2369 1bbd
00000270: fee4 f7bc e66f 0cbd 298d 86bc b480 653d
00000280: 80c9 60bd ca7b 113d 33be df3c 1c18 82bd
00000290: 79c9 0c3c 45bb 103c 8218 a63c a1e0 e1bc
000002a0: 513b 9b3d bdb4 303d e4ad 093b a3b3 3dbd
000002b0: d62b 64bd 77b6 52bd 109a 5ebd 6e16 823c
000002c0: f1a6 bcbc a0b2 4bbd 83e6 58bc 7ddb 39bd
000002d0: 0c7f 2b3d bfc9 4f3c 0b48 79bd e37f 53bd
000002e0: 3a1f 053c f48e 88bc ee17 c339 ba44 94bd
000002f0: 755e 8ebb 0242 b2bc 5f27 213b b749 9a3c
00000300: 9beb 0f3c 8a6c 89bd 9ca4 3ebd 77d0 fa3c
00000310: 205a 913c a407 713d 2a53 cf3c c6f0 5b3d
00000320: 6f69 bebc 337b 16bd fe7f 0cbc 314b 47bb
00000330: 2630 d0bc bf32 d73b bbe1 83bd 80c4 1d3c
00000340: 9cb4 193d 7e2a d33c 6545 2c3d 7ddd 5dbc
00000350: d1a6 04bd 1570 ee3c cb8b 453c 5fe6 7bbb
00000360: db3a 2c3b 4982 97bc a133 aebc 33bb 5d3c
00000370: 8c3e a7bc 910c 423d 5171 07bd 2180 083c
00000380: 0a2d 053d a307 913c c4b9 e63c 4ddd 663b
00000390: 0dc2 2ebc 3b93 ac39 6f3d 87bc 5fe6 153c
000003a0: afe3 653b 1fb2 df3c d5cd 3bbc 47ff a03c
000003b0: ff49 3b3d fc6e b1bc fad0 f53a dd09 44bd
000003c0: 8681 8cbc d92a 5c3d d2de aa3c 46ad a83c
000003d0: fe40 a0bc f7c4 583d b477 1bbd 2d0c 9dba
000003e0: 8831 65bd 0d29 84bd 1e8f 0abb 5823 4fbd
000003f0: 72d1 1a3d f23a 463d 1409 253d 3ad4 c5bc

conv_eyes.conv2.bias f4 [64]
0.006180306 0.0003103275 -0.0502632 0.006758148 0.018308206 -0.05110475 0.025784316 -0.050456047
0.022034047 0.052711353 -0.011670213 0.0538757 0.054652713 -0.01981666 -0.017925063 -0.047119163
0.03286459 0.020443542 0.015523868 -0.023104426 0.041367278 0.026680876 0.046867732 -0.0153231835
-0.017030856 -0.033890944 0.03726541 -0.048317503 -0.029443508 0.009282967 0.04494671 0.033548694
-0.03662551 -0.008951034 0.03676286 -0.0015212884 0.006649627 0.05009957 0.039607298 0.042520944
-0.029000428 -0.012560431 0.028439043 -0.04137578 0.036909916 0.032438528 0.022774942 0.014488963
-0.02719717 -0.044540282 0.03594136 0.039850596 0.013728869 -0.044378392 -0.051677115 -0.02958226
-0.045614243 0.014634893 0.008782416 -0.041496143 -0.051578637 -0.047847476 0.05493077 0.0040102946
00000000: 2a84 ca3b 74b3 a239 c9e0 4dbd 7473 dd3b
00000010: 17fb 953c 3753 51bd a139 d33c 00ab 4ebd
00000020: bf80 b43c dce7 573d 6c34 3fbc c4ac 5c3d
00000030: 86db 5f3d 8c56 a2bc 95d7 92bc 0600 41bd
00000040: 059d 063d 3779 a73c d257 7e3c 7e45 bdbc
00000050: bc70 293d da91 da3c 61f8 3f3d 170e 7bbc
00000060: 4b84 8bbc 3bd1 0abd 9da3 183d 93e8 45bd
00000070: 8333 f1bc 9617 183c 0b1a 383d 5b6a 093d
00000080: a104 16bd 5ca7 12bc a794 163d f865 c7ba
00000090: 1de5 d93b 3535 4d3d 433b 223d 712a 2e3d
000000a0: 4e92 edbc 44ca 4dbc fff8 e83c a679 29bd
000000b0: da2e 173d 43de 043d 8492 ba3c 1e63 6d3c
000000c0: 99cc debc df6f 36bd 3f37 133d 613a 233d
000000d0: 0def 603c 1ec6 35bd 62ab 53bd 7f56 f2bc
000000e0: 00d6 3abd 31c7 6f3c 1fe4 0f3c dcf7 29bd
000000f0: 1f44 53bd b7fb 43bd 16ff 603d ca68 833b

conv_eyes.conv3.weight f4 [64, 64, 7]
-0.011003042 0.024569763 0.024748096 0.03964016 -0.045993924 -0.021275189 0.029457437 -0.0034899975
0.008537464 0.044296406 -0.022834072 0.0069352626 -0.019305246 0.01242116 0.045104902 0.03357411
-0.033569064 0.04477283 -0.029837875 0.05048127 0.030662026 -0.048525278 -0.014754008 -0.0067818244
0.0131454775 -0.025174549 -0.040150244 -0.0074068075 0.042218275 0.043516006 0.02293705 0.0002455127
-0.005921445 0.039937574 0.04692663 -0.025588108 0.019616248 0.0357841 0.03183997 0.0072584758
0.01380548 0.008729503 0.025807116 0.04622849 0.039572574 0.017367631 -0.018025614 0.015349563
-0.034118503 0.004888927 -0.027430324 0.028011326 0.029798774 -0.002133389 -0.00018277856 0.06824646
-0.039700136 -0.039686877 0.04233994 0.031370625 0.037370786 0.045925513 0.037438277 0.016720952
-0.0030206945 0.018920938 0.05704025 0.0037932005 0.005983536 0.014372911 -0.004769977 -0.008981623
-0.024346057 -0.030292673 0.0289624 0.00017989117 -0.002439876 0.008034938 0.050374765 0.01004985
-0.035793558 0.03275149 0.048294574 0.03863502 -0.0496585 0.023985047 -0.018284673 -0.008021171
-0.05629429 -0.028273787 -0.0072779236 0.011683137 0.018517913 -0.032163143 -0.031071596 0.0028677976
-0.032230467 0.011424855 -0.0075848945 0.043877915 0.04411403 -0.017869322 0.02372688 -0.013706029
0.02560468 -0.03759574 0.029005338 -0.02302347 0.026489254 0.03301832 0.0020890585 -0.033563178
-0.010679667 0.05694029 -0.023837144 -0.0013484346 0.04061331 0.057784684 -0.0072584418 -0.026849685
0.04147847 -0.019067185 -0.033240266 -0.0068744123 -0.024403056 -0.011441087 0.0249837 0.008701351
-0.0123554645 -0.00082282966 0.015935183 0.0026892626 0.05446776 0.041911706 0.008807711 0.01223515
-0.024078144 0.0456034 0.019678287 0.02249827 0.0067100893 -0.029507443 0.03979516 0.04385238
0.025387451 0.020455128 -0.0065801614 -0.003000025 -0.0026976005 -0.0018920074 -0.005003083 -0.03860899
-0.0012947309 -0.019062107 -0.016868295 0.051807113 0.00883494 -0.025074027 0.01626257 0.05109898
-0.0139688505 -0.022534333 0.032414187 -0.03065837 0.042883467 0.02983616 0.04640301 0.011489405
-0.009469869 0.004988022 0.032266933 0.001402673 0.016226862 -0.04611848 0.024249606 0.010853704
0.038051408 0.034349326 0.002036108 0.04239649 -0.013644459 0.0038341575 -0.0027522845 -0.014749391
0.011743209 -0.027845103 0.017673029 0.017268347 0.037612602 -0.00273616 0.022518724 -0.014739154
0.002405914 -0.020570062 0.030716017 -0.0083298 -0.03412753 0.0074580894 -0.025250584 -0.005412592
-0.048609927 0.035874516 0.04370318 -0.049269915 0.023877861 -0.01431116 -0.050424166 0.0038979203
0.012038854 0.013010147 -0.03349189 0.017839767 0.010153198 -0.011058966 -0.004127457 -0.0041805296
-0.022795824 -0.05718075 0.02392671 -0.038394034 0.03757142 -0.0070244884 -0.013571209 -0.021797387
0.011558228 0.010764206 -0.03856359 0.031531934 0.01533635 0.021652408 0.041358758 0.0055205775
0.03611314 -0.033857558 -0.017272184 0.03595943 0.011391311 0.008099882 0.022388516 0.02194309
-0.017032446 0.035843056 0.039966848 0.023022346 0.037044477 0.0027960707 0.038598917 0.03489013
0.02738937 0.03286983 -0.01572196 0.008655482 -0.045868047 0.045211565 0.0068098595 0.01799901
00000000: 1a46 34bc 8746 c93c 85bc ca3c b85d 223d
00000010: 2064 3cbd 4e49 aebc b950 f13c 71b8 64bb
00000020: b8e0 0b3c 2670 353d 850e bbbc 3341 e33b
00000030: 0926 9ebc 1f82 4b3c ebbf 383d 0285 093d
00000040: b77f 09bd b763 373d 8f6e f4bc 73c5 4e3d
00000050: ee2e fb3c 71c2 46bd cbba 71bc 113a debb
00000060: 2160 573c db3a cebc 9574 24bd ceb4 f2bb
00000070: 12ed 2c3d d73d 323d 7be6 bb3c 28b8 8039
00000080: ae08 c2bb 9595 233d 2336 403d 279e d1bc
00000090: 41b2 a03c 5992 123d a16a 023d 82d8 ed3b
000000a0: 6130 623c 3006 0f3c 7269 d33c 165a 3d3d
000000b0: da16 223d 9046 8e3c 74aa 93bc bc7c 7b3c
000000c0: d8bf 0bbd 4b33 a03b 8fb5 e0bc 0278 e53c
000000d0: 8f1c f43c 54d0 0bbb 3fa8 3fb9 cdc4 8b3d
000000e0: 9c9c 22bd b58e 22bd a56c 2d3d 7c7e 003d
000000f0: 1c12 193d 641c 3c3d e158 193d 61fa 883c
00000100: d8f6 45bb 1500 9b3c 0aa3 693d 5897 783b
00000110: 8a11 c43b 5c7c 6b3c 784d 9cbb a827 13bc
00000120: 6271 c7bc 5728 f8bc 8e42 ed3c 2ba1 3c39
00000130: 54e6 1fbb f9a4 033c c555 4e3d 20a8 243c
00000140: 449c 12bd 6d26 063d 88d0 453d c13f 1e3d
00000150: b666 4bbd 4a7c c43c bdc9 95bc 3b6b 03bc
00000160: d794 66bd 6e9e e7bc a67b eebb a16a 3f3c
00000170: e1b2 973c 80bd 03bd dc89 febc a9f1 3b3b
00000180: 1804 04bd 512f 3b3c b58a f8bb 54b9 333d
00000190: eab0 343d af62 92bc e05e c23c 418f 60bc
000001a0: e8c0 d13c fefd 19bd 9a9c ed3c b79b bcbc
000001b0: feff d83c 383e 073d 96e8 083b 8b79 09bd
000001c0: c5f9 2ebc 393a 693d 1d46 c3bc f5bd b0ba
000001d0: 245a 263d a2af 6c3d 39d8 edbb dff3 dbbc
000001e0: 54e5 293d c932 9cbc f226 08bd c042 e1bb
000001f0: ebe8 c7bc 6673 3bbc 9eaa cc3c 1c90 0e3c
00000200: 936e 4abc 2ab3 57ba 808a 823c 573e 303b
00000210: 9619 5f3d 9cab 2b3d 384e 103c f075 483c
00000220: 873f c5bc a1ca 3a3d 5c34 a13c 4b4e b83c
00000230: 4fe0 db3b 98b9 f1bc 4000 233d 8e9e 333d
00000240: 58f9 cf3c 8391 a73c 659e d7bb 119c 44bb
00000250: 3aca 30bb 3cfd f7ba e7f0 a3bb 7624 1ebd
00000260: f6b3 a9ba 2328 9cbc 612f 8abc b233 543d
00000270: 6dc0 103c 0c68 cdbc 1539 853c 2a4d 513d
00000280: 9bdd 64bc ec99 b8bc bdc4 043d 4327 fbbc
00000290: 93a6 2f3d f66a f43c 1511 3e3d 0f3e 3c3c
000002a0: 8227 1bbc 9072 a33b 552a 043d e5d9 b73a
000002b0: 32ee 843c bbe6 3cbd 1ca7 c63c bcd3 313c
000002c0: cbdb 1b3d e1b1 0c3d 3970 053b f1a7 2d3d
000002d0: 028d 5fbc 7d46 7b3b ac5f 34bb 6ea7 71bc
000002e0: 9766 403c 6a1b e4bc 07c7 903c 5976 8d3c
000002f0: ac0f 1a3d 2651 33bb 3079 b83c 7e7c 71bc
00000300: 8aac 1d3b 8c82 a8bc 28a0 fb3c b779 08bc
00000310: 4fc9 0bbd fd62 f43b 50da cebc 1d5c b1bb
00000320: 341b 47bd 28f1 123d 1b02 333d 40cf 49bd
00000330: 819b c33c 5b79 6abc 9289 4ebd 4074 7f3b
00000340: 9d3e 453c 8328 553c cb2e 09bd b424 923c
00000350: 9959 263c aa30 35bc 9e3f 87bb d3fc 88bb
00000360: 4fbe babc 5d36 6abd f301 c43c 1043 1dbd
00000370: 7de4 193d ae2d e6bb c759 5ebc 6f90 b2bc
00000380: b95e 3d3c 5a5c 303c dbf4 1dbd a127 013d
00000390: 5045 7b3c 6460 b13c cd67 293d f6e5 b43b
000003a0: 5feb 133d 39ae 0abd 657e 8dbc 324a 133d
000003b0: 9fa2 3a3c 5eb5 043c 1f68 b73c ffc1 b33c
000003c0: a187 8bbc 2bd0 123d 47b4 233d 5c99 bc3c
000003d0: f3bb 173d 483e 373b e619 1e3d f4e8 0e3d
000003e0: ac5f e03c 84a2 063d 57cb 80bc b9cf 0d3c
000003f0: 22e0 3bbd c32f 393d 3e25 df3b a972 933c

conv_eyes.conv3.bias f4 [64]
-0.045757454 0.03204761 -0.0172879 -0.014313404 -0.020047354 -0.0041483645 0.028847475 0.013077436
0.02847022 0.016313126 0.044409756 -0.04670969 0.041050375 0.04422501 -0.04059048 0.005654004
0.032165285 -0.010762335 -0.026137603 -0.026523486 0.0033972482 -0.015721425 0.015723564 0.0025722953
-0.0028874832 -0.01466785 0.022738721 -0.039519213 0.030869043 -0.0022596042 0.022247635 -0.023289409
0.023714429 0.0009536835 -0.0015624029 -0.030226758 0.018335167 -0.037122164 0.046691727 0.013675765
-0.032598685 0.03721154 0.033273447 -0.04439537 0.0013900101 -0.0015659491 0.017525122 0.0381519
0.0068901097 0.029191656 0.02785652 0.037947778 0.007140175 -0.010407824 0.019617768 -0.008656321
0.03419756 0.00010849953 -0.018127143 -0.00085366005 -0.0014247756 -0.026308397 -0.027023505 -0.03129948
00000000: 2b6c 3bbd 5b44 033d 5b9f 8dbc c582 6abc
00000010: 593a a4bc 01ef 87bb 8a51 ec3c be42 563c
00000020: 613a e93c 1ba3 853c 01e7 353d a952 3fbd
00000030: 7024 283d 4925 353d 3442 26bd 3945 b93b
00000040: bfbf 033d 8154 30bc 871e d6bc c847 d9bc
00000050: 5ea4 5e3b 38ca 80bc b4ce 803c f493 283b
00000060: ee3b 3dbb 6c51 70bc 8e46 ba3c e6de 21bd
00000070: 13e1 fc3c de15 14bb ac40 b63c 6ec9 bebc
00000080: c344 c23c 9e00 7a3a 8bc9 ccba 1b9e f7bc
00000090: a233 963c 690d 18bd d33f 3f3d 5110 603c
000000a0: 3386 05bd 216b 183d bd49 083d ebd7 35bd
000000b0: 0031 b63a 8840 cdba d890 8f3c 2b45 1c3d
000000c0: 6ec6 e13b 5723 ef3c 5b33 e43c 216f 1b3d
000000d0: 21f8 e93b 9485 2abc 71b5 a03c 3ed3 0dbc
000000e0: be12 0c3d 3e8a e338 607f 94bc 28c8 5fba
000000f0: 89bf baba b584 d7bc 6660 ddbc e233 00bd

conv_eyes.bn1.weight f4 [64]
0.9721703 0.9844015 1.0007565 1.0355585 0.9772961 0.9918877 0.9893087 0.9995985
0.99568814 0.9769813 1.0060469 1.0140265 0.9886677 0.9792499 0.9886434 0.9979251
1.0094153 1.0069392 1.0136698 0.9860697 0.98557544 0.96956366 0.99985856 1.002157
1.0025125 0.980683 0.996737 0.9749042 0.993827 0.98413706 0.9862225 1.0234187
0.99999917 1.0148913 0.9930828 0.98530823 1.0153787 0.99491733 0.9948491 0.9900366
0.98953056 0.994878 0.977017 0.97785133 0.98048246 0.99653983 0.97921234 1.0129325
0.99025726 1.0022746 0.99438494 1.0077847 0.9935827 0.99532264 0.9828301 1.0092479
0.99340355 0.985655 0.9932797 0.9835986 0.99638414 1.0186919 1.0268534 0.98543125
00000000: 27e0 783f bd01 7c3f ca18 803f 2e8d 843f
00000010: 1430 7a3f 5aec 7d3f 5643 7d3f b0e5 7f3f
00000020: 6be5 7e3f 721b 7a3f 25c6 803f 9fcb 813f
00000030: 5419 7d3f 1fb0 7a3f bc17 7d3f 0578 7f3f
00000040: 8534 813f 62e3 803f efbf 813f 106f 7c3f
00000050: ac4e 7c3f 5335 783f bbf6 7f3f ae46 803f
00000060: 5452 803f 0b0e 7b3f 282a 7f3f 5293 793f
00000070: 726b 7e3f 68f0 7b3f 1479 7c3f 62ff 823f
00000080: f2ff 7f3f f5e7 813f ad3a 7e3f 293d 7c3f
00000090: eef7 813f e7b2 7e3f 6eae 7e3f 0a73 7d3f
000000a0: e051 7d3f 53b0 7e3f c91d 7a3f 7754 7a3f
000000b0: e600 7b3f 3c1d 7f3f a9ad 7a3f c6a7 813f
000000c0: 8081 7d3f 894a 803f 0390 7e3f 17ff 803f
000000d0: 705b 7e3f 77cd 7e3f c19a 7b3f 092f 813f
000000e0: b24f 7e3f e353 7c3f 9447 7e3f 1ecd 7b3f
000000f0: 0813 7f3f 7f64 823f ef6f 833f 3945 7c3f

conv_eyes.bn1.bias f4 [64]
0.035297833 0.0103655085 0.02678052 0.04725701 0.033130832 0.037974086 0.011924177 0.047377165
0.0010201739 0.028577268 0.03003463 0.009672229 0.021140592 0.018824527 0.05346349 0.02830699
0.016940225 0.06680925 0.0015907161 0.03719488 0.015039999 -0.009443789 0.03396752 0.06819199
0.028495884 0.005725332 0.0027725848 0.010050236 0.022558833 0.014058373 0.054731958 -0.00013052385
0.03644165 0.013465971 0.0066561755 0.025303947 -0.001532376 0.050294843 0.010177689 0.03441376
0.015495923 0.03266159 0.011358456 0.0072554005 0.011379895 0.04113087 0.015158739 0.028651869
0.047511976 0.019106487 0.05201673 0.054546885 0.03115365 0.024195174 0.023745084 0.052770197
0.03161689 0.01649375 0.02255171 -0.0022835522 -0.008925979 0.080903366 0.03762666 0.02274834
00000000: 7694 103d 18d4 293c d262 db3c 9190 413d
00000010: 32b4 073d b78a 1b3d a05d 433c 8f0e 423d
00000020: 5bb7 853a e01a ea3c 2f0b f63c 4578 1e3c
00000030: 092f ad3c e535 9a3c 88fc 5a3d 10e4 e73c
00000040: 3ac6 8a3c 4ad3 883d 937f d03a a959 183d
00000050: 546a 763c 1fba 1abc 8721 0b3d 3ea8 8b3d
00000060: 3370 e93c 919b bb3b 41b4 353b bfa9 243c
00000070: 4dcd b83c 1755 663c 9e2e 603d 3bdd 08b9
00000080: d743 153d 60a0 5c3c 0c1c da3b 394a cf3c
00000090: 02da c8ba f701 4e3d 52c0 263c 71f5 0c3d
000000a0: 9de2 7d3c 29c8 053d d118 3a3c b6be ed3b
000000b0: bd72 3a3c d878 283d 5c5c 783c 53b7 ea3c
000000c0: eb9b 423d 3585 9c3c 7f0f 553d 8e6c 5f3d
000000d0: f035 ff3c f534 c63c 0d85 c23c 9025 583d
000000e0: b680 013d e71d 873c 5dbe b83c a6a7 15bb
000000f0: 453e 12bc aab0 a53d 6a1e 1a3d ba5a ba3c

conv_eyes.bn1.running_mean f4 [64]
0.038660184 -0.2067352 -0.034893498 0.12063815 -0.25255337 -0.15834951 -0.20834486 -0.25955403
-0.13812149 0.1836072 0.2514738 0.2612006 -0.041825175 0.22095892 0.17930792 -0.06935411
-0.06634477 0.11588625 0.15238884 -0.24965169 0.013069766 -0.028187048 -0.078722 -0.08962022
0.00038478896 0.10980012 -0.051773723 -0.081290595 0.052992225 0.17960112 -0.16848125 -0.2145692
0.21084222 -0.17938821 -0.23134357 -0.015975447 -0.052714113 0.23586579 -0.21867312 0.2606806
-0.019871365 0.24707788 0.2235022 -0.044416763 0.10477787 0.16371793 -0.19383839 0.19877796
0.24823137 -0.14269736 -0.0101632085 0.28247243 -0.092520356 -0.08351609 -0.21957354 0.007509508
0.20690444 0.018069545 0.0985124 -0.12121785 0.08756809 0.1123187 -0.28001285 -0.0039953133
00000000: 245a 1e3d 64b2 53be 7cec 0ebd 2211 f73d
00000010: ad4e 81be 6026 22be 5b58 55be 44e4 84be
00000020: b86f 0dbe 8703 3c3e 2dc1 803e 16bc 853e
00000030: e050 2bbd 0e43 623e 7f9c 373e 8709 8ebd
00000040: c4df 87bd c555 ed3d d20b 1c3e b1a4 7fbe
00000050: 9222 563c 86e8 e6bc 0039 a1bd ce8a b7bd
00000060: 80bd c939 e3de e03d af10 54bd af7b a6bd
00000070: 600e 593d 5be9 373e 5986 2cbe 07b8 5bbe
00000080: 06e7 573e 8bb1 37be 54e5 6cbe f1de 82bc
00000090: c1ea 57bd cd86 713e d9eb 5fbe ed77 853e
000000a0: 46c9 a2bc fc01 7d3e c3dd 643e 5aee 35bd
000000b0: c895 d63d aca5 273e 927d 46be 738c 4b3e
000000c0: 5d30 7e3e 421f 12be 9683 26bc 3aa0 903e
000000d0: 507b bdbd 7c0a abbd e3d7 60be 5212 f63b
000000e0: c2de 533e 9506 943c dfc0 c93d 1041 f8bd
000000f0: e656 b33d 5907 e63d d85d 8fbe 1eeb 82bb

conv_eyes.bn1.running_var f4 [64]
0.30213302 0.044850457 0.09689632 0.17341469 1.1402751 0.17501387 0.031708308 0.792662
0.012714568 0.15306257 0.12054451 0.059601277 0.13200662 0.05976502 0.046024285 0.21543787
1.9946235 0.043692872 0.042348858 1.3941706 0.33059004 0.0871692 0.13029437 0.06698137
0.12512822 0.47553465 0.014635913 0.0837349 0.95036507 0.016617466 2.098449 0.015013367
0.91341835 0.029211834 0.114702165 0.4105561 0.0114586465 0.7091095 1.1349679 0.04407519
0.18668385 0.14252128 0.13535517 0.9985789 0.1346205 0.43329206 0.27951166 0.0050283163
0.22781914 0.22962205 0.4383635 1.4875968 0.07797724 0.141723 0.15738946 0.015881868
0.057213493 0.6264195 0.21714742 0.104543634 0.13971692 0.30029157 0.013688598 0.056831494
00000000: 2eb1 9a3e 1db5 373d 9471 c63d 9f93 313e
00000010: 89f4 913f d636 333e 92e0 013d e6eb 4a3f
00000020: c350 503c 6fbc 1c3e 0ae0 f63d 7820 743d
00000030: be2c 073e 2acc 743d f683 3c3d bf9b 5c3e
00000040: d34f ff3f 4cf7 323d ff75 2d3d 2f74 b23f
00000050: 1943 a93e c485 b23d e36b 053e 872d 893d
00000060: 9d21 003e 4779 f33e 78cb 6f3c 347d ab3d
00000070: 204b 733f 5a21 883c fd4c 0640 a0fa 753c
00000080: c9d5 693f a84d ef3c f8e8 ea3d 6934 d23e
00000090: 0cbd 3b3c 3388 353f a146 913f 3088 343d
000000a0: 0d2a 3f3e 19f1 113e 8c9a 0a3e dea2 7f3f
000000b0: f5d9 093e 75d8 dd3e 271c 8f3e 93c4 a43b
000000c0: 6c49 693e 0b22 6b3e 2e71 e03e 9269 be3f
000000d0: 88b2 9f3d d61f 113e b42a 213e b11a 823c
000000e0: b258 6a3d 075d 203f e55b 5e3e f91a d63d
000000f0: f411 0f3e d1bf 993e 2446 603c 24c8 683d

conv_eyes.bn2.weight f4 [64]
0.9975278 0.9841582 1.014631 0.9941412 0.99472874 0.99600327 1.0105416 0.97127616
0.9966659 1.0012571 0.98280823 1.0011955 0.96798164 0.99974114 0.99160874 1.0059943
1.0118614 1.0034702 0.99268985 0.98831856 0.9878269 0.99190503 0.9881912 0.98491937
1.0091482 0.98297936 0.99568415 1.0045362 0.99528897 1.0084523 0.98613226 0.99706596
0.99622476 0.99022007 0.99831396 0.99347967 0.9996768 0.99884003 0.9989825 0.97592807
0.9846383 1.0087676 0.9935101 0.99889034 0.9936339 0.9966989 0.9610678 1.0053021
1.000814 1.0004141 0.98921764 1.0003998 0.991235 1.0005347 1.0013909 1.0053804
0.99744934 1.0181026 1.0029184 1.0189499 0.9830501 0.98745495 0.99496156 0.98752755
00000000: fb5d 7f3f cbf1 7b3f 6edf 813f 0a80 7e3f
00000010: 8ba6 7e3f 12fa 7e3f 6d59 813f 8ea5 783f
00000020: 7f25 7f3f 3129 803f 5299 7b3f 2d27 803f
00000030: a5cd 773f 09ef 7f3f 12da 7d3f 6cc4 803f
00000040: ad84 813f b671 803f ec20 7e3f 7202 7d3f
00000050: 39e2 7c3f 7ded 7d3f 19fa 7c3f ad23 7c3f
00000060: c52b 813f 89a4 7b3f 28e5 7e3f a494 803f
00000070: 42cb 7e3f f714 813f 2a73 7c3f b73f 7f3f
00000080: 9608 7f3f 107f 7d3f 8191 7f3f af54 7e3f
00000090: d2ea 7f3f fbb3 7f3f 51bd 7f3f 6cd6 793f
000000a0: 4111 7c3f 4c1f 813f ae56 7e3f 47b7 7f3f
000000b0: cb5e 7e3f a927 7f3f 8a08 763f bdad 803f
000000c0: ac1a 803f 920d 803f 5e3d 7d3f 1a0d 803f
000000d0: 94c1 7d3f 8511 803f 942d 803f 4eb0 803f
000000e0: d758 7f3f 3051 823f a15f 803f f36c 823f
000000f0: 2ca9 7b3f d9c9 7c3f cdb5 7e3f 9bce 7c3f

conv_eyes.bn2.bias f4 [64]
0.013463805 0.0017350486 0.01277798 0.014551018 0.039957236 0.003377702 0.032577764 0.001963408
0.019558724 0.014225923 -0.009932283 0.013493721 -0.028415162 0.012900101 0.0015686492 0.009769046
0.033978496 0.016832681 -0.0064353934 -0.0013579905 0.0054555773 0.0024316797 0.00088560337 -0.005694492
0.02430499 0.0064605274 0.020348588 0.012407911 0.00043970704 0.009840433 -0.0042362544 -0.010365426
0.002918567 -0.0021295322 0.0037624408 0.009515232 0.009398844 0.0048114527 0.004378681 -0.0063715153
-0.011204481 0.012559946 -0.012811118 0.01791807 -0.0069634896 0.011017409 -0.020947885 0.026847238
-0.0026315239 0.017384863 0.021705402 -0.0018391141 0.0014897068 0.006216009 0.009053136 0.0184987
0.009754651 0.02605202 0.020018864 0.021523943 -0.0152330445 -0.011650821 0.015521223 0.0061159222
00000000: 4b97 5c3c 926a e33a bc5a 513c 6567 6e3c
00000010: 33aa 233d 705c 5d3b 4370 053d 85ac 003b
00000020: 9e39 a03c d913 693c 04bb 22bc c514 5d3c
00000030: eac6 e8bc f25a 533c 229b cd3a 590e 203c
00000040: 092d 0b3d b1e4 893c fedf d2bb 9afe b1ba
00000050: b3c4 b23b d15c 1f3b d627 683a dc98 babb
00000060: 421b c73c d5b2 d33b 15b2 a63c 8d4a 4b3c
00000070: 7b88 e639 c439 213c 47d0 8abb bfd3 29bc
00000080: 6e45 3f3b 9f8f 0bbb 4893 763b c7e5 1b3c
00000090: 9cfd 193c 64a9 9d3b 0a7b 8f3b 25c8 d0bb
000000a0: 0093 37bc 3bc8 4d3c b9e5 51bc ebc8 923c
000000b0: fc2d e4bb 5d82 343c e69a abbc bdee db3c
000000c0: a575 2cbb b36a 8e3c 87cf b13c 6e0e f1ba
000000d0: 4442 c33a aaaf cb3b 9b53 143c 968a 973c
000000e0: f9d1 1f3c 0c6b d53c 9afe a33c fb52 b03c
000000f0: 0594 79bc 16e3 3ebc ba4c 7e3c 1368 c83b

conv_eyes.bn2.running_mean f4 [64]
-0.72860223 -0.6901942 -0.7583611 -0.8357986 -1.1880764 -0.45598456 -0.62362975 -0.43374982
-0.18054822 -0.29959744 0.26745215 0.38409173 0.11786032 -0.87997353 -0.8022035 -0.55222404
-0.4644785 -0.8035641 -1.2436488 -0.805625 -0.55941427 -0.6836561 0.2049258 -0.13785063
0.08060128 -0.93906814 -0.90800196 -0.5212871 -0.31117773 -0.39700213 0.15853588 -0.5365627
0.10888318 -0.07859376 -0.25253168 -0.9561745 -1.0795878 -0.8034619 0.049595382 -0.28998962
-0.5875497 0.4136664 -0.6621356 -0.6158399 -0.2627762 -1.1224558 -0.08340218 -0.8561867
-0.6116952 -0.4442 -1.4251165 -0.51078963 -0.010780023 -1.162624 -0.59188306 -0.5026245
-1.0932751 -1.0444095 -0.31160986 -0.5480988 -0.10917746 -0.6349522 -0.25373548 -0.4047471
00000000: ad85 3abf 91b0 30bf f423 42bf e6f6 55bf
00000010: e312 98bf cf76 e9be 33a6 1fbf 7514 debe
00000020: a2e1 38be d664 99be 7def 883e aca7 c43e
00000030: c060 f13d f245 61bf 355d 4dbf 8e5e 0dbf
00000040: 20d0 edbe 60b6 4dbf e22f 9fbf 713d 4ebf
00000050: c635 0fbf 1604 2fbf 12d8 513e b728 0dbe
00000060: 4912 a53d c566 70bf d172 68bf 1273 05bf
00000070: b052 9fbe dd43 cbbe 3b57 223e 2c5c 09bf
00000080: 25fe de3d c4f5 a0bd d54b 81be dac7 74bf
00000090: ef2f 8abf aeaf 4dbf 8724 4b3d 8579 94be
000000a0: a869 16bf 15cc d33e b881 29bf afa7 1dbf
000000b0: 9a8a 86be a2ac 8fbf c3ce aabd 0d2f 5bbf
000000c0: 0e98 1cbf 2f6e e3be 386a b6bf 1cc3 02bf
000000d0: b29e 30bc ddd0 94bf a685 17bf 00ac 00bf
000000e0: 70f0 8bbf 36af 85bf 548b 9fbe 3450 0cbf
000000f0: 6f98 dfbd 3a8c 22bf 9ee9 81be 033b cfbe

conv_eyes.bn2.running_var f4 [64]
1.1872793 0.494025 1.954658 1.401944 1.1592493 0.23682547 0.24548249 0.83168566
1.4087147 0.9287922 0.9077112 1.6546936 0.36294848 1.7045252 1.6608235 0.5945418
0.5199616 0.405518 1.8442352 0.67735916 0.41416225 0.59141666 0.676645 1.7510328
0.27553442 1.2036676 1.4683803 0.37852734 0.7520482 0.28822884 0.9593384 0.5818468
0.77542967 1.0246499 1.4675814 2.1917648 1.3082734 2.1345017 0.75960696 0.28274253
1.1725389 0.49894005 1.2222911 0.4535006 0.29650575 1.807215 0.6767807 0.49627453
0.26368552 0.1676391 0.733643 0.23489074 0.83323157 1.310278 0.2945947 1.234493
1.4314969 0.50464803 0.18855281 0.2769002 0.9895004 1.0198014 1.7840171 0.7170755
00000000: c5f8 973f d8f0 fc3e 3c32 fa3f e772 b33f
00000010: 4862 943f 6082 723e c35f 7b3e 5ae9 543f
00000020: c350 b43f 53c5 6d3f c35f 683f 00cd d33f
00000030: 62d4 b93e e22d da3f dd95 d43f e433 183f
00000040: 341c 053f 0ea0 cf3e e60f ec3f 6967 2d3f
00000050: 130d d43e 1567 173f 9b38 2d3f d821 e03f
00000060: d912 8d3e c811 9a3f e3f3 bb3f 56ce c13e
00000070: 3b86 403f bb92 933e 3497 753f e9f3 143f
00000080: 8f82 463f ba27 833f b5d9 bb3f e045 0c40
00000090: 8175 a73f ad9b 0840 9a75 423f a1c3 903e
000000a0: c115 963f 1275 ff3e 0974 9c3f 3b31 e83e
000000b0: 9acf 973e d252 e73f 8041 2d3f b217 fe3e
000000c0: ca01 873e 96a9 2b3e 07d0 3b3f 3387 703e
000000d0: aa4e 553f 31b7 a73f 1ed5 963e de03 9e3f
000000e0: 4a3b b73f 9d30 013f fd13 413e ddc5 8d3e
000000f0: e64f 7d3f da88 823f ac5a e43f 4392 373f

conv_eyes.bn3.weight f4 [64]
0.9780822 1.0156898 1.000912 1.0070733 0.969664 1.0309913 0.9903202 1.0181291
1.0318062 0.9898262 1.0118191 1.0220077 1.0074464 0.96104056 1.0020783 0.9967722
0.99721915 0.9932419 0.9916251 0.99813515 0.9928137 0.9842081 1.0148904 0.9542258
0.9857014 1.0222883 0.997977 0.9786505 0.993963 0.9940223 0.9872681 1.0372571
1.0196382 0.97979414 0.9884336 1.0174379 1.0123297 1.0233172 0.9932024 1.0077564
1.0151298 0.9976779 0.9770437 1.015757 1.0004233 1.0005934 0.9875698 0.9610862
0.9686466 1.0123926 0.9799598 1.024325 1.0071391 1.0051583 0.9940963 1.0085144
1.0239046 0.96773475 0.9912777 0.9787859 1.0253758 1.0101278 1.0282744 1.0327336
00000000: 9863 7a3f 2002 823f e21d 803f c7e7 803f
00000010: e63b 783f 86f7 833f a085 7d3f 0e52 823f
00000020: 3a12 843f 4065 7d3f 4a83 813f 26d1 823f
00000030: 01f4 803f c106 763f 1a44 803f 772c 7f3f
00000040: c149 7f3f 1a45 7e3f 24db 7d3f c985 7f3f
00000050: 0a29 7e3f 10f5 7b3f eee7 813f 2448 743f
00000060: ed56 7c3f 58da 823f 6c7b 7f3f d788 7a3f
00000070: 5c74 7e3f 3f78 7e3f 9abd 7c3f d7c4 843f
00000080: 8183 823f cad3 7a3f fc09 7d3f 683b 823f
00000090: 0594 813f 0ffc 823f 8342 7e3f 29fe 803f
000000a0: c6ef 813f d267 7f3f 891f 7a3f 5304 823f
000000b0: df0d 803f 7213 803f 60d1 7c3f bf09 763f
000000c0: 39f9 773f 1596 813f a5de 7a3f 151d 833f
000000d0: efe9 803f 07a9 803f 187d 7e3f 0017 813f
000000e0: 4e0f 833f 77bd 773f 60c4 7d3f b691 7a3f
000000f0: 843f 833f de4b 813f 7f9e 833f 9d30 843f

conv_eyes.bn3.bias f4 [64]
-0.0064095734 0.04224431 0.029655106 0.035685334 -0.026296923 0.04492038 0.017742809 0.028912378
0.058261413 0.004371569 0.02906111 0.04338372 0.03645238 -0.028694093 0.028028768 0.024596948
0.012008297 0.019276518 0.0061928495 0.015938578 0.0053932522 0.010717577 0.037858386 -0.04084811
-0.0027826182 0.054508336 0.020118183 -0.012994915 0.026271822 0.019515717 0.0074597504 0.06979074
0.041678417 -0.008108533 0.014585787 0.050152127 0.03123821 0.046021085 0.005490407 0.027256798
0.0421865 0.0112124635 -0.017064394 0.033965822 0.03477273 0.024288941 0.005974693 -0.029663226
-0.017323084 0.0488054 -0.0100733675 0.058012776 0.035284013 0.027630027 0.022735622 0.040210776
0.05004885 -0.027016703 0.024256835 0.0036692815 0.05028575 0.031808093 0.06666839 0.04858369
00000000: 6607 d2bb 5f08 2d3d 44ef f23c c92a 123d
00000010: a56c d7bc 6ffe 373d 5e59 913c a7d9 ec3c
00000020: 85a3 6e3d 613f 8f3b 9111 ee3c 21b3 313d
00000030: 174f 153d e00f ebbc 969c e53c 8a7f c93c
00000040: 73be 443c cae9 9d3c 63ed ca3b 9f91 823c
00000050: e1b9 b03b c798 2f3c 6511 1b3d 5950 27bd
00000060: 965c 36bb 2244 5f3d e3ce a43c a0e8 54bc
00000070: 0138 d73c 6ddf 9f3c ec70 f43b 73ee 8e3d
00000080: fdb6 2a3d a7d9 04bc 3af9 6e3c 516c 4d3d
00000090: 46e7 ff3c 9b80 3c3d dfe8 b33b a649 df3c
000000a0: c0cb 2c3d 7bb4 373c a1ca 8bbc bf1f 0b3d
000000b0: da6d 0e3d 9af9 c63c 5cc7 c33b 4b00 f3bc
000000c0: 24e9 8dbc 2ce8 473d c40a 25bc ce9e 6d3d
000000d0: f885 103d 5e58 e23c 0e40 ba3c 0eb4 243d
000000e0: 0600 4d3d 2252 ddbc 45b6 c63c 5478 703b
000000f0: 6ef8 4d3d 3449 023d 7089 883d b1ff 463d

conv_eyes.bn3.running_mean f4 [64]
0.67812866 -0.96070373 -1.4695889 -0.4167178 0.97052944 -1.600944 -0.09755012 0.26609325
-1.4510243 0.26644355 -0.5848992 -0.4030549 0.29273507 0.4331702 -1.3256748 -0.89717174
-0.9642036 -0.4414898 -0.7019495 0.07304257 -0.85051394 -1.0276556 -0.6025677 0.1141391
0.55193806 -1.2375423 -0.9419648 -1.1334565 -0.08139297 -1.2078178 -0.45448008 -1.6484474
-1.2985871 -0.18999201 -1.7610905 -1.5882922 -1.1431072 -1.7000353 -1.1513743 -0.90858155
-1.2231698 -0.47231537 -0.21230528 -0.8004905 -0.21938136 -0.5172694 -0.4127964 -0.22623198
0.2947612 -1.3655515 0.046814777 -1.1599231 -0.75774926 -1.0426419 0.17612398 -0.35092342
-1.3079247 -0.05123679 0.65653753 -0.5718478 -0.6265344 -0.58575606 -1.1422979 0.023854854
00000000: d799 2d3f aef0 75bf 7d1b bcbf 095c d5be
00000010: 9e74 783f bceb ccbf 5bc8 c7bd 603d 883e
00000020: 2abb b9bf 4a6b 883e f4bb 15bf 365d cebe
00000030: 5fe1 953e 7cc8 dd3e b6af a9bf 0cad 65bf
00000040: 0cd6 76bf f30a e2be f6b2 33bf 5897 953d
00000050: 48bb 59bf 388a 83bf e041 1abf c3c1 e93d
00000060: d04b 0d3f c967 9ebf 9b24 71bf 1a15 91bf
00000070: 5cb1 a6bd c699 9abf 9db1 e8be 5300 d3bf
00000080: 1a38 a6bf 448d 42be 6a6b e1bf 294d cbbf
00000090: 5651 92bf c29a d9bf 3c60 93bf cd98 68bf
000000a0: d490 9cbf 52d3 f1be 8e66 59be f2ec 4cbf
000000b0: 82a5 60be c46b 04bf 0d5a d3be 5ba9 67be
000000c0: f1ea 963e 64ca aebf dac0 3f3d 5c78 94bf
000000d0: dbfb 41bf 4a75 85bf d859 343e 3cac b3be
000000e0: 146a a7bf abdd 51bd d812 283f 9e64 12bf
000000f0: 8f64 20bf 1cf4 15bf d136 92bf 416b c33c

conv_eyes.bn3.running_var f4 [64]
0.5831314 0.7516819 0.5361147 0.64785343 0.42042935 0.6948142 1.1960522 0.4514222
0.5841135 1.9313434 1.4158939 1.9774264 0.9846686 0.6734542 0.6189931 0.8444635
0.33807507 1.3175261 0.7606274 0.36664245 1.0488465 0.75098336 2.1112509 0.7567289
0.45980757 2.4317002 0.72010016 0.22918314 1.0023221 0.92588824 0.36882406 1.017202
0.681283 0.36395192 0.6096513 1.7568761 0.7383501 0.8201478 0.32323146 0.932264
1.0450299 1.5802361 0.18163584 0.49150303 1.393317 0.4126736 0.7417453 0.6821761
0.38265374 2.9350371 0.5951374 1.1241142 1.1175776 0.73243886 0.5124281 0.7917891
1.6392585 0.5513518 1.4350464 1.3127879 0.9617297 2.3643162 3.1202862 1.3718075
00000000: 1948 153f 3a6e 403f d03e 093f b9d9 253f
00000010: 8442 d73e 58df 313f 3d18 993f d020 e73e
00000020: 7688 153f 4336 f73f 033c b53f 4f1c fd3f
00000030: 3e13 7c3f 7f67 2c3f 5576 1e3f c32e 583f
00000040: 2d18 ad3e b2a4 a83f 7ab8 423f 8fb8 bb3e
00000050: 9a40 863f 7240 403f bc1e 0740 fcb8 413f
00000060: e66b eb3e faa0 1b40 7c58 383f fcae 6a3e
00000070: 174c 803f 0307 6d3f 82d6 bc3e ad33 823f
00000080: 9068 2e3f e857 ba3e 1c12 1c3f 51e1 e03f
00000090: 8304 3d3f 35f5 513f 987e a53e daa8 6e3f
000000a0: 8ac3 853f 2d45 ca3f bffe 393e 49a6 fb3e
000000b0: 3658 b23f f449 d33e 05e3 3d3f 18a3 2e3f
000000c0: 31eb c33e a6d7 3b40 ed5a 183f f9e2 8f3f
000000d0: c80c 8f3f 1d81 3b3f 7d2e 033f b1b2 4a3f
000000e0: 39d3 d13f 6425 0d3f 9aaf b73f 6f09 a83f
000000f0: eb33 763f f550 1740 c5b2 4740 6397 af3f

input_proj.weight f4 [64, 4]
0.38815093 -0.2860216 -0.20505834 0.45869997 0.48504552 0.26274243 0.31629553 -0.3423497
0.23376013 -0.16519348 0.3538196 -0.1654395 -0.36988714 0.47348312 -0.13309515 -0.3703226
-0.24428111 0.132841 0.1471663 -0.33366427 -0.38210043 0.38190332 0.44436595 0.2143716
0.32122985 0.46136445 0.08576673 -0.15107162 0.14922817 -0.3280015 0.29038024 -0.0023390814
0.15265429 0.05013998 -0.4638942 0.09873254 0.15459862 -0.22610088 -0.17682995 0.19972554
0.36688015 0.36815676 -0.39893836 0.052814525 -0.4004614 -0.44390538 0.30856195 -0.21122111
-0.08641029 0.25143912 -0.3871427 -0.17657398 -0.27503678 0.41979522 -0.34255284 0.12794206
0.2668586 -0.44222867 -0.1537838 0.3884262 -0.27838978 -0.14270689 0.073839 0.46742126
-0.4638341 0.19280568 -0.068251155 0.15274346 -0.25529036 0.086593375 -0.15520076 0.40381375
-0.29451126 0.05261858 -0.4165953 -0.34027803 0.20104314 -0.35927385 0.290444 -0.45685565
-0.03370776 0.23876639 0.108591884 0.3291922 -0.1461823 -0.1759544 0.2822509 -0.3458489
-0.40232822 -0.07473264 0.37665868 -0.17690612 -0.21127428 -0.15722018 -0.10653949 -0.11853645
-0.10211958 -0.15974744 0.49848488 0.14952862 0.012626601 0.056070987 -0.20755127 0.24651156
-0.12154358 -0.19749165 -0.27596834 0.3325383 -0.2859223 -0.24264085 -0.31601292 0.054216515
-0.05454473 0.047046795 0.31760728 -0.36650726 0.39927855 0.29003438 -0.25160933 -0.44693044
0.49054775 0.35531726 -0.4091464 0.18938214 0.14984132 0.19537283 -0.41767398 0.36862263
-0.27375987 -0.20654798 0.27401525 -0.49120829 0.057479277 -0.321084 -0.2796593 -0.41885647
-0.0319589 0.056210186 -0.054293126 -0.3789693 0.13888504 0.36124456 0.14869277 -0.4478048
-0.1408331 -0.42833248 -0.02166438 0.12966646 0.24188246 -0.04520121 0.36803788 -0.40638098
-0.3757916 0.37002268 0.026911188 -0.16870275 0.111770846 0.3031418 -0.40462494 0.08492966
0.059722 -0.155432 0.07408658 -0.24700788 -0.36433133 -0.053326756 0.014329498 0.03629077
-0.12988545 0.17944132 -0.32393953 0.48497385 0.22888581 -0.3556814 0.37466535 -0.33549774
-0.11160559 -0.43140328 -0.36955866 0.19465461 0.12807576 -0.10289033 0.035094954 -0.30952117
0.075390175 0.4674204 -0.47808957 0.29936618 -0.004358335 0.14772406 0.15764818 0.40398058
0.098939635 -0.4591052 -0.45814595 0.25218827 -0.25707027 0.11131408 0.45223677 -0.20809168
0.23670901 0.46106577 0.2839713 0.16918814 -0.30817586 0.29291514 0.28113055 -0.3029949
0.42931435 -0.39299667 0.036239617 0.20947324 -0.011710206 -0.25160015 0.44801426 0.40207782
-0.482029 0.061511055 -0.063431375 -0.15537852 0.24985681 0.0018105736 0.3229977 -0.12387319
0.0068674074 -0.21928982 -0.3773447 0.36232805 -0.05418597 -0.23781416 0.161018 -0.14053367
-0.24469051 -0.12657672 -0.061708875 0.36282283 -0.48436496 -0.02886793 -0.0070621525 -0.13833171
-0.4848105 -0.33608997 -0.46516904 -0.4532008 0.27497134 0.39069667 0.23559907 0.45453963
0.2813224 -0.025121316 -0.018721608 0.12057355 -0.13835277 0.3578095 -0.1796719 0.052975483
00000000: b8bb c63e 6c71 92be d0fa 51be b9da ea3e
00000010: e357 f83e 2d86 863e 7df1 a13e 7648 afbe
00000020: d15e 6f3e 7b28 29be d827 b53e f968 29be
00000030: d961 bdbe 616c f23e 184a 08be ec9a bdbe
00000040: d424 7abe 7907 083e c3b2 163e 0bd6 aabe
00000050: aba2 c3be d588 c33e ef83 e33e 3b84 5b3e
00000060: 3d78 a43e f637 ec3e 78a6 af3d 85b2 1abe
00000070: 45cf 183e d0ef a7be b8ac 943e 464b 19bb
00000080: 6851 1c3e 945f 4d3d 8a83 edbe 4934 ca3d
00000090: 1a4f 1e3e fd86 67be e912 35be da84 4c3e
000000a0: b7d7 bb3e 0b7f bc3e a641 ccbe 0b54 583d
000000b0: 4709 cdbe 9147 e3be d5fb 9d3e 594a 58be
000000c0: e1f7 b0bd a1bc 803e 9137 c6be cfcf 34be
000000d0: 9fd1 8cbe 66ef d63e 1663 afbe 3e03 033e
000000e0: b1a1 883e cc6b e2be 8079 1dbe cddf c63e
000000f0: 1b89 8ebe c121 12be e738 973d d751 ef3e
00000100: aa7b edbe da6e 453e 43c7 8bbd c868 1c3e
00000110: 6bb5 82be de57 b13d f3ec 1ebe adc0 ce3e
00000120: 2eca 96be 9586 573d fb4b d5be ec38 aebe
00000130: 41de 4d3e bef2 b7be 13b5 943e fce8 e9be
00000140: 2611 0abd 2d7f 743e 6c65 de3d e18b a83e
00000150: d0b0 15be 642d 34be 3183 903e 1b13 b1be
00000160: f7fd cdbe 6d0d 99bd 68d9 c03e e126 35be
00000170: 4958 58be 54fe 20be 6031 dabd 3dc3 f2bd
00000180: 1224 d1bd d594 23be 6939 ff3e 081e 193e
00000190: cedf 4e3c b1aa 653d 5288 54be 876d 7c3e
000001a0: d7eb f8bd 403b 4abe b94b 8dbe 7642 aa3e
000001b0: 6864 92be d876 78be 72cc a1be 2312 5e3d
000001c0: 4b6a 5fbd 24b4 403d 6c9d a23e d7a6 bbbe
000001d0: 3d6e cc3e 637f 943e f0d2 80be 11d4 e4be
000001e0: 1329 fb3e 25ec b53e a37b d1be 64ed 413e
000001f0: 0170 193e d10f 483e 5dd9 d5be 1bbc bc3e
00000200: 412a 8cbe 5081 53be ba4b 8c3e a77f fbbe
00000210: 646f 6b3d 1f65 a4be 812f 8fbe 5b74 d6be
00000220: 56e7 02bd a73c 663d 7862 5ebd 4408 c2be
00000230: e137 0e3e 0cf5 b83e eb42 183e ac46 e5be
00000240: 8d36 10be 654e dbbe 7f79 b1bc 49c7 043e
00000250: 09b0 773e e724 39bd 766f bc3e 2b11 d0be
00000260: c267 c0be 9d73 bd3e da74 dc3c 6ac0 2cbe
00000270: 1de8 e43d 6735 9b3e 002b cfbe 9aef ad3d
00000280: 0e9f 743d 9129 1fbe b4ba 973d a2ef 7cbe
00000290: a389 babe 286d 5abd 45c6 6a3c a1a5 143d
000002a0: b100 05be 77bf 373e 67db a5be 7e4e f83e
000002b0: 0b61 6a3e df1b b6be 23d4 bf3e 5cc6 abbe
000002c0: 7991 e4bd e4e0 dcbe cb36 bdbe 8a53 473e
000002d0: 4b26 033e 2ab8 d2bd babf 0f3d 8f79 9ebe
000002e0: 2a66 9a3d ba51 ef3e 28c8 f4be 8646 993e
000002f0: 5dd0 8ebb fa44 173e 866e 213e 8bd6 ce3e
00000300: dda0 ca3d d60f ebbe 1b92 eabe d21e 813e
00000310: b79e 83be a3f8 e33d 948b e73e fc15 55be
00000320: d963 723e d010 ec3e b064 913e a83f 2d3e
00000330: 3ac9 9dbe f9f8 953e 58f0 8f3e 2622 9bbe
00000340: 17cf db3e dc36 c9be fe6f 143d 2780 563e
00000350: 2adc 3fbc bcd1 80be 2062 e53e 25dd cd3e
00000360: 81cc f6be 04f3 7b3d 4fe8 81bd 8c1b 1fbe
00000370: 77da 7f3e c550 ed3a f45f a53e 3ab1 fdbd
00000380: fd07 e13b 838d 60be 5333 c1be 1083 b93e
00000390: 1cf2 5dbd 8e85 73be e7e1 243e 0fe8 0fbe
000003a0: 2690 7abe 549d 01be 72c2 7cbd eac3 b93e
000003b0: affe f7be 707c ecbc a169 e7bb d4a6 0dbe
000003c0: 1539 f8be fc13 acbe a32a eebe ef09 e8be
000003d0: 0bc9 8c3e 6509 c83e e240 713e 6bb9 e83e
000003e0: 7d09 903e 38cb cdbc 0f5e 99bc 44ef f63d
000003f0: 59ac 0dbe cf32 b73e e9fb 37be d2fc 583d

input_proj.bias f4 [64]
0.29829225 -0.15270096 0.051003486 -0.25872996 -0.45792687 -0.16994904 -0.05017675 -0.13100982
-0.30154356 -0.27203557 0.47731104 0.16211452 0.116444364 -0.15071665 -0.11797347 -0.023927001
0.20726492 0.05625523 -0.16887861 0.15108314 -0.01633397 0.4793424 -0.35463127 -0.24502921
-0.13782652 -0.101595804 -0.4727249 0.11208475 -0.41725236 -0.16644265 0.3486223 0.08894517
0.41307804 0.34592602 -0.23923838 0.362483 0.07723971 -0.25266433 0.12182169 -0.18915094
0.022982648 0.20236714 0.119538926 0.16067421 0.07694026 -0.51173276 -0.10320827 -0.42127478
0.31310415 0.3539328 0.05201048 0.4918665 -0.06109828 0.13376385 0.13858889 -0.281505
-0.10139835 0.1886227 0.04167406 -0.40005493 0.42120636 0.028783295 0.30013233 0.27788368
00000000: c3b9 983e a45d 1cbe 08e9 503d 4178 84be
00000010: 6475 eabe 1f07 2ebe 2386 4dbd 7027 06be
00000020: eb63 9abe 3f48 8bbe 1d62 f43e 5901 263e
00000030: 627a ee3d 7755 1abe 139c f1bd 8f02 c4bc
00000040: 413d 543e e26b 663d 84ee 2cbe 8ab5 1a3e
00000050: d1ce 85bc 5e6c f53e 3b92 b5be f0e8 7abe
00000060: 6522 0dbe 7611 d0bd 0009 f2be b08c e53d
00000070: 1aa2 d5be f16f 2abe 9f7e b23e e328 b63d
00000080: f77e d33e 371d b13e e8fa 74be 5f97 b93e
00000090: da2f 9e3d 385d 81be a67d f93d c9b0 41be
000000a0: 1b46 bc3c 5539 4f3e d3d0 f43d c887 243e
000000b0: db92 9d3d eb00 03bf dc5e d3bd 54b1 d7be
000000c0: 304f a03e ae36 b53e f108 553d edd5 fb3e
000000d0: 3142 7abd 64f9 083e 3fea 0d3e 6c21 90be
000000e0: f0a9 cfbd 4f26 413e 6bb2 2a3d 00d4 ccbe
000000f0: 5ca8 d73e f2ca eb3c f2aa 993e c546 8e3e
