backend/ml/research/models/best_scalping_mca.pth (torch, 318761 bytes, 35 tensors)

conv_eyes.conv1.weight f4 [64, 4, 3]
0	0x3e0808f9	0.13284673
1	0xbe26dd7c	-0.16295427
2	0x3e54a5e0	0.20766401
3	0xbe827385	-0.2547876
4	0x3e3c781b	0.18405192
5	0x3e223a63	0.15842585
6	0x3df84bf4	0.12123862
7	0xbe0163fa	-0.12635794
8	0x3ca3abc1	0.01997936
9	0xbe97722d	-0.29579297
10	0x3def3fb6	0.11682074
11	0x3cdf27a0	0.027240574
12	0xbe2d1ea8	-0.16906226
13	0x3d0d75e9	0.034536276
14	0x3da38ffc	0.07986447
15	0x3d79dd1e	0.06100189
16	0xbe927f4c	-0.28612745
17	0x3e819eec	0.2531656
18	0x3e85ade2	0.26109225
19	0xbe830152	-0.25586945
20	0x3e55cb0f	0.20878242
21	0x3e299010	0.16558862
22	0xbe2862d2	-0.16443947
23	0xbe1d2ccb	-0.15349118
24	0x3c87196e	0.016491618
25	0xbc023ac7	-0.007948584
26	0xbd1780f5	-0.036988217
27	0xbd5a597b	-0.05330799
28	0xbe09c6bb	-0.13454716
29	0x3df726a9	0.12067921
30	0x3e35e7d3	0.17764215
31	0xbd9fe2b6	-0.078069136
32	0x3e561256	0.20905432
33	0xbe838341	-0.25686076
34	0xbe8d6396	-0.2761504
35	0x3e5637c1	0.20919706
36	0x3ca31405	0.019907007
37	0xbbe655ae	-0.007029257
38	0xbd5c273e	-0.05374836
39	0xbc751b26	-0.014960086
40	0xbe6e3f68	-0.23266375
41	0xbd56ae64	-0.052412406
42	0xbe6a8556	-0.22902426
43	0xbd5d6732	-0.054053493
44	0x3e8cf90c	0.27533758
45	0xbe84e757	-0.25957748
46	0x3e859977	0.26093647
47	0x3d91835e	0.071051344
48	0xbe90de0e	-0.28294414
49	0xbe6cfa74	-0.23142415
50	0xbe4aded1	-0.1981156
51	0xbdff0a34	-0.12453118
52	0xbd38a400	-0.045078278
53	0x3c50fc61	0.012755484
54	0x3d38c710	0.045111716
55	0xbdd63ad7	-0.104604416
56	0x3e1d6626	0.15370998
57	0xbdf0ead5	-0.11763541
58	0xbe736ffb	-0.23773186
59	0x3dfcce92	0.12344088
60	0xbd9c48ba	-0.07631059
61	0x3da26669	0.079296894
62	0x3e96feef	0.29491374
63	0xbe95dfbb	-0.29272255
64	0x3c8a5496	0.016886037
65	0xbd79d65e	-0.060995452
66	0xbd59afa4	-0.05314602
67	0x3e170bca	0.14750591
68	0xbd54cc4b	-0.05195264
69	0xbc88b2c6	-0.016686808
70	0x3e0728f8	0.13199222
71	0x3d9880b2	0.07446422
72	0x3d9350f5	0.07193176
73	0x3e558664	0.20852047
74	0xbdcc694c	-0.09981021
75	0xbe005bca	-0.12535015
76	0xbe14fd42	-0.14549735
77	0x3e846e70	0.25865507
78	0x3cf801f0	0.030274361
79	0xbe8d3a74	-0.2758366
80	0xbd129332	-0.035784908
81	0x3e139a1a	0.14414254
82	0xbe33dca9	-0.17564644
83	0x3e35a910	0.17740273
84	0xbd37c500	-0.04486561
85	0xbe077a07	-0.13230143
86	0x3dd24001	0.10266114
87	0x3d3a0c80	0.045422077
88	0xbe07844d	-0.13234062
89	0xbe908388	-0.2822535
90	0x3e41a6ea	0.18911329
91	0xbe5ca9d9	-0.21549167
92	0xbd9b03c9	-0.07569081
93	0x3dfb72fe	0.122777924
94	0xbd2c69e8	-0.042093188
95	0xbe399d01	-0.18126298
96	0x3e887abe	0.26656145
97	0xbe1b93ae	-0.15193054
98	0x3df31fe3	0.11871316
99	0xbdbbbe65	-0.09167174
100	0x3e9f2db4	0.31089556
101	0xbe5e32a8	-0.21699011
102	0xbd39cbc3	-0.045360338
103	0x3c7f0ef1	0.015567527
104	0x3c8e8a3f	0.017399905
105	0xbe2e3f47	-0.17016326
106	0xbd5e1f81	-0.054229263
107	0x3cb0bd65	0.021574685
108	0x3df434c2	0.11924125
109	0xbd1a1c3d	-0.037624586
110	0x3e094012	0.13403347
111	0x3ce5dd80	0.028059721
112	0x3dcba811	0.099441655
113	0xbe3c2fe9	-0.18377651
114	0x3e6151a7	0.22003804
115	0xbb85def7	-0.0040854174
116	0x3d8ba94e	0.06819402
117	0xbd9ef654	-0.07761827
118	0x3cbdb8df	0.023159442
119	0xbe014ad1	-0.12626196
120	0xbccc77d0	-0.024959475
121	0x3e799a77	0.2437533
122	0xbe831fbe	-0.25610155
123	0x3e0d1918	0.13779104
124	0xbdc90b85	-0.0981665
125	0xbe835785	-0.2565271
126	0xbd0369b0	-0.032083213
127	0x3d10bc18	0.03533563
128	0xbe55872d	-0.20852347
129	0x3e9096b4	0.28239977
130	0xbd307b5a	-0.043086387
131	0x3e4ce0d9	0.20007648
132	0x3e02aef8	0.12762058
133	0xbe306333	-0.17225341
134	0xbe231a9f	-0.15928124
135	0x3e25efc4	0.16204745
136	0xbe883e18	-0.26609874
137	0x3e7a69bf	0.24454401
138	0x3e337b0f	0.17527412
139	0x3dfdf9b7	0.12401145
140	0xbcd88743	-0.026431685
141	0x3da9d365	0.082922734
142	0xbd8bf3dd	-0.068336226
143	0xbe527fc2	-0.20556548
144	0x3e2eb66f	0.1706178
145	0xbe0fd692	-0.14046696
146	0x3e3dc21d	0.1853108
147	0x3e74c041	0.23901464
148	0xbe56bb39	-0.20969857
149	0xbe29d295	-0.16584237
150	0x3e3a1714	0.18172866
151	0x3e50f312	0.20405224
152	0xbe73f06b	-0.23822181
153	0x3d4a54bd	0.04939722
154	0xbdbc5dce	-0.09197579
155	0x3bbe84b4	0.0058141593
156	0x3eaa70fa	0.3328932
157	0xbd86a862	-0.06575085
158	0x3d358353	0.044314694
159	0xbdc58c89	-0.096459456
160	0xbe46c122	-0.19409612
161	0xbe1ea69e	-0.15493247
162	0xbe5b16e9	-0.21395458
163	0x3e899448	0.26870942
164	0x3d428c88	0.047497302
165	0xbd600584	-0.05469276
166	0x3c76e6ed	0.015069705
167	0x3e073cbe	0.13206765
168	0xbe887748	-0.26653504
169	0xbc218c96	-0.009860178
170	0xbe849de5	-0.25901714
171	0x3e88212a	0.26587802
172	0x3e3b1e21	0.18273212
173	0xb91f523d	-0.00015194058
174	0xbe86a510	-0.26297808
175	0x3e77fbb6	0.24217114
176	0x3e06813c	0.13135237
177	0x3e5f0c96	0.21782145
178	0xbe1ee0a9	-0.15515389
179	0x3c01825a	0.007904613
180	0xbe4b9ee0	-0.19884825
181	0xbd8c2d25	-0.06844548
182	0x3e57519c	0.21027225
183	0xbd79961b	-0.060934167
184	0x3e0a9451	0.1353314
185	0xbdda335b	-0.106543265
186	0x3e6e43af	0.23268007
187	0xbe6bb2bc	-0.230174
188	0x3e2439e2	0.16037706
189	0x3e96d71e	0.29460996
190	0xbe0c9fcd	-0.13732834
191	0x3cad1813	0.021129644
192	0xbe445f4e	-0.19176981
193	0xbdedffc6	-0.116210505
194	0xbe951d30	-0.2912383
195	0xbe46adb6	-0.19402203
196	0x3e21e242	0.15808967
197	0xbe6fc6b0	-0.23415637
198	0xbdf379ba	-0.11888452
199	0x3d20d0aa	0.039261498
200	0xbe0a352d	-0.13496847
201	0xbd43fc08	-0.047847778
202	0xbd8f0800	-0.06983948
203	0xbe567ada	-0.20945302
204	0xbd9cc869	-0.07655413
205	0xbdde3e80	-0.10851765
206	0x3e631858	0.22177255
207	0xbe1ed979	-0.15512647
208	0xbe24fd67	-0.1611229
209	0x3e12883d	0.14309783
210	0x3dc5b254	0.09653154
211	0x3e589a42	0.21152595
212	0x3e40e855	0.18838628
213	0xbd8e1ab4	-0.06938687
214	0xbdf498bd	-0.11943195
215	0xbe0f472e	-0.13991997
216	0x3bb6fca7	0.0055843177
217	0x3e4f8f7d	0.2026958
218	0xbe89ffeb	-0.26953062
219	0x3c431d05	0.011908774
220	0xbe05f575	-0.13081916
221	0xbe752d15	-0.23942979
222	0xbe61cba6	-0.22050342
223	0x3e8060ed	0.25073949
224	0x3e640ed1	0.22271277
225	0x3d0980bc	0.033570036
226	0x3e63376a	0.22189108
227	0xbdad3c3e	-0.08458756
228	0x3ea06d52	0.31333405
229	0x3e751194	0.23932487
230	0xbcf27d29	-0.029600697
231	0x3e83d101	0.25745395
232	0x3da7acea	0.081872776
233	0xbe7607e1	-0.24026443
234	0xbe6c9c95	-0.23106606
235	0x3deac839	0.11463971
236	0xbde39e36	-0.11114161
237	0x3e5262f8	0.20545566
238	0x3e1ce4a5	0.15321596
239	0x3e48f3b9	0.19624223
240	0xbe418da8	-0.18901694
241	0x3e5427ca	0.20718303
242	0x3cda06eb	0.026614627
243	0xbdf6c08a	-0.12048443
244	0x3ddd9251	0.10818923
245	0x3e7e9b07	0.24863826
246	0x3e6f7f93	0.2338851
247	0xbd728c78	-0.059215993
248	0x3e556b06	0.20841607
249	0x3d867210	0.065647244
250	0xbe0c71bd	-0.13715263
251	0xbcba19de	-0.022717413
252	0x3da5aa62	0.080891386
253	0x3e6a8c0e	0.22904989
254	0x3df15974	0.1178464
255	0xbe13a4d6	-0.14418349

conv_eyes.conv1.bias f4 [64]
0	0x3d12004c	0.035644814
1	0xbe51373f	-0.20431231
2	0xbd0d7d48	-0.034543306
3	0x3df70368	0.120611966
4	0xbe7a3d31	-0.24437405
5	0xbe21bf86	-0.15795717
6	0xbe52a15a	-0.20569363
7	0xbe8158a5	-0.25262943
8	0xbe0f1e6d	-0.1397645
9	0x3e385787	0.18002139
10	0x3e7f21aa	0.24915186
11	0x3e84713c	0.2586764
12	0xbd2d38bb	-0.04229043
13	0x3e5f62fb	0.21815102
14	0x3e355227	0.1770712
15	0xbd84e0cd	-0.0648819
16	0xbd6f383b	-0.058403235
17	0x3dec8abe	0.115499005
18	0x3e1aa70f	0.1510279
19	0xbe822540	-0.25419044
20	0x3c25b8b1	0.010114835
21	0xbce4cbb7	-0.02792917
22	0xbda3b969	-0.079943486
23	0xbdb6306d	-0.08895955
24	0x3af01a67	0.0018318415
25	0x3de58b45	0.11208204
26	0xbd4f13b5	-0.050555903
27	0xbd9ca5dd	-0.076488234
28	0x3d6bee27	0.057600167
29	0x3e358b50	0.17728925
30	0xbe32223f	-0.17395876
31	0xbe5b76c8	-0.2143203
32	0x3e5ae0f6	0.21374878
33	0xbe35b1bf	-0.17743586
34	0xbe68eab2	-0.22745779
35	0xbc5ae341	-0.013359846
36	0xbd4cb389	-0.049975906
37	0x3e726895	0.23672707
38	0xbe590f55	-0.21197255
39	0x3e832085	0.25610748
40	0xbc8b13b3	-0.016977167
41	0x3e7cea6a	0.24698797
42	0x3e637388	0.2221204
43	0xbd1f90fa	-0.03895662
44	0x3dd6f27e	0.104954705
45	0x3e28a10d	0.16467686
46	0xbe41e4a4	-0.18934876
47	0x3e48daf0	0.19614768
48	0x3e77c3a0	0.24195719
49	0xbe122732	-0.14272764
50	0xbc5477d6	-0.012968024
51	0x3e8c038c	0.27346456
52	0xbdbe6176	-0.09295933
53	0xbda7fb26	-0.082022
54	0xbe60d64d	-0.2195675
55	0x3bcfa333	0.0063365935
56	0x3e52138e	0.20515272
57	0x3c5df93c	0.013548192
58	0x3dc1d6f3	0.094648264
59	0xbdf6ec93	-0.12056842
60	0x3db5d4bd	0.08878467
61	0x3dded49d	0.108803965
62	0xbe8cfac1	-0.2753506
63	0xbbcaab01	-0.006184936

conv_eyes.conv2.weight f4 [64, 64, 5]
0	0xbcf44a4f	-0.02982059
1	0x3ca14f13	0.019691026
2	0xbcec2b2a	-0.028829176
3	0xbcc0237c	-0.02345442
4	0x3cf294f2	0.029612038
5	0xbd466131	-0.048432533
6	0x3c6e50d7	0.014545641
7	0xbce2588a	-0.02763011
8	0xbb5a34d2	-0.0033295644
9	0xbd4b3698	-0.04961261
10	0x3d027293	0.031847548
11	0x3c900b5e	0.017583545
12	0xbdd2a6d0	-0.10285723
13	0x3c5b5230	0.013386294
14	0xba153230	-0.00056913774
15	0x3d76a3e7	0.060214903
16	0xbd26e65f	-0.040747043
17	0x3b5ff027	0.0034170242
18	0xbd6146e3	-0.054999243
19	0xbd9508c7	-0.07277065
20	0x3d40bfc5	0.047057886
21	0xbd07c723	-0.033148896
22	0x3c5b30db	0.013378347
23	0xbd05fed5	-0.03271373
24	0xbd73dbdd	-0.05953585
25	0x3cc99950	0.024609238
26	0x3d1dae76	0.038496457
27	0x3d21c677	0.03949591
28	0x3c7c7526	0.01540879
29	0xbcafaa29	-0.021443443
30	0xbd9dfd73	-0.07714357
31	0xbbe46d43	-0.006971033
32	0xbcf1aff4	-0.029502846
33	0x3d2c49be	0.042062514
34	0xbd25610d	-0.040375758
35	0xbcbda0db	-0.02314799
36	0xbd16fd6f	-0.036862787
37	0x3cfafefe	0.030639168
38	0xbc8c488e	-0.01712444
39	0xbcd0380b	-0.025417348
40	0x3db11395	0.08646313
41	0xbd0a951e	-0.033833615
42	0x3d39b3ad	0.045337368
43	0xbd51c90b	-0.05121712
44	0x3d96c5c3	0.07361939
45	0x3d483256	0.04887613
46	0xbaf443d1	-0.0018635934
47	0x3cb52920	0.022114336
48	0x3d9977b6	0.07493536
49	0xbd14eecf	-0.036360558
50	0xbda7f920	-0.08201814
51	0x3d1ae8a3	0.037819516
52	0xbd81979a	-0.06327744
53	0xbcbb3d80	-0.022856474
54	0x3d0b886b	0.034065645
55	0xbd2e7a02	-0.042596824
56	0x3d9094fb	0.07059666
57	0xbc70d05e	-0.014698116
58	0xbc9a3d5f	-0.018828092
59	0x3db8ac55	0.09017245
60	0xbcc0d562	-0.023539249
61	0x3d8157ed	0.06315599
62	0x3d21a737	0.03946611
63	0xbcfa0413	-0.03051952
64	0x3d61552c	0.055012867
65	0xbd09d21e	-0.03364765
66	0xbc53a2ea	-0.01291726
67	0x3c7622da	0.015022958
68	0xbca85012	-0.020545993
69	0x3d3eae3d	0.046552885
70	0x3d025617	0.031820383
71	0x3d891815	0.066940464
72	0x3c407fb1	0.011749194
73	0x3c6d1097	0.014469287
74	0xba947a49	-0.0011327948
75	0xbd5bed89	-0.053693328
76	0xbcd7d5d1	-0.026347073
77	0xbd31f977	-0.0434508
78	0xb919c54e	-0.00014664719
79	0xbc9c57f1	-0.019084902
80	0x3bea9876	0.007159288
81	0xbd986c5c	-0.07442543
82	0xbcfd10cc	-0.030891798
83	0xbd8fd4b8	-0.07022995
84	0xbc1f963f	-0.009740411
85	0xbd07c5e7	-0.03314772
86	0x3af42897	0.0018627819
87	0x3ce246cc	0.02762165
88	0x3d5776ff	0.052603718
89	0xbd9f1fb0	-0.07769716
90	0x3c039784	0.00803173
91	0x3d05cba0	0.032664895
92	0xbdd4efac	-0.10397276
93	0x3d2a30cb	0.04155044
94	0x3d32bcb0	0.043636978
95	0x3d3a78cf	0.04552537
96	0x3ba68017	0.0050811875
97	0xbd465679	-0.04842231
98	0x3d35feca	0.04443244
99	0xbbaacef8	-0.005212661
100	0x3cbc4902	0.022984032
101	0xbc56be02	-0.013106825
102	0xbd383a34	-0.04497738
103	0x3bfc060a	0.0076911496
104	0x3c00547f	0.007832645
105	0xbc35317d	-0.011059162
106	0xbd538803	-0.051643383
107	0xbb7b7766	-0.0038370728
108	0x3d71788d	0.058952857
109	0x3d5aee6a	0.053450026
110	0x3c3f81de	0.011688678
111	0x3d8f2b44	0.06990674
112	0x3cd04fad	0.025428617
113	0xbc1f4f26	-0.00972346
114	0xbc9fd83e	-0.019512292
115	0xbca50e81	-0.020148518
116	0x3c54d164	0.012989376
117	0xbc2f9a42	-0.01071793
118	0x3d745048	0.059646875
119	0x3d8eaaa2	0.069661394
120	0x3b8ed28f	0.0043585966
121	0xbd84c59f	-0.06483006
122	0xbc0bd167	-0.008533812
123	0xbdd5e939	-0.10444874
124	0xbce12a43	-0.027485972
125	0x3b513dfe	0.003192782
126	0xbda7c5b3	-0.08192005
127	0x3cde20de	0.027115282
128	0x3cce05ce	0.025149252
129	0x3a89275c	0.0010464
130	0x3c78659d	0.015160945
131	0xbd49c371	-0.049258653
132	0x3d10b649	0.03533009
133	0x3d9aceef	0.07559001
134	0xbd7cdf80	-0.061736584
135	0x3d607dca	0.05480746
136	0x3d351780	0.044211864
137	0xbc896e4e	-0.01677623
138	0xbd10850c	-0.035283133
139	0x3ca71549	0.020395892
140	0x3c3456e8	0.011007048
141	0xbcf7266f	-0.030169694
142	0xbd641636	-0.055685245
143	0xbce4e054	-0.027939
144	0x3d0bda25	0.034143586
145	0x3c2ce98b	0.010553728
146	0xbbb88f4f	-0.005632318
147	0xbb02a462	-0.0019934406
148	0xbdc768e2	-0.09736802
149	0xbc1e61bb	-0.009666855
150	0x3bf8b2c7	0.0075896713
151	0xbd560683	-0.052252304
152	0x3cba0f68	0.022712424
153	0xbc357de0	-0.011077374
154	0x3c65e17a	0.014030809
155	0xbd05836c	-0.032596037
156	0xbd13b231	-0.03605861
157	0xbd379619	-0.04482088
158	0x3bb3cf45	0.005487355
159	0x3daab26d	0.08334813
160	0xbd535717	-0.051596727
161	0x3cedd093	0.02903012
162	0x3cd06cd5	0.02544252
163	0xbd6f9dd5	-0.05850013
164	0x3c849bd4	0.016187586
165	0x3c932983	0.01796413
166	0x3c8e0ef5	0.017341116
167	0xbab51c3f	-0.0013817622
168	0x3de381ee	0.111087665
169	0x3d72c0bc	0.059265837
170	0x3c9557a8	0.018230274
171	0xbd3db336	-0.046313487
172	0xbd4942ec	-0.049136087
173	0xbd06173a	-0.032736994
174	0xbd514eb8	-0.051100463
175	0x3cbeb64b	0.023280283
176	0xbcdee694	-0.027209558
177	0xbd3a533b	-0.04548953
178	0xbc8a6d96	-0.016897958
179	0xbd155a24	-0.036462918
180	0x3d993375	0.07480518
181	0x3d45cf37	0.04829332
182	0xbcd80cea	-0.026373345
183	0xbd073d70	-0.033017576
184	0x3c21e03f	0.009880125
185	0xbc0557a1	-0.008138568
186	0x3ba205f0	0.0049445555
187	0xbd995b0e	-0.074880704
188	0x3adcb9ad	0.0016840004
189	0xbbb2a2d1	-0.005451538
190	0x3c0c3935	0.008558561
191	0x3c6d1d89	0.014472374
192	0x3c1a3527	0.009412087
193	0xbd919c48	-0.071098864
194	0xbd1b7bfa	-0.03796003
195	0x3d1cfabf	0.038325068
196	0x3cde72fd	0.02715444
197	0x3d7bbfc7	0.06146219
198	0x3d1c880c	0.038215682
199	0x3d752feb	0.05986015
200	0xbc50f0f1	-0.012752757
201	0xbd1aa425	-0.037754197
202	0xbc46b33c	-0.012127694
203	0x3a3c1a8f	0.00071755884
204	0xbca871a3	-0.020561999
205	0xbb13b207	-0.0022536532
206	0xbd6ace13	-0.057325434
207	0x3c6aace6	0.014323449
208	0x3d2f2ce5	0.042767424
209	0x3d1bd5ba	0.038045622
210	0x3d242d5a	0.040082313
211	0xbc93eee9	-0.018058257
212	0xbccd4f57	-0.025062246
213	0x3cdd1aba	0.026990283
214	0x3c8e30f2	0.017357323
215	0x3b284938	0.0025678407
216	0x3c146367	0.0090569025
217	0xbcb122a1	-0.021622958
218	0xbcad443e	-0.021150704
219	0x3cb59674	0.022166468
220	0xbcd3ad45	-0.025839457
221	0x3d82d4f3	0.06388273
222	0xbd19ad99	-0.03751907
223	0x3c740d78	0.014895789
224	0x3d1dffb6	0.038573943
225	0x3cc55931	0.024090381
226	0x3d0db355	0.034594852
227	0xbba9e40a	-0.005184655
228	0xba882e63	-0.0010389801
229	0x3b858afe	0.004075407
230	0xbbe31a8f	-0.0069306563
231	0x3c91fa3a	0.017819513
232	0xbb8b7bfb	-0.004256723
233	0x3ccbc8c9	0.024876015
234	0xb9f02567	-0.00045804234
235	0x3d4b7314	0.049670294
236	0x3d118624	0.035528317
237	0xbb866d05	-0.0041023516
238	0x3d4118ab	0.047142666
239	0xbd64f7dd	-0.055900443
240	0xbc9046fd	-0.017611975
241	0x3d445487	0.047932174
242	0x3c940c0d	0.018072153
243	0x3cf5a525	0.029985974
244	0xbc8a19e5	-0.01685805
245	0x3d6744c9	0.056462083
246	0xbd1e502e	-0.038650684
247	0xbb76d72b	-0.0037664871
248	0xbd32f8d9	-0.04369435
249	0xbd8d8fed	-0.06912217
250	0x3bfbcf9f	0.0076846625
251	0xbd3aec2a	-0.04563538
252	0x3d39f8d8	0.04540333
253	0x3d78e8b5	0.0607688
254	0x3d4bcdda	0.049756862
255	0xbca4d0c7	-0.020119084

conv_eyes.conv2.bias f4 [64]
0	0x3bcd0277	0.0062563973
1	0x39b32db5	0.00034175595
2	0xbd4bbd7f	-0.049741264
3	0x3bda7905	0.0066672587
4	0x3c93a802	0.018024448
5	0xbd4e92da	-0.050433017
6	0x3cd0e288	0.025498644
7	0xbd4c69d8	-0.049905628
8	0x3cb01b30	0.021497339
9	0x3d554373	0.052066278
10	0xbc3a8b1b	-0.011385704
11	0x3d5a775b	0.053336482
12	0x3d5e044e	0.054203324
13	0xbca13c23	-0.019681996
14	0xbc94b0dc	-0.01815074
15	0xbd40c018	-0.047058195
16	0x3d0457f9	0.03231046
17	0x3ca68c0e	0.020330455
18	0x3c7bdf9a	0.015373135
19	0xbcbbb31a	-0.02291255
20	0x3d27d788	0.04097703
21	0x3cd64ac8	0.026158705
22	0x3d3d4b33	0.046214294
23	0xbc763e87	-0.015029556
24	0xbc8c83ba	-0.017152656
25	0xbd08e218	-0.033418745
26	0x3d1692ac	0.03676097
27	0xbd457112	-0.048203535
28	0xbced6f47	-0.028983725
29	0x3c15911b	0.009128834
30	0x3d361a88	0.044458896
31	0x3d0767af	0.033057865
32	0xbd13c7de	-0.03607928
33	0xbc11ba3a	-0.0088944975
34	0x3d158503	0.036503803
35	0xbacbc79e	-0.0015547161
36	0x3bdc967e	0.0067318073
37	0x3d4ba977	0.04972216
38	0x3d1f2d7e	0.038861744
39	0x3d2e4b81	0.042552475
40	0xbceba901	-0.02876711
41	0xbc4eba2b	-0.012617628
42	0x3ce797c8	0.028270617
43	0xbd285c49	-0.041103635
44	0x3d15dd47	0.03658798
45	0x3d037111	0.03209025
46	0x3cb9a190	0.022660047
47	0x3c6c73c0	0.014431894
48	0xbcdd7902	-0.02703524
49	0xbd34b460	-0.04411733
50	0x3d11a8e3	0.035561454
51	0x3d22037a	0.039554097
52	0x3c663e59	0.014052951
53	0xbd337500	-0.04381275
54	0xbd506564	-0.050877944
55	0xbce8ed83	-0.028433567
56	0xbd398ee9	-0.045302305
57	0x3c6b6d45	0.014369314
58	0x3c0b7cfc	0.008513685
59	0xbd282c9b	-0.041058164
60	0xbd5321d9	-0.05154595
61	0xbd3fe86f	-0.046852525
62	0x3d5ebf37	0.054381575
63	0x3b7cc9ed	0.0038572506

conv_eyes.conv3.weight f4 [64, 64, 7]
0	0xbc1b2194	-0.009468455
1	0x3ca197c4	0.019725688
2	0x3cb20ec9	0.021735566
3	0x3d0f6369	0.035006914
4	0xbd5dc01a	-0.05413828
5	0xbce25737	-0.027629478
6	0x3ceb5cf3	0.028730845
7	0x3c32121f	0.010868578
8	0x3cc10a23	0.023564404
9	0x3d572b8d	0.052531768
10	0xbd02e148	-0.031953126
11	0x3a823a05	0.0009935504
12	0xbbeeef1e	-0.0072916886
13	0x3ca5a872	0.020221923
14	0x3d3de526	0.04636111
15	0x3d14a65e	0.036291473
16	0xbcd64286	-0.026154768
17	0x3d530fdb	0.051528793
18	0xbcbe5fec	-0.023239098
19	0x3d6c2d26	0.057660244
20	0x3d1aa238	0.03775236
21	0xbd0c05f4	-0.034185365
22	0xba0bdb2b	-0.0005335088
23	0x3c44b3c5	0.012005751
24	0x3cf745ce	0.030184653
25	0xbba26209	-0.0049555344
26	0xbc63ba6d	-0.013899428
27	0x3c5f42be	0.013626752
28	0x3d05b5b7	0.032644
29	0x3d15f4e8	0.036610514
30	0x3cc4381c	0.023952536
31	0xbba6bb02	-0.005088211
32	0xbc1749bb	-0.009233887
33	0x3d37fe04	0.044919983
34	0x3d5852e3	0.052813422
35	0xbc8dd0aa	-0.017311413
36	0x3c80d8f0	0.015728444
37	0x3cdf973d	0.027293796
38	0x3cc71a90	0.024304658
39	0x3acb6cc0	0.0015520081
40	0x3c547f07	0.012969739
41	0x3caf4f26	0.021400046
42	0x3cf10d31	0.029425235
43	0x3d718e20	0.05897343
44	0x3d5140be	0.051087134
45	0x3c6df797	0.014524362
46	0xbcd57167	-0.026055051
47	0x3c93cd52	0.01804224
48	0xbcfff591	-0.031245025
49	0xba9fd063	-0.0012192841
50	0xbd216ede	-0.03941237
51	0x3cdbffc6	0.02685536
52	0x3d02dda7	0.031949665
53	0x3b0a7015	0.0021123935
54	0x3c80f168	0.015740111
55	0x3da796b0	0.08183038
56	0xbd0f33c0	-0.034961462
57	0xbd0ca714	-0.034339026
58	0x3d4188d3	0.047249626
59	0x3d19a160	0.037507415
60	0x3d2bb74d	0.041922856
61	0x3d51b9ee	0.051202707
62	0x3d258c59	0.04041705
63	0x3cac5cc1	0.021040322
64	0xba206264	-0.0006118177
65	0x3ccf519e	0.025307473
66	0x3d81a30a	0.06329925
67	0x3c25ec4b	0.010127137
68	0x3c56680b	0.013086329
69	0x3c9b3008	0.018943802
70	0x3a2eb3b2	0.000666435
71	0xbb063fdb	-0.0020484838
72	0xbc8d7b96	-0.017270844
73	0xbcc101d9	-0.023560451
74	0x3d0e2955	0.034707386
75	0x3b907c62	0.004409359
76	0x3ace0020	0.001571659
77	0x3c210781	0.009828449
78	0x3d5aad92	0.053388186
79	0x3c8a98a1	0.016918482
80	0xbce6fdbb	-0.02819716
81	0x3d1a87c1	0.03772712
82	0x3d52e7a9	0.05149046
83	0x3d27dc10	0.040981352
84	0xbd5c48da	-0.053780414
85	0x3c6dc315	0.014511843
86	0xbce60ef4	-0.028083302
87	0xbc9f9126	-0.019478392
88	0xbd87e6c3	-0.06635811
89	0xbcfca252	-0.03083912
90	0xbc05168c	-0.008123051
91	0x3c292e57	0.01032599
92	0x3cb4d62a	0.022074778
93	0xbd0c38c3	-0.03423382
94	0xbd36c130	-0.04461783
95	0xbc02c64c	-0.007981848
96	0xbd07b303	-0.033129703
97	0x3c141370	0.009037837
98	0xbb1a10e8	-0.0023508612
99	0x3d47f034	0.04881306
100	0x3d44fea5	0.04809441
101	0xbc54f0cc	-0.012996864
102	0x3ce42066	0.02784748
103	0xbbbeeeeb	-0.005826821
104	0x3d048d81	0.03236151
105	0xbd44006c	-0.047851965
106	0x3d3a1c1d	0.045436967
107	0xbc628829	-0.013826408
108	0x3cf72e78	0.030173525
109	0x3ca78856	0.020450752
110	0xbc3056bc	-0.010762867
111	0xbd5ca9ac	-0.05387275
112	0xbca30ec1	-0.019904496
113	0x3d33128c	0.04371886
114	0xbc3d976a	-0.011571744
115	0x3c8264a8	0.015917137
116	0x3d2eb19a	0.042649843
117	0x3d2d1e44	0.04226519
118	0xbc5926f4	-0.013253916
119	0xbc12410c	-0.008926641
120	0x3d970fb3	0.07376041
121	0x3cfc9113	0.030830896
122	0xbb848f58	-0.004045408
123	0x3ab4c184	0.0013790582
124	0xbc58e538	-0.013238244
125	0xbb4b1997	-0.0030990595
126	0x3ca4f0fc	0.020134442
127	0x3b2ac059	0.002605459
128	0xbbeefbce	-0.007293201
129	0x3b61de11	0.0034464637
130	0x3cd45b09	0.025922315
131	0x3c9aef78	0.018913016
132	0x3d90619c	0.070498675
133	0x3d6c81ec	0.05774109
134	0x3c8c0cac	0.017095886
135	0x3d1086f2	0.035284944
136	0xbb979350	-0.0046257153
137	0x3d8ecab3	0.069722556
138	0x3d48ccca	0.049023427
139	0x3d42b166	0.04753246
140	0x3a7bb5bc	0.00096019707
141	0xbca454c6	-0.020059954
142	0x3d75991c	0.05996047
143	0x3d407700	0.046988487
144	0x3ce5bffb	0.028045645
145	0x3d06b66f	0.032888826
146	0xbadc2ee4	-0.0016798642
147	0x3ba781a8	0.005111892
148	0x3c2672d0	0.010159209
149	0x3b11a587	0.0022223906
150	0xbcacde98	-0.021102235
151	0xbd515d07	-0.05111411
152	0x3b57b2c7	0.0032912956
153	0xbca12ffd	-0.019676203
154	0xbc878989	-0.016545074
155	0x3d717e4d	0.05895834
156	0x3c916ba8	0.01775153
157	0xbc8f6325	-0.01750333
158	0x3cc00e47	0.023444308
159	0x3d69fd1b	0.057126146
160	0xbc0f779f	-0.008756547
161	0xbc95765a	-0.018244911
162	0x3d0d5b3c	0.034510836
163	0xbccf68c9	-0.02531852
164	0x3d3d4a36	0.04621335
165	0x3d0a29a0	0.033731103
166	0x3d54b827	0.051933434
167	0x3c7c5262	0.015400501
168	0xbca32fc1	-0.019920232
169	0x3c2d0d3a	0.0105622355
170	0x3d4467fb	0.047950726
171	0x3c1ec4a1	0.009690435
172	0x3c005dfb	0.007834907
173	0xbd5ec5e2	-0.054387935
174	0x3c9e002d	0.019287193
175	0x3bcfffce	0.006347633
176	0x3d0a7747	0.033805158
177	0x3d0a12c8	0.033709317
178	0xbb51c1fd	-0.0032006495
179	0x3d0eab51	0.03483135
180	0xbc589802	-0.013219835
181	0x3ba0e247	0.004909787
182	0x3a83d10b	0.0010056806
183	0xbc86f935	-0.016476253
184	0x3c09ac63	0.008402917
185	0xbcfb6a8f	-0.03069046
186	0x3c935192	0.017983232
187	0x3cae6bff	0.02129173
188	0x3d27a124	0.04092516
189	0xbc5123c8	-0.012764879
190	0x3d4d24a4	0.05008377
191	0x3ba061c2	0.004894466
192	0x3c0f56eb	0.00874875
193	0xbcb13a87	-0.021634353
194	0x3d193931	0.037408058
195	0xbb94f43a	-0.0045457156
196	0xbd244f51	-0.040114705
197	0x3bfc601c	0.007701887
198	0xbcc3aa81	-0.023885014
199	0xbc274d42	-0.010211291
200	0xbd734326	-0.05939021
201	0x3cd47e24	0.025939055
202	0x3d175481	0.036945824
203	0xbd36a386	-0.04458954
204	0x3d0457cf	0.032310303
205	0x3b10a4b3	0.0022070825
206	0xbd0e90e6	-0.034806155
207	0x3ba2178e	0.0049466556
208	0x3c899179	0.016793
209	0x3c75b83b	0.014997537
210	0xbd083016	-0.033248983
211	0x3cb295db	0.021799972
212	0x3c7098f0	0.014684901
213	0xbb3571f0	-0.002768632
214	0x3b91e1e7	0.0044519785
215	0x3b9d1e23	0.0047948523
216	0xbc975880	-0.018474817
217	0xbd7a3658	-0.061086982
218	0x3d03d764	0.032187834
219	0xbcc61731	-0.02418098
220	0x3d143867	0.036186602
221	0xbc88895c	-0.01666706
222	0xbc866f3c	-0.016410463
223	0xbd07303a	-0.033004977
224	0x3c873ed8	0.016509458
225	0x3c6a30ed	0.014293891
226	0xbd108029	-0.035278473
227	0x3d153931	0.036431495
228	0x3ca791c4	0.020455249
229	0x3ce6c3c5	0.028169522
230	0x3d3cf827	0.046135094
231	0x3bb2dbd8	0.0054583363
232	0x3d164ce8	0.036694437
233	0xbd02db48	-0.031947404
234	0xbc57ed0f	-0.013179078
235	0x3d1f8243	0.038942587
236	0x3c8050c1	0.015663506
237	0x3c2edb90	0.010672465
238	0x3cc936fb	0.02456235
239	0x3cdcb48d	0.026941562
240	0xbc38e496	-0.011284968
241	0x3d29b9ab	0.041436832
242	0x3d35106e	0.04420512
243	0x3ced91a3	0.029000109
244	0x3d2b655a	0.041844703
245	0xbb12d5c2	-0.0022405242
246	0x3d17b2d9	0.037035797
247	0x3d119b53	0.03554852
248	0x3cca11e1	0.024666728
249	0x3ceb297f	0.02870631
250	0xbc8988b1	-0.016788812
251	0x3bcfc3e1	0.0063404893
252	0xbce3a9be	-0.0277909
253	0x3d07a6fe	0.03311824
254	0xbab98fba	-0.0014157214
255	0x3c405f1d	0.011741427

conv_eyes.conv3.bias f4 [64]
0	0xbd3a4550	-0.045476258
1	0x3cfe89e6	0.031071614
2	0xbc89aacc	-0.016805075
3	0xbc606bd6	-0.013697585
4	0xbca3256f	-0.01991531
5	0xbb84380d	-0.004035002
6	0x3cea96a7	0.02863629
7	0x3c51e338	0.012810521
8	0x3ce7b3de	0.02828401
9	0x3c83d0e3	0.016090816
10	0x3d352a27	0.044229653
11	0xbd3eb87f	-0.046562668
12	0x3d25dfc9	0.04049662
13	0x3d337fed	0.04382317
14	0xbd25654b	-0.040379804
15	0x3bb64161	0.005561993
16	0x3d03b548	0.032155305
17	0xbc33d73c	-0.010976609
18	0xbcd44abf	-0.025914548
19	0xbcd8d2b9	-0.026467668
20	0x3b66e91c	0.003523416
21	0xbc806c82	-0.01567674
22	0x3c8231b8	0.015892848
23	0x3b22167d	0.0024732642
24	0xbb3a36fe	-0.0028414126
25	0xbc6ead04	-0.014567617
26	0x3cb5dc67	0.022199823
27	0xbd1fe6ea	-0.039038576
28	0x3cfa3257	0.030541582
29	0xbb0b07b2	-0.0021214304
30	0x3cb55e7c	0.02213978
31	0xbcb818b5	-0.022472719
32	0x3cc031e0	0.023461282
33	0x3a86498d	0.0010245309
34	0xbac69462	-0.0015150423
35	0xbcf0c20f	-0.02938941
36	0x3c980ec2	0.018561725
37	0xbd15d941	-0.036584143
38	0x3d3d25c3	0.04617859
39	0x3c58d0e1	0.013233394
40	0xbd052446	-0.032505296
41	0x3d173129	0.036912117
42	0x3d0636f0	0.032767236
43	0xbd33b0fc	-0.043869957
44	0x3adba422	0.0016757289
45	0xba976e77	-0.0011553307
46	0x3c8edd09	0.017439382
47	0x3d1a67d9	0.037696693
48	0x3bdc356a	0.0067202346
49	0x3cec280c	0.02882769
50	0x3ce34901	0.027744772
51	0x3d1b1c86	0.037869
52	0x3bec9712	0.0072201574
53	0xbc25e553	-0.010125476
54	0x3c9f84d1	0.019472511
55	0xbc08ac66	-0.008341884
56	0x3d0bd26e	0.03413623
57	0xb8ebf5cc	-0.000112514565
58	0xbc916461	-0.01774806
59	0xba81d973	-0.0009906724
60	0xba88e067	-0.0010442854
61	0xbcd6a603	-0.026202207
62	0xbcdc90c0	-0.02692449
63	0xbcfee57e	-0.03111529

conv_eyes.bn1.weight f4 [64]
0	0x3f764656	0.96201074
1	0x3f81de36	1.0145938
2	0x3f81190b	1.0085768
3	0x3f7fb107	0.998795
4	0x3f6cfd80	0.9257431
5	0x3f7b75ed	0.98226815
6	0x3f85d482	1.0455477
7	0x3f745852	0.95447266
8	0x3f83b4bf	1.0289534
9	0x3f75d8a3	0.96033686
10	0x3f8596e6	1.0436676
11	0x3f836c39	1.0267402
12	0x3f79dfa3	0.9760687
13	0x3f789169	0.9709688
14	0x3f80dd6c	1.0067573
15	0x3f757d1e	0.9589404
16	0x3f7bc44d	0.98346406
17	0x3f82eb63	1.0228084
18	0x3f836b8a	1.0267193
19	0x3f768ef7	0.963119
20	0x3f73998b	0.9515616
21	0x3f6c343a	0.9226719
22	0x3f7b9ec7	0.9828915
23	0x3f83319c	1.0249515
24	0x3f7da30d	0.9907692
25	0x3f7110df	0.9416637
26	0x3f8374ed	1.0270058
27	0x3f78c37e	0.971733
28	0x3f753438	0.95782804
29	0x3f7f3f49	0.9970594
30	0x3f753168	0.9577851
31	0x3f868c18	1.0511503
32	0x3f75eebb	0.960674
33	0x3f85cf08	1.0453806
34	0x3f795bbe	0.9740561
35	0x3f75be9c	0.9599397
36	0x3f8936b2	1.0719817
37	0x3f7447a3	0.9542181
38	0x3f744dfa	0.9543148
39	0x3f7a9938	0.97890043
40	0x3f765dff	0.96237177
41	0x3f75eef4	0.9606774
42	0x3f6eb569	0.9324556
43	0x3f6ef047	0.93335384
44	0x3f72db47	0.9486584
45	0x3f78091f	0.9688892
46	0x3f71a99d	0.94399434
47	0x3f83e8d0	1.0305424
48	0x3f79a751	0.9752093
49	0x3f7f8141	0.998066
50	0x3f7b635e	0.981985
51	0x3f7f851b	0.9981248
52	0x3f80add3	1.0053047
53	0x3f76b7a1	0.96373945
54	0x3f6fab29	0.93620545
55	0x3f854e01	1.041443
56	0x3f804fc7	1.0024346
57	0x3f76fbbb	0.9647786
58	0x3f78ace6	0.9713882
59	0x3f78b03d	0.9714392
60	0x3f7856b3	0.9700729
61	0x3f80fdb0	1.0077419
62	0x3f8a0871	1.0783826
63	0x3f798446	0.9746746

conv_eyes.bn1.bias f4 [64]
0	0x3d2ef855	0.042717297
1	0x3df93c03	0.121696495
2	0x3d21d0ed	0.039505888
3	0x3d21a1c4	0.039460912
4	0x3d0c3701	0.034232143
5	0x3d7840f2	0.06060881
6	0x3d9ab7a6	0.075545594
7	0x3d865957	0.06560009
8	0x3cffd7b8	0.031230792
9	0x3d06d91a	0.032921888
10	0x3d96deb8	0.07366699
11	0x3d17c7bf	0.037055727
12	0x3d46a684	0.048498645
13	0x3d096c31	0.033550445
14	0x3dac3fbd	0.084105946
15	0x3ce4b720	0.027919352
16	0x3ca3af80	0.019981146
17	0x3d9c882e	0.07643162
18	0x3c957858	0.018245861
19	0x3d895523	0.06705692
20	0x3cf5b5d8	0.029993936
21	0x399815ed	0.00029008035
22	0x3d58c1ed	0.052919317
23	0x3dd71cb1	0.10503519
24	0x3d824b64	0.06362036
25	0xb8aacf70	-8.14487e-05
26	0x3d337f01	0.043822292
27	0x3d0ba3df	0.034091827
28	0x3d6fe46a	0.058567442
29	0x3cbe450e	0.023226287
30	0x3d7ed67e	0.062216274
31	0xbd5262d6	-0.05136379
32	0x3d3b8171	0.04577774
33	0x3d3afa2c	0.04564874
34	0x3c9c1613	0.019053495
35	0x3c9d9f74	0.019241072
36	0x3d41a642	0.047277696
37	0x3d903809	0.07041938
38	0x3cf7ff48	0.030273095
39	0x3d51fb14	0.051264837
40	0x3d209b10	0.03921038
41	0x3d8f6387	0.07001405
42	0x3cf9e90f	0.030506639
43	0x3ca91b25	0.020642826
44	0x3cd7a93a	0.02632581
45	0x3d874e68	0.06606752
46	0x3cf48c9f	0.02985221
47	0x3d2c4e87	0.042067077
48	0x3d7e2e87	0.06205609
49	0x3ceecc8b	0.029150268
50	0x3dd9c5d2	0.10633434
51	0x3d90fea6	0.0707982
52	0x3d9b14cf	0.07572328
53	0x3d384d6d	0.044995714
54	0xbca9d49b	-0.020731261
55	0x3dd5a7f5	0.10432426
56	0x3cdce3b1	0.02696404
57	0x3ccc3e3e	0.024932023
58	0x3d02ec3a	0.031963564
59	0x3b223e26	0.0024756282
60	0xbc22119c	-0.009891894
61	0x3dd16cff	0.102258675
62	0x3d562dcd	0.052289773
63	0x3d5b7113	0.053574633

conv_eyes.bn1.running_mean f4 [64]
0	0x3d10fce5	0.03539743
1	0xbe5199ea	-0.2046887
2	0xbd113347	-0.035449293
3	0x3df474c6	0.11936335
4	0xbe800676	-0.2500493
5	0xbe216df0	-0.15764594
6	0xbe52bd46	-0.20580015
7	0xbe82adbe	-0.2552318
8	0xbe0eb66b	-0.13936774
9	0x3e394781	0.18093683
10	0x3e7f0222	0.24903157
11	0x3e844a42	0.25837904
12	0xbd2c12f2	-0.042010255
13	0x3e6096a1	0.2193246
14	0x3e36171e	0.17782256
15	0xbd830b0a	-0.0639859
16	0xbd8683ca	-0.065681055
17	0x3dec5d3f	0.11541223
18	0x3e1aa726	0.15102825
19	0xbe7ead16	-0.24870715
20	0x3c5170d6	0.01278325
21	0xbcea57b0	-0.028606266
22	0xbda1c02c	-0.07897982
23	0xbdb5dca6	-0.08879976
24	0xba389190	-0.00070407335
25	0x3dde996a	0.10869105
26	0xbd4ca11f	-0.049958345
27	0xbd9f4c87	-0.07778268
28	0x3d5bb9d4	0.053644016
29	0x3e355d3d	0.17711349
30	0xbe2aa11f	-0.16663025
31	0xbe5a91d0	-0.21344686
32	0x3e56ae85	0.20965011
33	0xbe35ab5e	-0.17741153
34	0xbe6aa171	-0.22913148
35	0xbc777cf6	-0.015105477
36	0xbd4b820c	-0.04968457
37	0x3e6f643a	0.23378077
38	0xbe5ce50f	-0.21571754
39	0x3e83a05e	0.25708288
40	0xbc97a2cc	-0.018510245
41	0x3e7aa9a9	0.24478783
42	0x3e614ba5	0.22001512
43	0xbd3390be	-0.04383921
44	0x3dd42a39	0.10359616
45	0x3e2630e9	0.16229595
46	0xbe444e71	-0.19170548
47	0x3e4a0e85	0.19732101
48	0x3e7ab766	0.24484023
49	0xbe11c9ac	-0.14237088
50	0xbc2bebb2	-0.010493206
51	0x3e8ebb77	0.278774
52	0xbdbdd859	-0.09269781
53	0xbdaa7db9	-0.08324761
54	0xbe625c46	-0.22105512
55	0x3be18a50	0.006882943
56	0x3e536969	0.2064568
57	0x3c8ced80	0.017203093
58	0x3dc5b196	0.096530125
59	0xbdf482ba	-0.119389966
60	0x3db1b133	0.08676376
61	0x3de03d54	0.109491974
62	0xbe8ceacc	-0.27522886
63	0xbbae541d	-0.0053200857

conv_eyes.bn1.running_var f4 [64]
0	0x3da888b6	0.082292005
1	0x3d2a93b4	0.041644767
2	0x3dc3be20	0.09557748
3	0x3e18ee18	0.14934576
4	0x3f96c52e	1.1778924
5	0x3ddde5a4	0.10834816
6	0x3cde4026	0.027130198
7	0x3f0d44ec	0.5518329
8	0x3bfc9079	0.007707652
9	0x3dbefee2	0.09325959
10	0x3dcba2de	0.09943174
11	0x3d6a867a	0.057257153
12	0x3de94149	0.11389405
13	0x3c054690	0.008134499
14	0x3ceea129	0.029129582
15	0x3d91e13f	0.071230404
16	0x400272ee	2.0382648
17	0x3d43ccfe	0.047802918
18	0x3d0e65f8	0.034765214
19	0x3f8501c2	1.0391161
20	0x3ebeee2b	0.37291083
21	0x3ceec74b	0.029147765
22	0x3d10a81a	0.035316564
23	0x3d31f8e2	0.043450244
24	0x3e0beace	0.1366379
25	0x3efb00e9	0.49024132
26	0x3c644765	0.013933037
27	0x3d1fc610	0.039007246
28	0x3f0f60ac	0.56006885
29	0x3c253eb6	0.010085752
30	0x4013fd3b	2.312331
31	0x3c4507e6	0.012025809
32	0x3f37be94	0.71775174
33	0x3d299ded	0.041410375
34	0x3d3693e4	0.044574633
35	0x3d9972a2	0.074925676
36	0x3c2abe09	0.0104212845
37	0x3ed7e153	0.42164096
38	0x3f2d616a	0.6772677
39	0x3d0b86fb	0.034064274
40	0x3dd8419c	0.10559389
41	0x3dd392aa	0.10330708
42	0x3e535480	0.20637703
43	0x3f84c06d	1.0371224
44	0x3dbf76d6	0.09348838
45	0x3e9f3d2c	0.31101358
46	0x3e6f8ec0	0.23394299
47	0x3bc6ab58	0.0060629062
48	0x3e703151	0.23456313
49	0x3e28b2a8	0.16474402
50	0x3eb50372	0.3535419
51	0x3f86ae93	1.0522026
52	0x3d40141d	0.04689418
53	0x3e005dfe	0.12535855
54	0x3e37ca34	0.17948228
55	0x3c7e5753	0.015523749
56	0x3d02ff42	0.031981714
57	0x3f010b33	0.50407714
58	0x3e2cc7e6	0.1687313
59	0x3d9a683d	0.07539413
60	0x3e12358d	0.1427824
61	0x3e1e0ef5	0.15435393
62	0x3c30c832	0.010789918
63	0x3db0180e	0.08598338

conv_eyes.bn2.weight f4 [64]
0	0x3f7c6e93	0.9860622
1	0x3f79c1e6	0.9756149
2	0x3f7c7d59	0.98628765
3	0x3f773232	0.96560967
4	0x3f7abd15	0.97944766
5	0x3f828bf2	1.0198958
6	0x3f83fa79	1.0310813
7	0x3f79f0db	0.9763314
8	0x3f798468	0.9746766
9	0x3f7b547d	0.98175794
10	0x3f70f320	0.9412098
11	0x3f754a5e	0.958166
12	0x3f74e16a	0.95656455
13	0x3f7ed43c	0.99542594
14	0x3f79c029	0.9755884
15	0x3f837cb7	1.0272435
16	0x3f812dfd	1.009216
17	0x3f82f6e1	1.0231591
18	0x3f7aa764	0.9791167
19	0x3f7a8cbb	0.9787099
20	0x3f80a74b	1.0051054
21	0x3f806146	1.0029685
22	0x3f744be7	0.9542832
23	0x3f75862c	0.95907855
24	0x3f839df8	1.0282583
25	0x3f772639	0.965427
26	0x3f78e801	0.9722901
27	0x3f825701	1.0182801
28	0x3f7b4462	0.9815122
29	0x3f896dbc	1.0736613
30	0x3f75ae27	0.9596886
31	0x3f800613	1.0001854
32	0x3f775df7	0.96627754
33	0x3f77af4e	0.9675187
34	0x3f7a7b5f	0.978445
35	0x3f79e6de	0.976179
36	0x3f800eb4	1.0004487
37	0x3f7a4024	0.9775412
38	0x3f7855d1	0.97005945
39	0x3f85f530	1.046545
40	0x3f77ef4e	0.96849525
41	0x3f804e8c	1.0023971
42	0x3f787466	0.9705261
43	0x3f8053e2	1.0025599
44	0x3f80bbd5	1.0057322
45	0x3f77eaeb	0.9684283
46	0x3f6a7348	0.91582155
47	0x3f7d9606	0.9905704
48	0x3f83f8af	1.0310267
49	0x3f83fa59	1.0310775
50	0x3f78eead	0.9723919
51	0x3f80812a	1.0039418
52	0x3f7cb425	0.9871238
53	0x3f7c80f0	0.98634243
54	0x3f823ee9	1.0175449
55	0x3f7e1d41	0.9926339
56	0x3f7a9542	0.97884
57	0x3f856b8c	1.0423446
58	0x3f846055	1.0341898
59	0x3f84ef27	1.0385484
60	0x3f76c02f	0.96387
61	0x3f79f861	0.9764462
62	0x3f797737	0.9744753
63	0x3f7b9bc1	0.98284537

conv_eyes.bn2.bias f4 [64]
0	0xbbe6b84e	-0.007041014
1	0xbb843a96	-0.0040353043
2	0xb920390b	-0.00015280039
3	0x3b99be09	0.0046918434
4	0x3d18b7d0	0.037284672
5	0x3c2e38d0	0.010633662
6	0x3d68ca7c	0.05683373
7	0x3c5b3c56	0.013381084
8	0x3c8611ba	0.016365875
9	0x3bafa440	0.0053601563
10	0xbcf20128	-0.029541567
11	0xbb94027d	-0.004516898
12	0xbdacd304	-0.084386855
13	0x3b050423	0.0020296655
14	0xbbfbbc82	-0.007682384
15	0x3c0361f7	0.008018962
16	0x3cfe4e7c	0.031043284
17	0x3ce11070	0.027473658
18	0xbc21d8c8	-0.009878345
19	0xbcc726f6	-0.02431057
20	0x3cb526e7	0.022113277
21	0x3a044f91	0.0005047257
22	0xbca139b1	-0.01968083
23	0xbc8ad696	-0.016948026
24	0x3d18b0ae	0.03727787
25	0xbc7248ca	-0.014787862
26	0x3bb6397b	0.0055610514
27	0x3d11f238	0.03563139
28	0xbcc71030	-0.024299711
29	0x3d18a16b	0.037263315
30	0xbcba0ba9	-0.022710638
31	0xbb8c1986	-0.0042755036
32	0xbcb0d57d	-0.021586174
33	0xbc36207d	-0.011116144
34	0xbc02f5c5	-0.007993166
35	0xbbf295f6	-0.0074031306
36	0x3cc078b9	0.023495065
37	0xbc622d1f	-0.013804703
38	0xbc744689	-0.014909395
39	0x3d31dd21	0.043423776
40	0xbca6b680	-0.020350695
41	0x3c21222f	0.00983481
42	0xbcf33b0b	-0.02969124
43	0x3ce7b13b	0.028282752
44	0x3b369d90	0.002786491
45	0xbc9f4a32	-0.019444559
46	0xbd34f0c5	-0.04417493
47	0x3cbfe87e	0.02342629
48	0x3c800235	0.015626052
49	0x3d345839	0.04402945
50	0x3cbfce29	0.023413735
51	0x3c20b116	0.009807846
52	0xbaf154af	-0.0018412078
53	0x3baa426f	0.005195908
54	0x3c047117	0.008083603
55	0x3c334d43	0.010943714
56	0xbc103d5f	-0.0088036945
57	0x3d67acbb	0.056561213
58	0x3d010495	0.03149851
59	0x3d3fe351	0.046847645
60	0xbcea220f	-0.028580694
61	0xbcaaf40c	-0.020868324
62	0x3b04f576	0.0020287908
63	0xbc00c576	-0.007859578

conv_eyes.bn2.running_mean f4 [64]
0	0xbd5ed1da	-0.05439935
1	0xbe3c48f5	-0.18387206
2	0xbf58d3ec	-0.8469837
3	0xbfaffd41	-1.3749162
4	0xbf80efa3	-1.0073131
5	0xbec96916	-0.39337987
6	0xbf4691b4	-0.77566075
7	0xbf24a38e	-0.64312065
8	0xbf2b913d	-0.6701849
9	0xbf05b70a	-0.5223242
10	0xbe22876e	-0.15871975
11	0x3e63a35e	0.22230288
12	0x3e82be1d	0.2553567
13	0xbf1155e2	-0.5677167
14	0xbfaca732	-1.3488524
15	0xbd4ce013	-0.05001838
16	0xbe1f4617	-0.15554081
17	0xbf5e5036	-0.8684114
18	0xbf93df06	-1.1552436
19	0xbf8e5d0c	-1.1122146
20	0xbf5d6262	-0.86478245
21	0xbefbdba2	-0.49191004
22	0x3f23694c	0.63832545
23	0xbf5f4d8b	-0.87227696
24	0xbd23c81c	-0.03998576
25	0xbf32472e	-0.6963986
26	0xbf2a7a04	-0.6659243
27	0xbf480901	-0.7813874
28	0xbe0ddd7d	-0.13854022
29	0xbf1bd293	-0.60868186
30	0xbc0d6449	-0.008629867
31	0xbf29f6c4	-0.6639216
32	0xbe181062	-0.1485
33	0xbe9427b1	-0.28936532
34	0xbf0bb1bb	-0.5456807
35	0xbf69a124	-0.91261506
36	0xbf4f23ee	-0.809142
37	0xbf75c607	-0.9600529
38	0x3df4f0b3	0.11959972
39	0xbf200734	-0.6251099
40	0xbeb2629e	-0.34840864
41	0x3f13751f	0.5760059
42	0xbeef81f8	-0.46778846
43	0xbf195d9e	-0.59908473
44	0xbee468e0	-0.44611263
45	0xbf9f4615	-1.2443262
46	0xbdfcc3c9	-0.123420306
47	0xbf0bc096	-0.5459074
48	0xbf72cacd	-0.948407
49	0xbefd7a48	-0.49507356
50	0xbfb63f89	-1.4238139
51	0xbf342cfb	-0.70381135
52	0x3e47e662	0.19521478
53	0xbf94c139	-1.1621467
54	0xbe56cbd8	-0.20976198
55	0xbf368c26	-0.713076
56	0xbf343a63	-0.7040159
57	0xbfa9e4a7	-1.3272904
58	0x3d49069b	0.049078565
59	0xbf0ca80d	-0.54943925
60	0xbe1ce234	-0.15320665
61	0xbf251a0e	-0.6449288
62	0xbf3692a4	-0.71317506
63	0xbe761612	-0.24031857

conv_eyes.bn2.running_var f4 [64]
0	0x3f96d87b	1.1784815
1	0x3f123791	0.5711604
2	0x3fe62d6e	1.7982614
3	0x3fdb4986	1.7131813
4	0x3f8f1dcb	1.1180967
5	0x3f00b2da	0.50272906
6	0x3f09be66	0.5380615
7	0x3edd0a79	0.43172053
8	0x3fa9cc5d	1.3265492
9	0x3f94b455	1.1617533
10	0x3f98508d	1.1899582
11	0x3f9b3c39	1.2127753
12	0x3f334332	0.70024407
13	0x3fbb58cd	1.4636475
14	0x400f53c5	2.239488
15	0x3f2fc343	0.6865732
16	0x3eccae0c	0.39976537
17	0x3ef093c4	0.46987736
18	0x3fddf980	1.7341766
19	0x3ef3ff4c	0.47655714
20	0x3f187e68	0.5956788
21	0x3f16098b	0.5860831
22	0x3fa84d7c	1.3148646
23	0x3fe3fa91	1.7810842
24	0x3ee6fcf9	0.45114878
25	0x3f3fbad6	0.74894464
26	0x3fa8110d	1.3130203
27	0x3eec469d	0.46147624
28	0x3f39589e	0.72400844
29	0x3ec52069	0.3850129
30	0x3fa9c445	1.3263022
31	0x3f27f531	0.6560851
32	0x3f5c7e7d	0.86130506
33	0x3fb000b3	1.3750213
34	0x3fb99adf	1.4500388
35	0x40070da0	2.1102066
36	0x3f67a5ba	0.90487254
37	0x4010ba55	2.2613728
38	0x3f7428fe	0.9537505
39	0x3ee3cb76	0.44491166
40	0x3f961f80	1.1728363
41	0x3f3c8229	0.7363611
42	0x3fd388c6	1.6526115
43	0x3f1de8c9	0.61683327
44	0x3ebac751	0.3648019
45	0x3f569cb6	0.8383287
46	0x3ec38ccd	0.3819336
47	0x3f2b42b9	0.66898686
48	0x3f025c98	0.50922537
49	0x3e92d5c0	0.28678703
50	0x3f30c1db	0.690458
51	0x3edd9093	0.43274364
52	0x3f6bd3c5	0.9212001
53	0x3f878424	1.0587201
54	0x3e9f86ab	0.3115743
55	0x3fc37aa3	1.5271801
56	0x3f87c748	1.0607691
57	0x3f217ac9	0.6307798
58	0x3e7f1873	0.2491167
59	0x3ec70584	0.38871396
60	0x3f6879fd	0.9081114
61	0x3f813a63	1.0095943
62	0x40181b67	2.3766725
63	0x3f6a0392	0.914117

conv_eyes.bn3.weight f4 [64]
0	0x3f7932cb	0.9734313
1	0x3f7f322b	0.99685925
2	0x3f78df45	0.9721568
3	0x3f7a2bae	0.977229
4	0x3f74552f	0.9544248
5	0x3f80c4fd	1.0060116
6	0x3f791301	0.9729462
7	0x3f808115	1.0039393
8	0x3f80b922	1.0056498
9	0x3f74e9ba	0.9566914
10	0x3f7fe92f	0.99965185
11	0x3f7f4c3d	0.99725705
12	0x3f7c53f3	0.98565596
13	0x3f71d6a6	0.9446815
14	0x3f7ad061	0.9797421
15	0x3f7c3739	0.98521763
16	0x3f7fbbdf	0.99896044
17	0x3f757f50	0.9589739
18	0x3f75753e	0.9588202
19	0x3f7a0cef	0.97675985
20	0x3f78f62f	0.97250646
21	0x3f7a63c6	0.9780849
22	0x3f8034eb	1.0016149
23	0x3f6fd1dc	0.93679595
24	0x3f7981d9	0.97463757
25	0x3f80925c	1.0044665
26	0x3f7796cd	0.9671448
27	0x3f785e1d	0.97018605
28	0x3f7ba79c	0.98302627
29	0x3f7cc186	0.98732793
30	0x3f79f48f	0.9763879
31	0x3f804835	1.0022036
32	0x3f7b35cc	0.9812896
33	0x3f769134	0.9631531
34	0x3f769201	0.96316534
35	0x3f803770	1.0016918
36	0x3f7c9d51	0.98677546
37	0x3f807fe2	1.0039027
38	0x3f786be5	0.97039634
39	0x3f7b8e00	0.9826355
40	0x3f7d131c	0.98857284
41	0x3f7a20b9	0.9770618
42	0x3f778eaa	0.96702063
43	0x3f7f1e84	0.9965594
44	0x3f7c0711	0.9844828
45	0x3f7dd6ad	0.99155694
46	0x3f795da6	0.9740852
47	0x3f728898	0.94739676
48	0x3f74d153	0.95631903
49	0x3f7d0fcb	0.98852223
50	0x3f75399d	0.95791036
51	0x3f7ecdc9	0.99532753
52	0x3f7bc9f0	0.9835501
53	0x3f7abf2a	0.97947943
54	0x3f77f483	0.9685747
55	0x3f7aadc3	0.9792139
56	0x3f7d22ae	0.9888104
57	0x3f702de6	0.93820035
58	0x3f734cc4	0.9503901
59	0x3f7378ec	0.9510639
60	0x3f808f3b	1.004371
61	0x3f7b77b4	0.9822953
62	0x3f7f954c	0.99837184
63	0x3f81160a	1.0084851

conv_eyes.bn3.bias f4 [64]
0	0x3c20a476	0.009804836
1	0x3d107d20	0.03527558
2	0x3cc88712	0.024478469
3	0x3c915d53	0.017744696
4	0xbc62d170	-0.013843879
5	0x3d003709	0.031302486
6	0x3c93ccd1	0.018042
7	0x3cca3380	0.02468276
8	0x3d2b34b5	0.041798312
9	0xbc885a2d	-0.016644562
10	0x3cedf266	0.029046249
11	0x3d2453d3	0.040119004
12	0x3d1a1f09	0.037627254
13	0xbd096e9c	-0.03355275
14	0x3c93083c	0.017948262
15	0x3d0db9af	0.03460091
16	0x3ce8ced4	0.028418936
17	0x3b4ca8dd	0.003122858
18	0xba250928	-0.0006295615
19	0x3c7b4728	0.015336789
20	0x3b4fce8a	0.00317088
21	0x3d034762	0.032050498
22	0x3d24dec7	0.04025152
23	0xbd414aaa	-0.047190346
24	0xbaf43b8c	-0.0018633469
25	0x3d8a320a	0.067478254
26	0x3b8e8362	0.004349158
27	0x3b5dc80d	0.0033841163
28	0x3d2c09f3	0.042001676
29	0x3d2555ea	0.040365137
30	0x3c59298b	0.0132545335
31	0x3d6963f7	0.0569801
32	0x3ca7cd2b	0.020483574
33	0xbc1f16a4	-0.009709988
34	0xb82fcef9	-4.191601e-05
35	0x3d6bb5ec	0.05754654
36	0x3cb44a80	0.02200818
37	0x3d16980d	0.0367661
38	0xbc08da57	-0.0083528375
39	0x3cdf572b	0.027263245
40	0x3d13c2fc	0.036074623
41	0x3a03d83f	0.00050294766
42	0xbc883406	-0.01662637
43	0x3cf46ae6	0.02983613
44	0x3d21a94f	0.039468106
45	0x3d09bb1e	0.033625714
46	0x3c41f6f3	0.011838662
47	0xbd3e04bc	-0.046391234
48	0xbb19767e	-0.0023416574
49	0x3d581782	0.052756794
50	0xbc4bf7b1	-0.012449191
51	0x3d4ce838	0.05002615
52	0x3cab13e7	0.020883514
53	0x3ca38ae9	0.019963698
54	0x3c2d0ee0	0.0105626285
55	0x3d08725e	0.033312194
56	0x3d1bd7ba	0.03804753
57	0xbd2319b3	-0.03981943
58	0x3c5622bb	0.013069804
59	0x3c374def	0.011188014
60	0x3d46e0a9	0.048554096
61	0x3cae147e	0.021250006
62	0x3d6fc276	0.05853506
63	0x3d14fed1	0.036375824

conv_eyes.bn3.running_mean f4 [64]
0	0x3f833897	1.0251645
1	0xbf6a4d20	-0.91523933
2	0xbfbfee22	-1.4994547
3	0xbf50036a	-0.8125521
4	0x3f159b1f	0.5843982
5	0xc0190d95	-2.391454
6	0xbe0d8e59	-0.13823833
7	0xbe6275e6	-0.22115287
8	0xbfd0952c	-1.6295524
9	0xbc30b7a8	-0.010785975
10	0xbf50ee7b	-0.8161389
11	0xbeeac8e4	-0.45856392
12	0x3d951e1a	0.07281132
13	0x3edd2a30	0.4319625
14	0xbff7dd23	-1.936436
15	0xbf4ec642	-0.8077127
16	0xbfc92062	-1.5713007
17	0xbed643eb	-0.41848692
18	0xbf87be61	-1.0604974
19	0x3eb0d54e	0.3453774
20	0xbfa57c41	-1.2928544
21	0xbfc6b758	-1.5524702
22	0xbd6d64ca	-0.057957448
23	0xbdf94f8c	-0.121733755
24	0x3f55c868	0.8350892
25	0xbfa5076b	-1.2892889
26	0xbfaa9dd3	-1.3329414
27	0xbfd135c2	-1.634453
28	0xbe323ad0	-0.17405248
29	0xbf95aea7	-1.1693925
30	0xbea095fd	-0.31364432
31	0xbfff1731	-1.9928952
32	0xbfaec440	-1.3653641
33	0xbe88e10d	-0.267342
34	0xbff9f2f5	-1.952727
35	0xc02abf10	-2.6679115
36	0xbfa539cf	-1.2908267
37	0xbfe6a0ed	-1.8017861
38	0xbfc5d674	-1.5456071
39	0xbf22f1dc	-0.636503
40	0xc0326447	-2.7873704
41	0xbf000397	-0.5000548
42	0xbeec4aa0	-0.46150684
43	0xbf7bbf48	-0.9833875
44	0xbe793fd2	-0.24340752
45	0xbe628e4d	-0.22124596
46	0xbee66cb5	-0.45004812
47	0xbecbeb39	-0.39827898
48	0x3f06de1e	0.52682674
49	0xbfa70816	-1.3049343
50	0x3e8e20e4	0.2775947
51	0xbfa75123	-1.3071636
52	0xbf4439a4	-0.7665045
53	0xbfaa64e1	-1.3312036
54	0x3d8f5314	0.06998268
55	0xbebf3419	-0.37344435
56	0xbfbd3979	-1.4783164
57	0x3e0c4d3e	0.1370134
58	0x3f43fc3f	0.7655677
59	0xbf99e5bb	-1.2023233
60	0xbf38a549	-0.72127205
61	0xbf4b8e3e	-0.7951392
62	0xbf9bdafa	-1.2176201
63	0x3ce28f21	0.02765614

conv_eyes.bn3.running_var f4 [64]
0	0x3f94de0d	1.1630265
1	0x3f84febf	1.0390242
2	0x3f210c74	0.62909627
3	0x3f5c65db	0.8609292
4	0x3fc57ddf	1.5429038
5	0x3fca0c1d	1.5784947
6	0x3f9c91ea	1.223203
7	0x3f90f890	1.1325855
8	0x3f881579	1.0631553
9	0x4019c408	2.4025898
10	0x3fb34cfe	1.4007871
11	0x401390c1	2.30571
12	0x3fbc6ee1	1.4721338
13	0x3eef0ef0	0.46691084
14	0x3f68c29a	0.9092194
15	0x3fbde9f7	1.4837025
16	0x3f980c5b	1.187877
17	0x3ffc7c92	1.9725516
18	0x3fc8e144	1.5693746
19	0x3f9f0fb0	1.2426662
20	0x3f953314	1.1656213
21	0x3fd4e44d	1.6632172
22	0x3fb46ab0	1.4095058
23	0x3f0d2941	0.55141073
24	0x3f28d13a	0.65944254
25	0x4026286e	2.5962176
26	0x3fa9958d	1.3248764
27	0x3f33c7f0	0.70226955
28	0x402f4ba5	2.738992
29	0x3fcc26d6	1.5949352
30	0x3f4e449d	0.80573446
31	0x3fdf75a8	1.7457781
32	0x3f90c74d	1.1310822
33	0x3f09392f	0.5360288
34	0x3fa5f847	1.2966393
35	0x3fb3fe5e	1.4062002
36	0x3f9a1b21	1.2039529
37	0x3f9a02a5	1.2032057
38	0x3f355d1d	0.70845205
39	0x3ff26193	1.8936027
40	0x3fc71b89	1.5555278
41	0x3ffccf31	1.975073
42	0x3e7e67ec	0.2484433
43	0x3f2ca748	0.6744275
44	0x4010f4e1	2.2649462
45	0x3fb06dde	1.3783529
46	0x3f7ffbc5	0.99993545
47	0x3f1b6bc4	0.6071131
48	0x3f259853	0.64685553
49	0x4034df01	2.826111
50	0x3f2a87c6	0.66613424
51	0x3fdf4ddc	1.7445636
52	0x3fad888c	1.3557296
53	0x3fa923ee	1.321409
54	0x3f0e50e4	0.5559218
55	0x3f5e02ad	0.8672283
56	0x3ff146d3	1.8849739
57	0x3f50904e	0.8147019
58	0x40156c48	2.334734
59	0x3fc8174e	1.5632112
60	0x3f64dd9d	0.89400655
61	0x40042dd5	2.0652974
62	0x40432230	3.0489616
63	0x3fb94da5	1.447682
