backend/ml/research/models/crash_tp_before_sl_lstm.pth (torch, 498593 bytes, 19 tensors)

lstm1.weight_ih_l0 f4 [512, 7]
0	0x3d5e675a	0.054297782
1	0xbcd23c89	-0.025663631
2	0x3d764e7e	0.06013345
3	0xbc4dab9a	-0.01255312
4	0xbd171849	-0.036888395
5	0xbd698c63	-0.05701865
6	0x3d8197f8	0.06327814
7	0x3d9386d8	0.07203454
8	0x3c80b845	0.015712867
9	0x3dd3ab32	0.10335387
10	0x3ce440c1	0.027862908
11	0x3a839afc	0.0010040696
12	0x3da00c1d	0.078148104
13	0x3d633996	0.05547484
14	0xbd031dcb	-0.032010835
15	0x3c8da165	0.017288873
16	0xbdd27a48	-0.102772295
17	0xbdc34de6	-0.09536342
18	0xbcdc9358	-0.026925728
19	0x3c79e909	0.015253314
20	0x3cc7501e	0.024330195
21	0xbdaedc20	-0.08538079
22	0xbd1bba53	-0.03801949
23	0xbce3f062	-0.027824584
24	0xbd2bcc56	-0.041942917
25	0xbdf16ca1	-0.117882974
26	0x3e0a3a35	0.13498767
27	0xbe0d505d	-0.13800187
28	0xbdd57dd8	-0.104243934
29	0xbdbed59e	-0.09318088
30	0xbdff855e	-0.1247661
31	0xbd19ba86	-0.0375314
32	0x3d920306	0.07129483
33	0xbd8be250	-0.06830275
34	0xbd43c2df	-0.047793265
35	0x3a43d15e	0.0007469858
36	0x3d8c172a	0.06840356
37	0xbd219b3e	-0.03945469
38	0x3d1470c1	0.036240343
39	0x3d3b3f40	0.045714617
40	0x3dc05791	0.09391702
41	0xbd8bfa7a	-0.06834884
42	0x3dc9abab	0.09847196
43	0x3d56a4b7	0.052403178
44	0x3d024638	0.031805247
45	0xbce75adb	-0.028241565
46	0xbc9c0050	-0.019043118
47	0x3c0854ce	0.008321
48	0x3c70c9b0	0.014696524
49	0x3d5a08c3	0.053231012
50	0xbdb5e6a6	-0.08881883
51	0x3cf72e20	0.030173361
52	0x3bcd554a	0.0062662708
53	0xbd6a0962	-0.057137854
54	0xbd52f62d	-0.051504303
55	0xbcaa415b	-0.020783117
56	0x3d321795	0.04347952
57	0xbda7df30	-0.081968665
58	0x3c9db4e3	0.019251293
59	0x3d452335	0.04812928
60	0x3dcb17b1	0.09916628
61	0x3be673bf	0.007032841
62	0xbd8e8843	-0.069595836
63	0x3cd0adbb	0.025473466
64	0x3cda8d53	0.026678717
65	0x3b853e9f	0.004066303
66	0x3b79707c	0.003806143
67	0x3c535c4d	0.012900424
68	0x3d5521f6	0.05203434
69	0x3d8583f5	0.065193094
70	0xbd4b12ee	-0.0495786
71	0x3acf503b	0.0015816757
72	0x3d935ceb	0.07195457
73	0x3db3417a	0.08752723
74	0x3db96d69	0.090540715
75	0xbd14da90	-0.03634125
76	0x3debf8d1	0.11522067
77	0x3cb4ce91	0.022071155
78	0xbbe956e6	-0.007120955
79	0xbab00e06	-0.0013431914
80	0xbc15c036	-0.009140065
81	0x3ac561b7	0.0015059029
82	0x3cb570ff	0.022148607
83	0xbd62724d	-0.055284787
84	0xbe159912	-0.14609173
85	0xbdfdb2ad	-0.12387595
86	0xbda83cac	-0.08214697
87	0xbdaf4282	-0.08557607
88	0xbdb71f6b	-0.089415394
89	0x3d87227a	0.06598373
90	0xbd1e13c7	-0.03859308
91	0xbe13c24c	-0.14429587
92	0xbd205144	-0.03914
93	0xbc9e3c09	-0.019315736
94	0xbd8b7735	-0.06809846
95	0xbd587197	-0.052842703
96	0xbdb88d11	-0.09011281
97	0x3ddb2d8d	0.107020475
98	0x3d94ed8c	0.07271871
99	0xbd3e4c61	-0.04645956
100	0x3c369121	0.011143
101	0xbd5d0438	-0.0539591
102	0x3c35e70e	0.011102451
103	0x3d31bee3	0.043394934
104	0x3d363042	0.044479616
105	0xbdb62fc2	-0.08895828
106	0xbd4fdb47	-0.05074623
107	0xbd8385f5	-0.06422035
108	0x3ca0bf27	0.019622399
109	0xbd4450dd	-0.04792868
110	0x3defd6b1	0.11710871
111	0xbdd8675d	-0.1056659
112	0x3d4f977b	0.050681572
113	0x3c6d3540	0.014478028
114	0xbcd9f108	-0.02660419
115	0xbd876e11	-0.066127904
116	0x3d96679c	0.07343981
117	0x3deedbd2	0.11663021
118	0xbd477113	-0.04869182
119	0x3d9c8e2b	0.07644304
120	0xbd5af57d	-0.053456772
121	0x3ca7162f	0.02039632
122	0x3cc48432	0.023988817
123	0x3dc06dd8	0.09395951
124	0x3dbffe2f	0.093746535
125	0x3d42c0f6	0.047547303
126	0xbcf511c8	-0.029915705
127	0x3da8b5d2	0.082378045
128	0x3d1ac815	0.03778847
129	0x3d96c548	0.07361847
130	0x3c3e45aa	0.011613289
131	0xbca6c78b	-0.020358821
132	0x3d6cd490	0.057819903
133	0xbde9501b	-0.11392232
134	0xbde0bea1	-0.109738596
135	0xbd0c2bc3	-0.034221422
136	0xbdd0af0f	-0.1018964
137	0x3d04feeb	0.03246967
138	0xbd09dc8b	-0.03365759
139	0xbc61b88d	-0.0137769105
140	0x3d264bf9	0.040599797
141	0xbd5fac50	-0.05460769
142	0x3cf56b8d	0.02995851
143	0xba0dc562	-0.00054081355
144	0xbce3e8bd	-0.02782094
145	0x3dc04d01	0.09389687
146	0x3d04bb7a	0.032405354
147	0xbcba627a	-0.022752035
148	0x3c787181	0.01516378
149	0x3d889fff	0.06671142
150	0x3d5c6752	0.05380947
151	0x3d0bbaf4	0.03411384
152	0xbcf59380	-0.02997756
153	0xbd31f4df	-0.043446418
154	0xbd4ec9f6	-0.050485574
155	0x3dc5d2db	0.09659358
156	0x3baeece8	0.0053383
157	0x3d9cea03	0.07661822
158	0x3da3aec5	0.07992319
159	0xbda53e37	-0.08068507
160	0xbda9eb04	-0.08296779
161	0xbde26e48	-0.11056191
162	0x3ba9658d	0.0051695765
163	0xbdfc89ce	-0.12330972
164	0xbddfac50	-0.10921538
165	0x3cd2dc3d	0.025739783
166	0x3c4e971f	0.012609272
167	0x3cbbb993	0.022915637
168	0xbd6fe73d	-0.058570135
169	0xbb82dd11	-0.0039936383
170	0xbc8f650d	-0.01750424
171	0x3ce70196	0.028198998
172	0x3d32bb92	0.043635912
173	0x3d95371b	0.07285901
174	0xbdd78c01	-0.105247505
175	0xbcac107c	-0.021003954
176	0xbdc3b958	-0.09556836
177	0xbe088b35	-0.13334353
178	0x3cedef45	0.029044757
179	0xbd94195d	-0.072314
180	0x3d88b3b2	0.06674899
181	0xbdbea48b	-0.09308728
182	0x3d6d8715	0.057990152
183	0x3cdfe11b	0.027329018
184	0xbc9525a7	-0.01820643
185	0xbd3a7024	-0.045517102
186	0xbdb623bc	-0.088935345
187	0xbcd1f26e	-0.025628295
188	0xbd26f232	-0.04075832
189	0xbd2f5844	-0.042808786
190	0xbd91bb6e	-0.071158275
191	0xbc065dcc	-0.008201074
192	0x3cf676c8	0.030085936
193	0xbcd1ac11	-0.025594743
194	0xbbc85131	-0.0061131944
195	0x3d9f00c6	0.077638194
196	0x3c73235d	0.014839974
197	0xbca5c4e4	-0.020235486
198	0xbcff195c	-0.031140022
199	0xbd1e1c65	-0.038601298
200	0x3d69319a	0.05693207
201	0xbdb74ec2	-0.08950569
202	0x3d4a6de1	0.049421195
203	0xbd840d17	-0.06447809
204	0xbcadd0e1	-0.021217765
205	0x3d97d937	0.07414477
206	0xbc029baa	-0.0079716835
207	0x3d7812f0	0.060564935
208	0x3d015aca	0.031580724
209	0x3d89aa4b	0.06721934
210	0x3d6f7ef6	0.05847069
211	0x3d682885	0.056679267
212	0x3cb177c6	0.021663558
213	0xbdaaae80	-0.083340645
214	0xbcdf6b86	-0.02727295
215	0x3c99b0c8	0.018761054
216	0xbdea0478	-0.114266336
217	0xbd2ab87d	-0.041679848
218	0x3d72cd48	0.059277803
219	0xbd18bd78	-0.037290066
220	0xbcbb3937	-0.02285443
221	0xbd6216bb	-0.05519746
222	0x3dcc68d8	0.09980935
223	0xbd7bb708	-0.06145385
224	0xbd99f578	-0.075175226
225	0x3d8d2ee6	0.06893711
226	0x3c7f1323	0.015568527
227	0x3d8bb1f6	0.06821053
228	0xbd1c2463	-0.03812064
229	0x3cf45391	0.029825004
230	0x3c0a9ef9	0.008460754
231	0xbc22ed5d	-0.009944287
232	0xbd8a6d51	-0.06759132
233	0xbd35e128	-0.04440418
234	0x3d79126e	0.06080859
235	0x3d86b04d	0.065765955
236	0xbb0e4be2	-0.002171271
237	0x3d2485cc	0.04016666
238	0x3cc9b27d	0.024621243
239	0x3c613ef8	0.013747923
240	0xbd6f0d88	-0.058362514
241	0x3daed848	0.08537346
242	0xbcabda79	-0.0209782
243	0xbdb4a787	-0.08821016
244	0xbbf20e4b	-0.0073869578
245	0xbbbbf45e	-0.005735918
246	0x3c7b6626	0.015344178
247	0xbcafb25d	-0.021447355
248	0x3aa2e2e3	0.0012427237
249	0xbdb6ed5d	-0.08931992
250	0xbd83f431	-0.0644306
251	0xbcbdbd92	-0.023161683
252	0xbd74de28	-0.059782177
253	0xbd333fac	-0.043761894
254	0xbbd90475	-0.006622846
255	0x3d1568ae	0.036476783

lstm1.weight_hh_l0 f4 [512, 128]
0	0x3d6b9d5f	0.057523128
1	0xbd94042c	-0.07227358
2	0xbca55b7b	-0.020185223
3	0x3cf8591c	0.030315928
4	0xbd75226f	-0.05984729
5	0x3cf62c38	0.030050382
6	0x3cfc7c66	0.030821037
7	0xbda9be9a	-0.082883075
8	0xbc7750bc	-0.015094932
9	0xbc08962f	-0.008336588
10	0xbcfad5ec	-0.030619584
11	0x3c99ab70	0.018758506
12	0x3ceabcbd	0.02865445
13	0xbd7560e1	-0.059906844
14	0xbdd9fc81	-0.106438644
15	0xbd61215f	-0.054963466
16	0x3cfde778	0.030994162
17	0xbd1845cd	-0.037175942
18	0xbc896baf	-0.01677498
19	0x3da1098f	0.07863151
20	0xbd9d4649	-0.076794215
21	0x3d0118fc	0.031517968
22	0x3e135e8f	0.1439154
23	0x3d0333f1	0.032031957
24	0x3dd9422c	0.106083244
25	0x3c325c40	0.010886252
26	0x3c42862a	0.0118728075
27	0x3cf67e4d	0.030089522
28	0xbd2a6705	-0.041602153
29	0xb9c71c2c	-0.00037977227
30	0xbe2f2739	-0.17104806
31	0xbcd6fa16	-0.026242297
32	0x3e09c648	0.13454545
33	0xbd25f1a1	-0.04051364
34	0x3dcca079	0.09991545
35	0xbda127f1	-0.07868946
36	0x3d80072d	0.06251369
37	0x3ce445c7	0.027865304
38	0xbd61c308	-0.055117637
39	0xbda05862	-0.07829358
40	0xbcb35263	-0.021889871
41	0xbce57a84	-0.028012522
42	0xbda3108f	-0.07962143
43	0x3d251774	0.04030557
44	0x3cd4479e	0.025913056
45	0x3cc66022	0.024215762
46	0x3d9a0960	0.075213194
47	0x3d5085c4	0.05090882
48	0x3cbd23fa	0.023088444
49	0x3deb896b	0.1150082
50	0xbdf38d6b	-0.11892208
51	0xbd19099d	-0.037362684
52	0xbc90b698	-0.017665192
53	0x3ba836cb	0.005133485
54	0x3d27c5a0	0.040959954
55	0xbbe2db23	-0.006923096
56	0x3caf14ae	0.021372166
57	0x3ca8549c	0.020548157
58	0x3c995778	0.018718466
59	0x3d307f8e	0.043090396
60	0xbd070b8b	-0.032969993
61	0x3c1566da	0.00911876
62	0xbcf135b0	-0.029444546
63	0x39a8e47b	0.00032213688
64	0x3d5826c9	0.052771363
65	0xbbcde374	-0.006283218
66	0x3decdd80	0.11565685
67	0xbd198719	-0.037482355
68	0xbdd93562	-0.10605885
69	0x3da1e7e3	0.07905557
70	0x3d967f4b	0.07348498
71	0xbcf82733	-0.03029213
72	0x3d8423c9	0.06452138
73	0x3cc4bd65	0.024016092
74	0xbd69cf45	-0.057082433
75	0x3df763b3	0.12079563
76	0x3db7eb40	0.08980417
77	0xba4a9745	-0.00077282294
78	0xbdfe0e12	-0.124050274
79	0x3d0b6918	0.034035772
80	0x3c7e1337	0.015507511
81	0x3c864016	0.01638798
82	0x3ce1a62a	0.027545054
83	0xbd840292	-0.06445803
84	0x3d9dd1bf	0.077060215
85	0x3ca79a50	0.020459324
86	0x3c58ab37	0.013224415
87	0x3c660d07	0.014041192
88	0xbdfd05fb	-0.12354656
89	0x3db14c63	0.08657148
90	0xbca1513f	-0.019692061
91	0x3d9e4070	0.07727134
92	0x3d6c13eb	0.057636183
93	0x3db31dc7	0.08745914
94	0xbcdf93be	-0.027292129
95	0xbd955e79	-0.0729341
96	0x3df0c09a	0.11755486
97	0xbc8c0de5	-0.01709647
98	0x3d58c094	0.05291803
99	0xbceb2ce0	-0.028707922
100	0x3d9cd069	0.076569386
101	0xbdfc133e	-0.12308358
102	0x3e1d89d0	0.15384603
103	0x3d34bcfe	0.04412555
104	0x3d8c3321	0.068456896
105	0x3e097103	0.13422017
106	0xbd54c962	-0.051949866
107	0xbd43a007	-0.047760036
108	0xbdc4d721	-0.09611345
109	0xbd8f9ce3	-0.07012346
110	0x3cb31a07	0.021862997
111	0xbd406730	-0.046973407
112	0xbc42a7f8	-0.011880867
113	0x3c8db1e1	0.017296733
114	0xbd3a6203	-0.045503628
115	0xbc5e0c76	-0.013552776
116	0x3d84ae7e	0.06478594
117	0x3d2d59ef	0.042322095
118	0x3d241d71	0.04006714
119	0xbd00b135	-0.031418998
120	0x3c554e92	0.013019221
121	0xbd384a2c	-0.04499261
122	0xbc8c2d9f	-0.017111598
123	0xbdaa9be1	-0.08330513
124	0xbdba2fa8	-0.09091121
125	0xbd47c334	-0.048770145
126	0xbd0c05d1	-0.034185234
127	0xbc7601fa	-0.01501512
128	0xbcbf95c9	-0.023386853
129	0x3d79431f	0.060855027
130	0x3ddf8d08	0.109155715
131	0x3b021c98	0.001985347
132	0xbd396577	-0.04526278
133	0x3df7eeb9	0.121060796
134	0x3e214a7b	0.15751068
135	0xbdce93a0	-0.10086751
136	0x3c6f9d0e	0.014624847
137	0x3d46957a	0.048482396
138	0x3b654929	0.0034986234
139	0x3ca3fc3f	0.020017741
140	0xbd0aa0ed	-0.033844877
141	0x3d78ef47	0.060775068
142	0x3c9534f9	0.018213736
143	0xbbd3d9be	-0.006465166
144	0xbdddca01	-0.10829545
145	0xbe30412e	-0.17212364
146	0xbd91247b	-0.07087036
147	0xbd1d9fed	-0.038482595
148	0x3dfa1993	0.12211909
149	0x3d788762	0.060675986
150	0xbd89052e	-0.06690441
151	0xbdb3fbfe	-0.08788298
152	0x3c815285	0.015786419
153	0xbc9dc12b	-0.019257149
154	0x3ce40926	0.027836394
155	0x3d5c416f	0.05377334
156	0x3dd3d271	0.10342873
157	0xbbfc6e43	-0.007703574
158	0x3d51b319	0.05119619
159	0x3e117d2b	0.14207904
160	0xbd91c180	-0.07116985
161	0xbd9967b6	-0.074904844
162	0x3d5fd921	0.05465043
163	0x3db54788	0.08851534
164	0xbd686bc5	-0.056743402
165	0x3dbc8e68	0.09206849
166	0x3d3f777e	0.046744816
167	0x3d0ccadf	0.03437316
168	0x3dc6af83	0.09701445
169	0x3dcea327	0.100897126
170	0x3d141b30	0.03615874
171	0x3de7e8d2	0.11323704
172	0xbd43abc3	-0.047771227
173	0x3cec91b0	0.028878063
174	0xbb479388	-0.0030452926
175	0xbdaaded9	-0.08343286
176	0xbb44d673	-0.0030035048
177	0xbccbb293	-0.024865424
178	0x3d97e24d	0.0741621
179	0xbdfa847a	-0.12232299
180	0xbe215406	-0.15754709
181	0xbc9db898	-0.01925306
182	0xbe0b54ba	-0.1360654
183	0x3caa1a3f	0.020764468
184	0xbc8a7673	-0.016902184
185	0xbda6cd2e	-0.08144604
186	0xbd685ae2	-0.056727298
187	0xbcf70c92	-0.030157361
188	0x3d26d610	0.04073149
189	0x3ce48590	0.027895719
190	0x3d621a5d	0.055200923
191	0x3d8bebb0	0.06832063
192	0x3db7b5e9	0.089702435
193	0xbb4ff354	-0.0031730728
194	0xbd971c4e	-0.073784456
195	0x3d7716eb	0.06032459
196	0xbca0737e	-0.019586321
197	0xbd778caf	-0.0604369
198	0x3c72a615	0.014810105
199	0xbc401f33	-0.0117261885
200	0x3d6f3de5	0.058408637
201	0xbd495527	-0.049153473
202	0x3df0f864	0.11766127
203	0xbdbadb55	-0.091238655
204	0xbe130f11	-0.14361216
205	0xbca8bd89	-0.02059819
206	0x3d6af599	0.057363126
207	0x3d96d3a5	0.07364587
208	0x3dcae292	0.09906496
209	0x3c9494e7	0.018137408
210	0xbce4c46f	-0.027925698
211	0xbd953e77	-0.07287305
212	0x3cc741ee	0.02432343
213	0x3d949c61	0.072563894
214	0xbdb8cb5c	-0.09023163
215	0x3cc40864	0.023929782
216	0xbc8c3528	-0.01711519
217	0x3bff4157	0.0077897715
218	0xbd691676	-0.056906186
219	0x3cbc154c	0.022959374
220	0xbd941374	-0.07230273
221	0xbd894919	-0.067033954
222	0xbd3f901f	-0.046768304
223	0xbcfdc735	-0.030978778
224	0xbd80d76e	-0.0629109
225	0xbd847234	-0.06467095
226	0x3e18a71f	0.14907502
227	0x3b57ac11	0.0032908956
228	0xbcbb8ddb	-0.02289479
229	0xbc91692e	-0.017750349
230	0xbd314e2a	-0.043287434
231	0xbd6d1b19	-0.05788717
232	0xbd842ba9	-0.0645364
233	0xbd851c75	-0.064995684
234	0x3c97bd43	0.018522864
235	0xbd982722	-0.07429339
236	0xbdb1a584	-0.08674148
237	0x3d9defd5	0.0771176
238	0xbdb7bc69	-0.08971483
239	0xbb809935	-0.0039245137
240	0x3cff2b80	0.031148672
241	0x3db023ed	0.08600602
242	0xbd87af5b	-0.06625243
243	0xb9ea8d0d	-0.0004473705
244	0x3e35eb72	0.17765597
245	0xbbffe3a3	-0.007809119
246	0xbb687925	-0.0035472598
247	0xbde129b8	-0.10994285
248	0xbc994e4d	-0.018714095
249	0xbdca529e	-0.09879039
250	0xbd141806	-0.036155723
251	0xbb59e5f6	-0.003324864
252	0x3cd221c4	0.025650866
253	0x3c81c5f8	0.01584147
254	0x3d804590	0.06263268
255	0xbe2f2fe3	-0.17108111

lstm1.bias_ih_l0 f4 [512]
0	0xbcdf918d	-0.027291084
1	0xbc45b20a	-0.012066374
2	0xbd915af3	-0.07097425
3	0x3d420dd6	0.047376476
4	0xbd8ad2a9	-0.067784615
5	0xbb094a1c	-0.0020948714
6	0xbdb1db5b	-0.08684417
7	0x3d8149c4	0.06312898
8	0x3dea04a2	0.11426665
9	0x3c7bdb96	0.015372178
10	0xb9b69ae6	-0.00034829153
11	0x3d98a140	0.07452631
12	0xbdda1ba7	-0.106498055
13	0x3ae048d3	0.0017111547
14	0xbd73fbb2	-0.059566207
15	0x3bd17cd9	0.006393057
16	0x3dd1de31	0.10247458
17	0x3e1eca03	0.15506749
18	0x3ca55cb4	0.020185806
19	0xbd63328d	-0.05546813
20	0x3cce4a34	0.025181867
21	0x3d8d7eed	0.06908975
22	0xbd52cb93	-0.051463675
23	0x3d542197	0.051789846
24	0xbbd81da9	-0.0065953326
25	0x3b870db4	0.0041215066
26	0xbd1fe235	-0.039034087
27	0xbd1d55f7	-0.03841206
28	0x3d1a2e10	0.037641585
29	0x3d7fffb1	0.062499706
30	0x3d7c0c6f	0.061535295
31	0xbc220530	-0.009888932
32	0xbd15553e	-0.036458246
33	0xbc52e0ac	-0.012870949
34	0xbdbc4d64	-0.091944486
35	0xbd413a03	-0.047174465
36	0x3d0f31f5	0.034959752
37	0xbd23832e	-0.039920025
38	0x3baccf24	0.0052737165
39	0x3c23a81c	0.009988811
40	0xbd9edf04	-0.077573806
41	0xbc2a579e	-0.010396866
42	0x3d23317c	0.039842114
43	0x3db28c31	0.08718146
44	0x3d425078	0.047440022
45	0x3c014ce1	0.0078918645
46	0xbcb14a4c	-0.021641873
47	0x3d4e819a	0.050416566
48	0x3de015ec	0.10941681
49	0x3dd66db2	0.104701415
50	0x3deb18b8	0.11479324
51	0x3df85a25	0.12126569
52	0xbdc86dcc	-0.09786567
53	0xbdf53710	-0.11973393
54	0x3cd46c82	0.025930647
55	0xbdaeccf4	-0.085351855
56	0x3c225850	0.009908751
57	0x3d769c4b	0.060207646
58	0xbd5e21e8	-0.054231554
59	0x3d93fe7f	0.07226276
60	0x3e10128b	0.14069574
61	0x3cfb0508	0.030642048
62	0xbcc9b2d7	-0.02462141
63	0x3c7e1201	0.015507222
64	0x3cf7ddba	0.030257095
65	0x3da0d3d6	0.078529045
66	0x3c8aac94	0.016927995
67	0x3d4cc598	0.049993128
68	0xb9c72501	-0.00037983808
69	0xbd5a7444	-0.053333536
70	0x3dc97672	0.09837045
71	0xbd8a4667	-0.067517094
72	0x3d0116db	0.031515937
73	0x3baafa66	0.005217838
74	0x3d91614b	0.07098635
75	0x3e166122	0.1468549
76	0x3c9ec90e	0.01938298
77	0xbb7e8538	-0.0038836729
78	0xbca1abe1	-0.019735279
79	0x3b4db82d	0.0031390295
80	0xbd427906	-0.0474787
81	0xbb993c41	-0.0046763723
82	0x3d9a3454	0.07529512
83	0xbd6f78b7	-0.058464732
84	0xbc792f19	-0.015208983
85	0x3dc90af1	0.0981654
86	0xbcc6f19c	-0.02428513
87	0xbb926a96	-0.0044682724
88	0xbd9f80cd	-0.07788239
89	0xbc75e1c1	-0.015007437
90	0xbe09689b	-0.1341881
91	0x3cecbea2	0.028899495
92	0xbda1832b	-0.078863464
93	0x3d008180	0.0313735
94	0x3dd26b95	0.10274426
95	0xbd9f7cf4	-0.07787505
96	0x3e01a4d5	0.12660535
97	0x3d01c43c	0.031681284
98	0x3cf21fcd	0.02955618
99	0xbdad7057	-0.08468693
100	0xbd8df67c	-0.06931779
101	0xbda635da	-0.0811574
102	0xbcaef202	-0.021355633
103	0x3d99f897	0.07518118
104	0x3daae75c	0.083449095
105	0xbcc4886f	-0.023990838
106	0xbd9db710	-0.07700932
107	0x3d154e9e	0.03645193
108	0xbe070c80	-0.13188362
109	0x3e23c79f	0.15994118
110	0x3db802cd	0.08984909
111	0x3dc7bbbd	0.09752605
112	0xbb9e67e1	-0.0048341607
113	0xbceed2a8	-0.029153183
114	0x3d88e47e	0.066842064
115	0x3e145264	0.14484555
116	0x3d087d8c	0.033322856
117	0xbd713eb2	-0.05889768
118	0x3daa427d	0.08313463
119	0x3d7609dd	0.060068
120	0x3e416d90	0.18889451
121	0x3d97c156	0.07409923
122	0xbd2f5e7d	-0.04281472
123	0xbbd8b086	-0.00661284
124	0x3d4ae60c	0.049535796
125	0xbc9992ba	-0.018746722
126	0x3dbcb79c	0.09214708
127	0x3dd60a06	0.104511306
128	0x3aa86292	0.0012846759
129	0x3cc61fa7	0.024185015
130	0xbd9fa658	-0.077953994
131	0xbc89d1c2	-0.016823653
132	0xbbf28f4e	-0.007402337
133	0x3cc16bb9	0.023610936
134	0x3d616bb9	0.055034373
135	0xbd615a05	-0.05501749
136	0xbca1d03b	-0.019752612
137	0xbdfb1f30	-0.12261808
138	0xbcc64c73	-0.024206376
139	0x3d3746b2	0.044745155
140	0x3d20aaa7	0.039225247
141	0xbd878846	-0.06617789
142	0xbd87d6f6	-0.066327974
143	0xbd46b290	-0.048510134
144	0x3d96f616	0.07371156
145	0x3da81b15	0.082082905
146	0xbcc57b2c	-0.024106584
147	0xbb8333ae	-0.0040039634
148	0xbdb4f376	-0.08835499
149	0x3d2ebda4	0.042661324
150	0x3d50e601	0.0510006
151	0xbdabe795	-0.0839378
152	0xbd896839	-0.06709332
153	0xbc9a5247	-0.018838061
154	0x3d0dfb08	0.03466323
155	0xbdcdfa7f	-0.10057544
156	0x3c73af9d	0.014873412
157	0x3d84538d	0.064612485
158	0x3c8f0e7d	0.017462963
159	0xbd3f701f	-0.046737786
160	0xbdce7fb3	-0.100829504
161	0xbd0ed08e	-0.034866862
162	0x3d724eb5	0.059157092
163	0x3d188336	0.037234508
164	0x3cfcd123	0.030861443
165	0x3cabb395	0.020959655
166	0x3d9106bb	0.07081362
167	0x3b84dbec	0.004054537
168	0xbd14b60f	-0.036306437
169	0xbd2d702a	-0.042343296
170	0x3c4bf4df	0.012448519
171	0x3ccde6c7	0.025134457
172	0xbc17f12a	-0.009273807
173	0x3ca79bf9	0.020460116
174	0xbd76dace	-0.060267262
175	0x3d65c172	0.056092687
176	0x3db06f26	0.0861495
177	0xbd1c0fc6	-0.03810098
178	0xbd7d8012	-0.061889715
179	0x3d765ab3	0.06014509
180	0xbda21284	-0.07913688
181	0xbdf11f5a	-0.11773558
182	0xbd4f8525	-0.050664086
183	0x3d0ea18e	0.03482204
184	0x3c9bf51c	0.019037776
185	0x3e120fe1	0.1426387
186	0x3cbb975e	0.022899326
187	0x3ce62b7a	0.028096903
188	0xbdc3b597	-0.0955612
189	0xbc49ba8a	-0.012312541
190	0xbd3d5f3e	-0.04623341
191	0x3d46761c	0.04845248
192	0x3d83305c	0.06405708
193	0x3d466265	0.04843368
194	0x3dca06a1	0.098645456
195	0x3d32abb8	0.043620795
196	0x3c6b1e7d	0.014350531
197	0xbd813d7b	-0.063105546
198	0x3d77b5aa	0.060475983
199	0xba52e7a2	-0.000804538
200	0x3b67469f	0.0035289896
201	0xbd8c0f40	-0.06838846
202	0xbcf48811	-0.029850038
203	0xbd922da5	-0.07137612
204	0x3d94bd7a	0.07262702
205	0x3b46814e	0.0030289474
206	0xbd6f560a	-0.058431663
207	0x3bd1d4ed	0.0064035566
208	0xbcab5f99	-0.020919608
209	0x3d444aa2	0.047922738
210	0x3c247851	0.010038451
211	0x3ce6e6d1	0.028186234
212	0xbd6a59f7	-0.057214703
213	0x3dc926e2	0.098218694
214	0xbc3f0566	-0.011659002
215	0xbc86f41f	-0.016473828
216	0x3dc7f300	0.097631454
217	0xbdee5e80	-0.11639118
218	0x3c1094ea	0.008824566
219	0x3d0a8650	0.033819497
220	0x3c87c9fc	0.016575806
221	0xbc7d4325	-0.015457903
222	0xbaa0856e	-0.0012246796
223	0x3d872987	0.065997176
224	0x3cd9b2c5	0.026574502
225	0xbd81914e	-0.06326543
226	0x3d521c4f	0.05129653
227	0x3df314b2	0.11869182
228	0xbdbd51c3	-0.092441104
229	0xb980e675	-0.00024585766
230	0xbcf92c8c	-0.03041675
231	0x3d2848fb	0.041085225
232	0xbbb193c0	-0.0054192245
233	0xbb17c7b6	-0.0023159808
234	0x3c2396ef	0.009984716
235	0xbdaa1a3c	-0.08305785
236	0xbd4bc7ec	-0.049751207
237	0x3d5b4eaf	0.053541835
238	0xbd247cae	-0.040157966
239	0x3db69c9c	0.089165896
240	0xbdd8be9a	-0.10583229
241	0x3d90f8c5	0.07078699
242	0xbd2ecac2	-0.042673834
243	0x3cb913f9	0.022592532
244	0xbd678a32	-0.056528278
245	0xbb3741ca	-0.0027962797
246	0x3d9f2cd3	0.077722214
247	0xbd48ff38	-0.04907152
248	0x3da5a44f	0.0808798
249	0x3d53fb6b	0.051753443
250	0x3d515740	0.0511086
251	0xbda18e8b	-0.07888516
252	0x3d8dac25	0.069175996
253	0xbd0da474	-0.034580663
254	0xbc11acf7	-0.008891336
255	0xbd29d6a6	-0.04146447

lstm1.bias_hh_l0 f4 [512]
0	0xbd8dd309	-0.069250174
1	0x3d17e1d8	0.037080616
2	0xbd230a81	-0.03980494
3	0xbc66cfb0	-0.0140876025
4	0xbd57efe4	-0.052719012
5	0xbdd9d64a	-0.106365755
6	0x3d83dd9e	0.064387545
7	0x3d0bf308	0.03416732
8	0x3d532c88	0.05155614
9	0xbd5c84be	-0.05383753
10	0xbcac33c0	-0.02102077
11	0xbd0b0500	-0.033940315
12	0xbe097c04	-0.13426214
13	0x3c726daf	0.014796658
14	0x3c936125	0.017990658
15	0xbdb62abe	-0.08894871
16	0x3d61c2e2	0.055117495
17	0x3e390f2f	0.18072198
18	0x3df03cda	0.117303565
19	0xbcbecc59	-0.0232908
20	0xbcacf03f	-0.021110652
21	0xbc9f9325	-0.019479344
22	0x3ba19a6c	0.0049317386
23	0xbd479bc8	-0.04873255
24	0x3d4fbeee	0.050719194
25	0x3dbc4534	0.09192887
26	0xbdb6b4d9	-0.08921213
27	0xbd811fbd	-0.06304882
28	0x3d9f2bc4	0.077720195
29	0xbd278006	-0.040893577
30	0xbd31b609	-0.043386493
31	0xbdac0061	-0.0839851
32	0xbcff066d	-0.031130994
33	0x3d8c8f2f	0.068632476
34	0xbcab27c5	-0.020892987
35	0xbbb4427d	-0.00550109
36	0xbc53b8a9	-0.012922444
37	0x3ce7f201	0.028313639
38	0x3cb2622a	0.021775324
39	0xbdab0476	-0.0835046
40	0xbdf8028a	-0.12109859
41	0x3cc6351d	0.024195248
42	0xbc9d43a5	-0.019197294
43	0x3afc520f	0.001925053
44	0x3df85cf2	0.12127103
45	0x3d8d3ebe	0.06896733
46	0xbd974c23	-0.07387569
47	0x3dc753f0	0.09732807
48	0x3dff45e3	0.12464502
49	0x3c3264f8	0.010888331
50	0x3da50f3b	0.080595456
51	0x3dc6d31e	0.09708236
52	0xbe072065	-0.13195951
53	0xbe04afd1	-0.12957694
54	0xbcb6365b	-0.022242716
55	0x3b4034a7	0.0029328258
56	0x3c6ec2ed	0.014572841
57	0xbbbcfbeb	-0.0057673356
58	0x3d4758bd	0.04866861
59	0x3ceb39de	0.028714117
60	0x3e009104	0.12555319
61	0x3d9a31de	0.07529043
62	0xbd87da73	-0.06633463
63	0xbdd368ee	-0.10322748
64	0x3c53606b	0.012901406
65	0x3dc6345f	0.09677958
66	0x3d5cc761	0.05390108
67	0xbd5a3ec0	-0.0532825
68	0x3d5385c7	0.051641252
69	0xbd0ae290	-0.033907473
70	0x3dbd6a8b	0.09248837
71	0xbdc3103f	-0.09524583
72	0x3d051a5f	0.032495853
73	0x3c9a17b0	0.018810123
74	0x3db6d7bd	0.089278676
75	0x3e0392cc	0.12848967
76	0xbd4e97aa	-0.050437607
77	0x3c3a21f0	0.01136063
78	0xbc3af512	-0.011410968
79	0x3d5f399c	0.0544983
80	0xbdae1d39	-0.085016675
81	0xbd10bddd	-0.035337318
82	0x3dd7e80c	0.10542306
83	0xbd80f1e7	-0.06296139
84	0xbcbc21c9	-0.022965329
85	0x3be855af	0.0070902924
86	0xbcef66b0	-0.02922377
87	0x3ac13c6c	0.0014742739
88	0xbd0f73ed	-0.035022665
89	0xbd393e27	-0.04522529
90	0xbb811e2c	-0.0039403643
91	0x3d2b1ba2	0.0417744
92	0x3c21b8f4	0.009870756
93	0x3d22859e	0.03967821
94	0x3d3a89ec	0.04554169
95	0xbdb1d3e4	-0.08682993
96	0x3df31ec5	0.11871103
97	0x3d16e7fd	0.036842335
98	0x3d1ed9b4	0.038781837
99	0x3ccb0de9	0.024786906
100	0x3cec949f	0.028879462
101	0xbdd74c1a	-0.10512562
102	0xbc5cfc3d	-0.013487873
103	0x3d967eb2	0.07348384
104	0xbc1e1acc	-0.009649944
105	0x3bd6e044	0.0065574963
106	0xbcb4676e	-0.022021975
107	0x3dcfaae0	0.10140014
108	0xbe028159	-0.12744655
109	0x3e005003	0.12530522
110	0x3dadd53f	0.08487939
111	0x3cc9d211	0.0246363
112	0xbd7d0cbe	-0.06177973
113	0x3c8c88b4	0.017155029
114	0x3d071a84	0.03298427
115	0x3ddbc6cd	0.107312776
116	0x3cae883f	0.021305202
117	0xbdabd9f1	-0.083911784
118	0xbd47d2dc	-0.048785076
119	0xbd13d5e5	-0.036092658
120	0x3d9dbcd8	0.07702035
121	0x3d49669b	0.049170118
122	0xbd8c282f	-0.06843602
123	0x3d544d75	0.05183168
124	0x3d00e016	0.031463705
125	0xbdb920dc	-0.090394706
126	0x3d0ff6a8	0.03514734
127	0xbb2c17f8	-0.0026259404
128	0x3dd943c7	0.106086306
129	0x3cf85d2e	0.030317869
130	0x3d41f14c	0.04734926
131	0xbd5ace7a	-0.053419568
132	0x3b97c26f	0.0046313326
133	0x3c6b622e	0.01436667
134	0x3da6a5c9	0.0813709
135	0x3d8a298b	0.06746205
136	0xbdadebe7	-0.084922604
137	0xbdc90c82	-0.09816839
138	0x3ae8a4fb	0.0017749363
139	0x3d4b9dbd	0.049710978
140	0xbd3e6ef7	-0.046492543
141	0x3d3c30ef	0.045945104
142	0x3d2c98c2	0.04213787
143	0x3d38c632	0.04511089
144	0xbccf35af	-0.025294153
145	0x3d859731	0.06522978
146	0xbd94841f	-0.072517626
147	0x3c427eee	0.011871083
148	0xbdd5c917	-0.104387455
149	0x3da7d657	0.08195179
150	0xbd3346b5	-0.043768603
151	0x3da58d48	0.08083588
152	0xbdce16fc	-0.10062978
153	0x3be78533	0.007065439
154	0x3da50563	0.08057668
155	0xbde0a652	-0.10969223
156	0xbd265f91	-0.040618483
157	0x3d89e9b8	0.067340314
158	0xbd364ba3	-0.044505727
159	0xbdd1e4ec	-0.102487415
160	0xbc269037	-0.010166219
161	0x3d0eea71	0.03489155
162	0x3c1f8737	0.009736828
163	0xbd8f2386	-0.069891974
164	0xbad30865	-0.0016100524
165	0x3d8d3474	0.0689477
166	0xbd53fd9a	-0.051755525
167	0xbd18fa0a	-0.03734783
168	0x3c7f30ce	0.015575601
169	0x3d2c551b	0.04207335
170	0x3d9c6d70	0.07638061
171	0xbd06e17d	-0.032929886
172	0xbd3d58d8	-0.046227306
173	0x3db16584	0.08661941
174	0xbcd07c07	-0.025449766
175	0xbc1bfc73	-0.009520638
176	0x3dc8f1e9	0.09811766
177	0x3baa4257	0.0051958966
178	0xbd363f54	-0.04449399
179	0x3c3265a8	0.010888495
180	0xbd44a466	-0.048008345
181	0xbe0ee546	-0.13954648
182	0xbde6cb7e	-0.11269282
183	0xbceee813	-0.029163396
184	0x3bfe43ca	0.007759546
185	0x3dcd4759	0.10023374
186	0xbd2a93de	-0.041644923
187	0x3d832a7b	0.06404587
188	0x3d7a74bd	0.061146487
189	0x3d8c1f20	0.06841874
190	0xbd782163	-0.060578715
191	0x3d60994d	0.0548337
192	0x3b9815ae	0.0046412563
193	0xbac494f1	-0.0014998001
194	0x3d362fc8	0.04447916
195	0x3d0cb243	0.03434969
196	0xbb00cb42	-0.00196524
197	0xbc8245ef	-0.015902488
198	0x3cad0ba7	0.02112372
199	0xbd5afbf8	-0.053462952
200	0x3df28c4d	0.118431665
201	0x3d89589a	0.067063525
202	0xbda51436	-0.080604956
203	0xbe1409fe	-0.14456937
204	0x3d15ea8e	0.036600642
205	0x3cbcfbcf	0.02306929
206	0xbdc01707	-0.09379392
207	0x3d0f574f	0.034995373
208	0x3cb4693a	0.022022832
209	0xbdd5f7ca	-0.10447653
210	0xbc6e66e4	-0.014550898
211	0xbd6e294e	-0.05814486
212	0xbe089625	-0.13338526
213	0xbccd67f9	-0.025073992
214	0xbdc80cc4	-0.0976806
215	0x3cd4f09e	0.025993641
216	0xbd01ab13	-0.03165729
217	0xbd9cf558	-0.07663983
218	0x3d624592	0.05524213
219	0x3d9cbd68	0.07653314
220	0xbdddf684	-0.10838035
221	0xbd30b293	-0.04313905
222	0xbccc9645	-0.024973998
223	0x3d112ce4	0.0354432
224	0xbcf92bba	-0.030416358
225	0xbd1832ee	-0.037157945
226	0xbdadfacf	-0.084951036
227	0xbb50185e	-0.0031752805
228	0x3d1f7dc5	0.038938303
229	0xbd2f6c72	-0.04282803
230	0xbcf25373	-0.029580807
231	0xbc2a73b6	-0.010403564
232	0xbc478168	-0.012176849
233	0x3d4a31dc	0.049363956
234	0xbd94a94d	-0.07258854
235	0xbceeb59a	-0.029139329
236	0xbd7a25f5	-0.061071355
237	0xbc9abad9	-0.018887924
238	0xbdb1b063	-0.08676221
239	0xbcbe13b3	-0.023202753
240	0xbdaf1b67	-0.085501485
241	0x3d69a5f3	0.057043027
242	0x3d80bb03	0.0628567
243	0x3d8d0d90	0.068873525
244	0xbdbd77d1	-0.09251369
245	0x3cf9926c	0.030465327
246	0xbc5ad68c	-0.013356816
247	0x3d24f8b0	0.04027623
248	0xbca06c04	-0.019582756
249	0xbda8e3b1	-0.08246554
250	0xbd6cb615	-0.057790834
251	0xbbfa47c9	-0.007637952
252	0xbd844c77	-0.06459897
253	0x3cb99f66	0.022659015
254	0xbd637809	-0.055534396
255	0xbdd99514	-0.106241375

bn1.weight f4 [128]
0	0x3f70089c	0.93763137
1	0x3f81109f	1.0083197
2	0x3f7b0a85	0.98062927
3	0x3f7d2533	0.98884887
4	0x3f67be57	0.9052481
5	0x3f7e22b5	0.9927171
6	0x3f67cf89	0.9055105
7	0x3f7620cd	0.961438
8	0x3f7185bb	0.9434468
9	0x3f7e82e3	0.9941847
10	0x3f75d14c	0.96022487
11	0x3f72f244	0.9490092
12	0x3f7797bc	0.96715903
13	0x3f72338a	0.9460989
14	0x3f82da91	1.0222951
15	0x3f7a3686	0.97739446
16	0x3f7ffd99	0.99996334
17	0x3f776f92	0.9665462
18	0x3f80a0b6	1.0049045
19	0x3f695697	0.9114775
20	0x3f7803a0	0.9688053
21	0x3f7d0c8a	0.9884726
22	0x3f71af2f	0.94407934
23	0x3f79beb3	0.9755661
24	0x3f7e8688	0.9942403
25	0x3f737d5f	0.95113176
26	0x3f76f7ca	0.96471846
27	0x3f649e8b	0.8930442
28	0x3f7cf14b	0.98805684
29	0x3f7446c4	0.9542048
30	0x3f7bfd03	0.9843294
31	0x3f796f65	0.974356
32	0x3f7981cb	0.97463673
33	0x3f7e2160	0.99269676
34	0x3f6d6592	0.9273311
35	0x3f782c1d	0.9694231
36	0x3f70b0a5	0.9401954
37	0x3f785084	0.9699786
38	0x3f76a89f	0.96351045
39	0x3f72eb11	0.9488993
40	0x3f70b8ae	0.940318
41	0x3f6c8902	0.9239656
42	0x3f815bd9	1.0106155
43	0x3f6eff59	0.9335838
44	0x3f7cda0c	0.98770213
45	0x3f7ac83b	0.9796178
46	0x3f77847b	0.96686524
47	0x3f6fc192	0.9365474
48	0x3f73f18b	0.9529044
49	0x3f7b47fb	0.9815671
50	0x3f703201	0.938263
51	0x3f674898	0.90345144
52	0x3f789e2e	0.97116363
53	0x3f6cd461	0.92511564
54	0x3f6b6019	0.9194351
55	0x3f710c28	0.94159174
56	0x3f6e2e88	0.9303975
57	0x3f86116c	1.0474067
58	0x3f72a693	0.9478542
59	0x3f81a629	1.0128833
60	0x3f83672b	1.0265859
61	0x3f7c6231	0.9858733
62	0x3f71fed1	0.94529444
63	0x3f7f3615	0.996919
64	0x3f78e554	0.97224927
65	0x3f7bfad2	0.98429596
66	0x3f7df047	0.9919476
67	0x3f784565	0.9698089
68	0x3f785272	0.970008
69	0x3f7ec147	0.9951367
70	0x3f7009eb	0.93765134
71	0x3f7fa8ec	0.9986713
72	0x3f5ec937	0.8702578
73	0x3f6fc010	0.9365244
74	0x3f6751b8	0.9035907
75	0x3f7fea91	0.99967295
76	0x3f773eba	0.9658009
77	0x3f78edf7	0.97238106
78	0x3f72276a	0.9459139
79	0x3f744e72	0.954322
80	0x3f7e26a1	0.99277693
81	0x3f71a30a	0.943894
82	0x3f775f51	0.96629816
83	0x3f74d4ac	0.9563701
84	0x3f75aef4	0.9597008
85	0x3f73aa21	0.9518147
86	0x3f7b49d5	0.98159534
87	0x3f7d02ea	0.9883257
88	0x3f822324	1.0166974
89	0x3f75d7ae	0.96032226
90	0x3f6e304f	0.93042463
91	0x3f703520	0.9383106
92	0x3f63e4d0	0.89021015
93	0x3f83c2ff	1.0293883
94	0x3f718e4c	0.9435775
95	0x3f73b44c	0.95196986
96	0x3f6f6d94	0.9352658
97	0x3f72c92c	0.94838214
98	0x3f7b2a49	0.981114
99	0x3f843b88	1.0330667
100	0x3f64e9e0	0.89419365
101	0x3f6aa129	0.9165216
102	0x3f71161a	0.9417435
103	0x3f7056c7	0.9388241
104	0x3f727eec	0.9472492
105	0x3f72b0ea	0.948012
106	0x3f7be4ec	0.9839618
107	0x3f6b0fde	0.91821086
108	0x3f633619	0.8875442
109	0x3f7f6d49	0.9977613
110	0x3f7ad565	0.97981864
111	0x3f825537	1.0182256
112	0x3f6d2f25	0.9265006
113	0x3f7683ff	0.9629516
114	0x3f799bc2	0.9750329
115	0x3f779ece	0.9672669
116	0x3f80c893	1.006121
117	0x3f78ba3b	0.97159165
118	0x3f6debb6	0.9293779
119	0x3f7bdd1a	0.9838425
120	0x3f81153d	1.0084606
121	0x3f7d35d5	0.98910266
122	0x3f73f85b	0.95300835
123	0x3f8174b7	1.0113744
124	0x3f7e00e2	0.992201
125	0x3f75fe23	0.96090907
126	0x3f856dab	1.0424093
127	0x3f80ea08	1.0071421

bn1.bias f4 [128]
0	0x3cf1822f	0.029481022
1	0xba7f3144	-0.0009734819
2	0x3c1568d1	0.009119228
3	0x3b99c02b	0.0046920977
4	0x3cd98d07	0.026556505
5	0x3d51a238	0.051180094
6	0xbd5bf533	-0.053700637
7	0x3cc7f303	0.02440787
8	0x3d010932	0.03150291
9	0xbd6fde39	-0.058561537
10	0xbbf30b22	-0.0074170986
11	0x3c7a0286	0.015259391
12	0xbbe2b530	-0.006918572
13	0xbd348f9b	-0.044082265
14	0x3cd49040	0.02594769
15	0x3d86afa4	0.065764695
16	0xbd19d143	-0.037553083
17	0xbc1c77f1	-0.009550081
18	0xbbdbf7ae	-0.0067128753
19	0x3a67f868	0.0008848966
20	0x3c1e0af5	0.009646167
21	0xbc41ef02	-0.011836769
22	0xbd5f8d2d	-0.054577995
23	0x3bf04c6f	0.0073333303
24	0xbd9ac721	-0.07557512
25	0xbc422af9	-0.011851066
26	0xbd38b30f	-0.04509264
27	0xbaf491c1	-0.0018659161
28	0x3b616b97	0.0034396404
29	0xbd0b3a7f	-0.033991333
30	0x3b2bc1da	0.0026208074
31	0x3c8e4fa1	0.017371954
32	0xbd8457b4	-0.064620405
33	0x3af29610	0.0018507857
34	0x3c460c44	0.012087885
35	0x3a77f8d2	0.00094593794
36	0xbd423177	-0.047410455
37	0x3bfd86fa	0.0077370377
38	0x3cb53132	0.022118185
39	0x3d115883	0.035484802
40	0xbd31df00	-0.04342556
41	0x3c4d397c	0.012525912
42	0x3c41a3cc	0.011818837
43	0xbc2b3d96	-0.010451695
44	0x3b362b7a	0.002779691
45	0xbc88659d	-0.016650015
46	0xbdba1ca7	-0.09087496
47	0xbcdead12	-0.027182136
48	0x3ddd45eb	0.108043514
49	0x3c9ff3bc	0.019525401
50	0x3cc37bdb	0.02386277
51	0x3b53f022	0.0032339175
52	0xbd5c43e5	-0.053775687
53	0x3c17c4d3	0.009263235
54	0x3b755d10	0.0037439503
55	0x3c450749	0.012025663
56	0xbd86622e	-0.06561695
57	0x3cca621c	0.024704985
58	0xbcabb998	-0.020962521
59	0xbc0014db	-0.007817472
60	0x3d16c6c2	0.036810644
61	0x3c1d47ed	0.009599668
62	0x3a2277e3	0.0006197674
63	0xbda1d08c	-0.07901105
64	0xbb5a775a	-0.00333353
65	0x3d8eef55	0.06979243
66	0x3d3b87fc	0.04578398
67	0x3ccbb99e	0.024868783
68	0x3df5f2b0	0.120091796
69	0xbcf55acb	-0.02995052
70	0xbc5b28e7	-0.013376451
71	0x3d115943	0.035485517
72	0x3d83792a	0.064195946
73	0x3d4bb006	0.049728416
74	0x3c217f96	0.009857079
75	0xbd6fca5f	-0.058542605
76	0xbb5995e6	-0.0033200919
77	0x3c67ff81	0.014160038
78	0xbd37c756	-0.044867836
79	0xbd1746ae	-0.03693264
80	0x3c9448b2	0.01810107
81	0x3bd822de	0.0065959534
82	0xbd91c702	-0.07118036
83	0xbd890ab8	-0.066914976
84	0xbd12e11e	-0.03585922
85	0xbd755268	-0.05989304
86	0xbc7585c5	-0.014985506
87	0x3d7328d7	0.05936512
88	0xbc37bcd5	-0.011214455
89	0x3b8703b1	0.004120313
90	0xbd2e9d56	-0.042630516
91	0xbd67c96b	-0.05658857
92	0x3cffc237	0.031220539
93	0x3d478b5e	0.048716895
94	0xbc88d920	-0.016705096
95	0xbd32a6e3	-0.043616187
96	0x3c82a396	0.015947144
97	0xbd936696	-0.07197301
98	0x3d42ffb8	0.047607154
99	0x3d44decb	0.048064034
100	0xbcd05312	-0.025430236
101	0xbdba67ff	-0.09101867
102	0xbd9cd3d7	-0.07657593
103	0xbd450e6a	-0.04810945
104	0x3b0c0726	0.0021366565
105	0xbd2ae7da	-0.041725017
106	0xbd411e9c	-0.047148332
107	0xbc5dbb6f	-0.013533457
108	0xbcf0a836	-0.029377084
109	0xbcaf8872	-0.021427367
110	0x3d33d0ff	0.043900486
111	0x3d026e50	0.031843483
112	0xbd2dade9	-0.04240218
113	0xbd224b6c	-0.03962271
114	0x3bb4e042	0.0055198977
115	0xbce33a1d	-0.027737672
116	0x3cc6361b	0.024195721
117	0xbd853556	-0.06504314
118	0x3c258c71	0.010104285
119	0x3c25e4ec	0.01012538
120	0xbd5378f2	-0.051629014
121	0x3cee47b2	0.029086921
122	0x3d1a2eb8	0.03764221
123	0x3b6f1d6b	0.003648604
124	0x3d8cb2cb	0.068700396
125	0x3cd35f43	0.02580226
126	0x3d0c307b	0.034225922
127	0x3c20167b	0.009770985

bn1.running_mean f4 [128]
0	0xbd9d307c	-0.07675263
1	0x3e8fe360	0.2810316
2	0xbea6ec7a	-0.32602292
3	0xbeafeba7	-0.34359476
4	0xbc9e5aea	-0.01933046
5	0x3d7a8368	0.061160475
6	0xbdda8fdf	-0.106719725
7	0xbde06d40	-0.10958338
8	0x3de41a24	0.111377984
9	0x3da402e4	0.08008364
10	0xbcf7f163	-0.03026647
11	0xbdee7f17	-0.11645334
12	0xbc8a8f76	-0.01691411
13	0xbda6ebd4	-0.081504494
14	0x3d6dc411	0.05804831
15	0xbc92601c	-0.017868094
16	0x3e94d024	0.2906505
17	0x3e8acf4b	0.27111277
18	0x3c223a16	0.009901544
19	0xbd1e85ed	-0.03870194
20	0x3d38a9aa	0.04508368
21	0x3ddf8b1d	0.10915206
22	0x3d1028aa	0.03519503
23	0x3caa840c	0.020814918
24	0x3b87e8dc	0.004147632
25	0x3dc03966	0.09385948
26	0x3d8f4ea8	0.06997424
27	0xbe04bf74	-0.12963659
28	0xbe26735e	-0.16254947
29	0x3ddf0b01	0.10890771
30	0xbe8f821f	-0.28028962
31	0x3cd16d70	0.02556488
32	0xbc1a8b66	-0.009432649
33	0x3e4ca2dd	0.19984002
34	0xbd89694b	-0.06709536
35	0x3c03e93a	0.008051211
36	0xbd480ac1	-0.04883838
37	0x3e6cbc33	0.23118667
38	0x3da83cce	0.082147226
39	0x3cdead95	0.02718238
40	0xbc5d0501	-0.013489963
41	0x3ea93697	0.3304946
42	0x3c87d71c	0.016582064
43	0xbdd3c082	-0.10339452
44	0x3d55ab1b	0.052165132
45	0xbedd3912	-0.43207604
46	0x3e02c132	0.1276901
47	0x3e11fdc5	0.14256962
48	0x3ee66489	0.44998577
49	0x3e8ab35e	0.2708997
50	0xbea783dd	-0.3271779
51	0x3ee6d73d	0.4508609
52	0xbbaa5384	-0.005197944
53	0xbce03936	-0.02737103
54	0xbe5c2bd9	-0.21501102
55	0x3d54b099	0.05192623
56	0xbe35b11a	-0.1774334
57	0x3efb9798	0.49139094
58	0xbe4f8d68	-0.20268786
59	0x3e178b77	0.14799295
60	0x3d6b2fda	0.05741868
61	0x3d7ee298	0.062227815
62	0xbe2768dc	-0.16348594
63	0xbdbb537f	-0.09146785
64	0x3cee1287	0.029061569
65	0x3e89beba	0.26903325
66	0x3df83587	0.121195845
67	0xbe61f566	-0.22066268
68	0x3b8c38c0	0.004279226
69	0x3c74bbff	0.0149374
70	0xbe924d91	-0.28574803
71	0xbd358315	-0.044314463
72	0xbebc387a	-0.36761838
73	0xbce7869a	-0.028262425
74	0xbbcbde28	-0.0062215514
75	0x3dc17638	0.094463766
76	0xbbbf2e04	-0.005834343
77	0x3e017347	0.12641631
78	0xbced947b	-0.029001465
79	0xbe9d0f6a	-0.30675822
80	0x3df673b0	0.120337844
81	0xbdbbe4fc	-0.09174535
82	0x3f08072a	0.5313593
83	0x3dab459c	0.08362886
84	0x3d5ae096	0.053436838
85	0x3d455745	0.04817893
86	0xbe3f8af7	-0.18705355
87	0x3e1b125c	0.15143722
88	0x3d361ae8	0.044459254
89	0xbd4bb7aa	-0.049735703
90	0x3c91504c	0.017738484
91	0x3bcc0805	0.006226542
92	0x3dde1404	0.108436614
93	0x3ebb7fd6	0.3662097
94	0x3ede1f86	0.43383425
95	0x3d47cba6	0.0487782
96	0x3f141445	0.5784343
97	0xbd8b8431	-0.06812323
98	0x3e6cd12a	0.23126665
99	0xbe3de466	-0.18544158
100	0xbdaa4600	-0.08314133
101	0x3db22ea2	0.08700301
102	0xbd4d6701	-0.05014706
103	0xbcd18ade	-0.025578912
104	0xbe844866	-0.25836486
105	0x3d032503	0.03201772
106	0xbcf0d7c6	-0.029399764
107	0x3d3aeb1f	0.045634385
108	0xbd823456	-0.063576385
109	0x3ba95e50	0.0051687136
110	0xbe28f162	-0.1649833
111	0xbe782096	-0.2423118
112	0x3d194628	0.03742042
113	0xbe2182a7	-0.15772496
114	0x3e198ed2	0.14995888
115	0xbf09d7a0	-0.5384464
116	0x3e7b44f6	0.24538025
117	0x3d8e4102	0.06945993
118	0xbd102118	-0.03518781
119	0x3ed99c45	0.42502037
120	0x3d8d2618	0.068920314
121	0x3d01dcf8	0.031704873
122	0x3c3517a6	0.0110530015
123	0x3e8833ac	0.26601923
124	0x3da3e8e3	0.08003404
125	0xbd8c5067	-0.06851273
126	0xbd4b7fe2	-0.049682505
127	0x3e38c7d7	0.18044983

bn1.running_var f4 [128]
0	0x3b7c5c26	0.0038507073
1	0x3be9d7d1	0.007136323
2	0x3bd264e0	0.0064207166
3	0x3c33141e	0.010930089
4	0x399f153e	0.0003034267
5	0x39d26dea	0.00040136214
6	0x3baa8bc6	0.0052046506
7	0x3b6d7c19	0.0036237298
8	0x3c3fc723	0.011705193
9	0x3b11b519	0.0022233187
10	0x3bbf00d9	0.0058289585
11	0x3bbb2bd1	0.0057120104
12	0x39d2863b	0.0004015433
13	0x3ac109a4	0.0014727605
14	0x3b057672	0.0020364788
15	0x3ab4772a	0.0013768424
16	0x3c26de69	0.010184863
17	0x3c596cb9	0.01327055
18	0x3c13d355	0.009022553
19	0x3a8c59c0	0.00107079
20	0x3b5c4b5a	0.003361425
21	0x3c0674b2	0.008206533
22	0x3a951c94	0.0011376315
23	0x39da2d61	0.0004161401
24	0x3b1fd783	0.002438993
25	0x3b8c663d	0.0042846487
26	0x3a34e3d4	0.0006900404
27	0x3af6bf6a	0.0018825356
28	0x3bbf75ac	0.005842885
29	0x3b8098ed	0.00392448
30	0x3ba4bf92	0.00502772
31	0x3ac30712	0.0014879426
32	0x3a6b97fe	0.0008987187
33	0x3ba330d9	0.0049801883
34	0x3bd8d773	0.0066174804
35	0x3b08271a	0.002077526
36	0x3b2a6c90	0.002600465
37	0x3b12ded5	0.002241065
38	0x3bca3891	0.006171294
39	0x3bb82569	0.005619694
40	0x3a06b0c7	0.0005138036
41	0x3c33fb4f	0.01098521
42	0x3ba44e2b	0.005014201
43	0x3bf0e898	0.007351946
44	0x3c8381b7	0.016053064
45	0x3c167040	0.009182036
46	0x3aca1980	0.0015418977
47	0x3b91a8a5	0.004445153
48	0x3ccabe73	0.024749016
49	0x3c21624b	0.009850095
50	0x3bcc490f	0.006234295
51	0x3c80f7af	0.015743105
52	0x39dd5bf7	0.00042220924
53	0x38f4b8cf	0.0001166925
54	0x3c41b88e	0.011823786
55	0x3aa7ea3a	0.0012810894
56	0x3c01cb10	0.007921949
57	0x3bb305fb	0.0054633594
58	0x3c0c69ae	0.008570118
59	0x3bbfc5bc	0.005852429
60	0x3c1b05bc	0.009461816
61	0x3c0a308d	0.008434427
62	0x3b12cdd1	0.0022400508
63	0x3ae77a37	0.0017660324
64	0x3ab61e02	0.0013894441
65	0x3bf59b38	0.00749531
66	0x3b444ebb	0.0029954154
67	0x3b96e673	0.0046051084
68	0x3bf2394d	0.0073920847
69	0x3a00263e	0.0004888511
70	0x3c30bcee	0.010787232
71	0x3a3c70e7	0.00071884546
72	0x3c08de4b	0.00835378
73	0x3a69e7af	0.0008922768
74	0x3c90125a	0.017586876
75	0x3c241f7e	0.010017274
76	0x3a71ae54	0.00092193973
77	0x3bc0adb8	0.005880084
78	0x3b453c59	0.0030095784
79	0x3bf898b2	0.007586562
80	0x3b91f6ed	0.0044544847
81	0x3a823df2	0.0009936674
82	0x3c1dde70	0.009635553
83	0x3bc6d195	0.0060674646
84	0x3b93e468	0.004513312
85	0x3c077e6c	0.008269887
86	0x3b7e97a6	0.0038847714
87	0x3c03084f	0.007997586
88	0x3bca9862	0.006182716
89	0x3a08f1fc	0.0005224047
90	0x3b2e0cbf	0.002655789
91	0x3a8111ae	0.0009847188
92	0x3b229345	0.0024807018
93	0x3bd508fe	0.006501316
94	0x3c743ac3	0.014906588
95	0x3b4f9c5e	0.0031678895
96	0x3cb899b9	0.022534238
97	0x3adfb255	0.0017066697
98	0x3bd38ab7	0.006455745
99	0x3b1abf1e	0.002361245
100	0x3bbb5b0f	0.005717642
101	0x3b35febc	0.0027770242
102	0x3b1f4f13	0.0024308607
103	0x3b76fc88	0.0037687141
104	0x3c02b769	0.007978299
105	0x3b979209	0.004625563
106	0x3afaf559	0.0019146606
107	0x3be40716	0.0069588525
108	0x3b298fa4	0.002587297
109	0x3c460675	0.0120865
110	0x3ba4aa6d	0.005025199
111	0x3c023561	0.007947297
112	0x3962b4b2	0.00021620354
113	0x3a82d417	0.0009981421
114	0x3ba31391	0.0049766977
115	0x3c04e42b	0.00811104
116	0x3bfbb7ec	0.0076818373
117	0x3a661977	0.0008777598
118	0x3bdbb960	0.006705448
119	0x3c31a0f1	0.010841594
120	0x3c865b7b	0.016401043
121	0x3aa085aa	0.0012246866
122	0x39e55076	0.00043738232
123	0x3c0217be	0.007940231
124	0x3b52b5ad	0.0032151744
125	0x3ae35522	0.0017344097
126	0x3c59a690	0.0132843405
127	0x3b9f8116	0.004867683

lstm2.weight_ih_l0 f4 [256, 128]
0	0xbdb91c4a	-0.09038599
1	0x3dcb2cf1	0.09920681
2	0xbd0d7168	-0.03453198
3	0xbd5ef56e	-0.05443328
4	0x3c75a6d2	0.014993386
5	0x3d3edcb9	0.046597216
6	0x3c65cab7	0.014025382
7	0x3db29cc1	0.08721305
8	0x3c49be7b	0.0123134805
9	0xbdeb3bd6	-0.11486022
10	0x3de91363	0.11380651
11	0xbe08d3dd	-0.1336207
12	0xbd7f3dd8	-0.06231484
13	0xbd85ca78	-0.065327585
14	0xbcf91902	-0.030407432
15	0xbdb94eff	-0.090482704
16	0xbc087f11	-0.008331076
17	0x3dd28098	0.102784336
18	0xbe2063ad	-0.15663023
19	0x3befa1a6	0.007312971
20	0x3d4a3158	0.049363464
21	0xbb4c297a	-0.0031152652
22	0x3e154e26	0.14580593
23	0xbd906f9f	-0.0705254
24	0x38040b2c	3.1481657e-05
25	0xbdb63467	-0.08896714
26	0xbdacd9de	-0.08439992
27	0x3d46ea12	0.04856307
28	0xbe17c663	-0.14821772
29	0x3c744fbb	0.014911587
30	0xbe0367a0	-0.12832499
31	0x3d637903	0.055535328
32	0xbb8ad0a4	-0.0042362977
33	0x3e0debec	0.13859528
34	0xbd1a8bbb	-0.037730914
35	0xbcf3b60a	-0.029749889
36	0xbda94111	-0.082643636
37	0xbe0524df	-0.13002346
38	0xbde9e5ea	-0.11420806
39	0xbdbe08ee	-0.09279047
40	0xbc84eddb	-0.0162267
41	0xbe1b4b88	-0.15165532
42	0xbdd62157	-0.10455578
43	0xbe2aa212	-0.16663387
44	0x3d647376	0.055774175
45	0x3ced58af	0.028972952
46	0x3e0ead3c	0.13933271
47	0x3c58c9d1	0.0132317105
48	0xbdc11848	-0.094284594
49	0xbe2405dc	-0.1601786
50	0xbd8456a6	-0.064618394
51	0x3deda956	0.11604564
52	0xbd4a5ef3	-0.049406957
53	0xbe2ff534	-0.17183381
54	0x3de417f8	0.11137384
55	0x3d0e785a	0.034782745
56	0xbd413080	-0.047165394
57	0xbd2960f3	-0.041352224
58	0x3d2df8dd	0.042473663
59	0x3da32f23	0.07967975
60	0xbda82c61	-0.082115896
61	0xbdbced1e	-0.09224914
62	0xbdb040c6	-0.086061046
63	0xbdb1b2e9	-0.086767025
64	0xbde56171	-0.11200226
65	0x3c901c50	0.017591625
66	0xbdc3c9cc	-0.09559974
67	0x3c41f610	0.011838451
68	0xbdcb1a7d	-0.099171616
69	0x3de028b4	0.109452635
70	0xbdcd34f9	-0.10019869
71	0x3d0fecbd	0.03513788
72	0x3dbf4bf0	0.09340656
73	0x3cb8ead0	0.022572905
74	0xbcc12a82	-0.02357984
75	0x3e120d23	0.14262824
76	0xbded44b3	-0.11585369
77	0x3cc11ef4	0.02357433
78	0xbe05a99b	-0.1305298
79	0x3db999e2	0.09062554
80	0x3d5f8bb8	0.054576606
81	0x3d0cc14c	0.03436403
82	0x3e0c057e	0.1367397
83	0x3ddcf5d4	0.107890755
84	0xbd72b19f	-0.059251424
85	0x3d927806	0.07151799
86	0xbdc8b83a	-0.098007634
87	0xbde60871	-0.11232079
88	0x3ca5796b	0.020199498
89	0xbdd411aa	-0.10354932
90	0x3e27478a	0.16335884
91	0xbd752009	-0.059845004
92	0x3d84b50c	0.064798445
93	0x3c81ba2b	0.015835842
94	0x3d20ad30	0.039227664
95	0x3cf4aa0f	0.029866247
96	0xbd87dab0	-0.06633508
97	0x3cd29016	0.025703471
98	0xbd317757	-0.043326702
99	0xbd912786	-0.070876166
100	0x3dd9b526	0.106302544
101	0xbd97fc5d	-0.07421181
102	0x3e2d8a10	0.16947198
103	0xbcf46878	-0.02983497
104	0x3caca5c6	0.02107514
105	0x3d64e914	0.055886343
106	0xbcad7d0a	-0.021177787
107	0x3d631a51	0.05544502
108	0x3be69c78	0.0070376955
109	0xbc316f36	-0.010829737
110	0x3d6e61ca	0.058198728
111	0x3db8babb	0.09019991
112	0x3d4aff67	0.049559977
113	0xbdacdee9	-0.08440954
114	0xbdddc8a2	-0.10829283
115	0xbc5d872f	-0.013521
116	0xbd4da965	-0.050210375
117	0x3e17e4a8	0.14833319
118	0x3e005dd3	0.12535791
119	0xbd011180	-0.03151083
120	0x3db1691e	0.08662628
121	0x3cbf526b	0.02335473
122	0x3d1f1a3d	0.038843382
123	0xbd2cf139	-0.042222235
124	0xbcefdda6	-0.029280495
125	0x3d3560cf	0.044281777
126	0xbcf29db6	-0.029616218
127	0x3bc8488c	0.006112164
128	0xbb94d4e3	-0.0045419796
129	0x3db299ea	0.08720763
130	0xbda62519	-0.081125446
131	0x3ca58143	0.020203238
132	0xbcae8197	-0.021302028
133	0xbd29fefc	-0.041502938
134	0xbc43b037	-0.011943868
135	0xbdbd09ef	-0.0923041
136	0xbd44e800	-0.048072815
137	0x3d73d650	0.059530556
138	0xbd0ea477	-0.034824815
139	0xbaae1c30	-0.0013283547
140	0xbd583e44	-0.052793756
141	0xbd5ad915	-0.05342968
142	0xbd830ba8	-0.06398708
143	0xbd86b1ca	-0.06576879
144	0x3dad7868	0.08470231
145	0xbdce73c6	-0.10080676
146	0x3be2b497	0.0069185006
147	0xbdf6ef18	-0.12057322
148	0x3dcb1b69	0.099173374
149	0x3db02cb7	0.08602279
150	0xbbc994ed	-0.0061517865
151	0xbc89ea91	-0.016835483
152	0xbce43b5b	-0.027860334
153	0x3e357a95	0.17722543
154	0xbdcbf7fb	-0.09959408
155	0xbd462961	-0.048379306
156	0xbd5ea56a	-0.05435697
157	0xbd9cc9fe	-0.076557145
158	0xbce3205a	-0.027725387
159	0x3d59a6bf	0.053137537
160	0xbce384cb	-0.027773282
161	0xbdc382a7	-0.09546404
162	0x3e36a176	0.1783503
163	0xbdeacee3	-0.11465242
164	0x3b96c064	0.0046005715
165	0xbd6ccbd6	-0.05781158
166	0x3dfe3a6b	0.12413486
167	0x3d2f59db	0.042810302
168	0x3cdc0b6b	0.026860913
169	0x3e2d4eaf	0.16924547
170	0x3e1c7b0e	0.15281317
171	0xba873f8e	-0.0010318623
172	0x3d97bb4f	0.07408773
173	0x3d681906	0.05666449
174	0xbd2a8e73	-0.041639756
175	0x3c7aaef9	0.015300506
176	0x3df75c05	0.12078098
177	0x3cf0a56c	0.029375754
178	0x3d848497	0.06470602
179	0x3e1395c6	0.14412603
180	0xba5f3808	-0.0008515124
181	0xbda90ef6	-0.08254807
182	0x3d864514	0.06556144
183	0xbd8e8a97	-0.06960028
184	0xbdec6114	-0.11541954
185	0x3cbb8eff	0.022895334
186	0xbda16199	-0.078799434
187	0x3d276816	0.04087075
188	0x3d37e1f4	0.04489322
189	0x3dae5111	0.08511556
190	0x3de4a222	0.11163737
191	0xbc477bc4	-0.012175504
192	0xbdaea7df	-0.085281126
193	0x3d94d28c	0.07266721
194	0x3e28725c	0.16449875
195	0x3d8cfb9a	0.06883927
196	0x3da5255c	0.08063766
197	0xbd61b24a	-0.05510167
198	0xbb700664	-0.0036624903
199	0x3e07c3b1	0.13258244
200	0x3b26ed48	0.002547102
201	0xbe034307	-0.12818538
202	0x3db7a169	0.089663334
203	0xbe078f12	-0.1323817
204	0xbdac4c14	-0.08412948
205	0xbca2cb0a	-0.019872207
206	0x3b35e8f7	0.0027757266
207	0x3c576fde	0.01314923
208	0x3dd5713d	0.10421989
209	0x3d8f6fc7	0.07003742
210	0xbba5c06d	-0.0050583393
211	0xbe01a54c	-0.12660712
212	0xbe0d4b42	-0.1379824
213	0x3cb5c1d9	0.02218716
214	0x3d03adc6	0.032148145
215	0x3e101c4e	0.14073297
216	0x3d93ad3f	0.072107784
217	0xbd941791	-0.072310574
218	0xbe048301	-0.12940599
219	0xbdd2a1d7	-0.10284775
220	0x3cf96328	0.03044279
221	0x3df7c96a	0.120989636
222	0xbd10b5bf	-0.035329577
223	0x3d0ce3c1	0.03439689
224	0x3d69f01c	0.05711375
225	0x3d8c9779	0.068648286
226	0xbdbc997d	-0.09208963
227	0x3d3dfacc	0.046381757
228	0x3cd5f9e5	0.026120136
229	0xbdb8d8db	-0.09025737
230	0xbd2610ab	-0.04054324
231	0xbd6defbb	-0.058089953
232	0x3d1c25ff	0.038122173
233	0x3d56b2df	0.05241668
234	0xbd17ddd4	-0.037076786
235	0x3c23646f	0.009972676
236	0xbdad93ae	-0.08475433
237	0xbda21aa7	-0.0791524
238	0x3c93dd86	0.018049967
239	0x3d0050a1	0.031326894
240	0xbc9571a9	-0.018242674
241	0x3d026b66	0.031840704
242	0x3d4c58af	0.049889263
243	0x3c293eb1	0.010329888
244	0x3d59ad41	0.053143743
245	0xbe08741e	-0.13325545
246	0x3db6c34c	0.08923969
247	0xbd8460ec	-0.06463799
248	0xbdf99788	-0.121871054
249	0x3cccfc45	0.025022635
250	0x3e27cbc3	0.16386323
251	0xbbd5a7a6	-0.0065202294
252	0x3aca2907	0.0015423604
253	0x3daccd22	0.084375635
254	0xbde1751b	-0.11008664
255	0xbdeb8964	-0.115008146
