backend/ml/research/models/crash_tp_before_sl_lstm.pth (torch, 498593 bytes, 19 tensors)

lstm1.weight_ih_l0 f4 [512, 7]
0	0x3c9e34e5	0.019312331
1	0x3d96daa2	0.0736592
2	0x3d3bcdda	0.045850612
3	0x3d232fe3	0.03984059
4	0x3c05918e	0.008152379
5	0x3adfd51d	0.0017077063
6	0x3d17537d	0.036944855
7	0xb96d67a4	-0.0002264069
8	0x3d4af0ff	0.049546238
9	0x3da4dece	0.08050309
10	0xbd4008a1	-0.04688323
11	0x3d6e5695	0.05818804
12	0x3c177309	0.009243735
13	0xbd190cbb	-0.037365656
14	0x3d7e5d9d	0.062100995
15	0xbc7228c3	-0.014780226
16	0x3d4e49ed	0.05036347
17	0xbcf23557	-0.02956645
18	0xbd8bffe8	-0.068359196
19	0x3d3e4120	0.046448827
20	0x3cca33ff	0.024682997
21	0xbd94dc95	-0.07268635
22	0x3c432c32	0.011912392
23	0xbd845e5d	-0.06463311
24	0x3d69a750	0.057044327
25	0x3cd94107	0.026520265
26	0xbdbbab48	-0.09163529
27	0xbc8b4024	-0.016998358
28	0x3d248ce9	0.040173445
29	0x3d2bec27	0.04197326
30	0xbd8fde35	-0.070248045
31	0xbdc565f7	-0.09638589
32	0x3d9f826a	0.077885464
33	0xbd3a0d0d	-0.045422602
34	0x3d92a012	0.07159437
35	0x3d80b15e	0.0628383
36	0xbce5bc7c	-0.028043978
37	0xbd58785e	-0.052849166
38	0x3c1e105f	0.009647458
39	0xbde8a6d3	-0.11359944
40	0x3ca61600	0.020274162
41	0xbc8f0345	-0.017457614
42	0x3cfc0e63	0.030768579
43	0xbd734a2a	-0.0593969
44	0xbd094656	-0.033514343
45	0xbd82ec19	-0.06392688
46	0xbcbd1141	-0.023079516
47	0xbd32bc8c	-0.043636844
48	0x3d1395e5	0.036031622
49	0xbd8ad186	-0.06778245
50	0xbb4833cf	-0.0030548458
51	0x3d028e4f	0.031873997
52	0xbdab4451	-0.0836264
53	0xbdc4e835	-0.096146025
54	0xbd411c26	-0.047145985
55	0xbb29e35d	-0.0025922873
56	0x3a128743	0.00055896136
57	0x3d6e427e	0.05816888
58	0x3cf13fca	0.029449362
59	0xbd113ffe	-0.03546142
60	0xbd32f287	-0.043688323
61	0x3d3ccc21	0.04609311
62	0xbb9bb373	-0.0047516166
63	0x3cc87b51	0.024472864
64	0x3d7e1eb2	0.062040992
65	0x3d9f0053	0.07763734
66	0xbbf478ed	-0.0074607045
67	0xbb37a6ac	-0.0028022928
68	0x3d9b1012	0.075714245
69	0x3d3d60e4	0.04623498
70	0xbab3bc84	-0.0013712798
71	0xbc9e57c1	-0.019328954
72	0x3ce8739c	0.02837544
73	0x3d8ce924	0.068804055
74	0xbd633159	-0.055466983
75	0xbcac47b5	-0.021030286
76	0xbc95d9fb	-0.018292418
77	0xbd4d805d	-0.050171245
78	0x3da69739	0.08134312
79	0xbdb5b95d	-0.08873246
80	0xbd01a02e	-0.0316469
81	0xbd3d4e6b	-0.046217363
82	0xbd8cabc1	-0.06868697
83	0xbcf94541	-0.03042853
84	0xbbe5ca8a	-0.00701267
85	0xbdbf22ef	-0.09332835
86	0xbdb77a70	-0.089589
87	0x3d95a806	0.073074386
88	0x3c9af6a0	0.018916428
89	0xbd29fb87	-0.04149964
90	0x3a578973	0.00082220807
91	0xbd0c1f32	-0.034209438
92	0xbd3040fd	-0.043030728
93	0x3d0e5d75	0.034757096
94	0xbd71a8ce	-0.058998875
95	0xbd44fe64	-0.04809417
96	0xbdaf6e0c	-0.08565912
97	0x3d09ff60	0.03369081
98	0x3b298ca9	0.0025871194
99	0xbdbc96df	-0.09208464
100	0xbce19c2f	-0.027540294
101	0xbd781248	-0.06056431
102	0x3d9a7ae5	0.075429715
103	0x3d1f1efa	0.0388479
104	0xbd00dfac	-0.03146331
105	0xbc842f25	-0.016135762
106	0x3d73ec4e	0.05955153
107	0x3d8d9557	0.0691325
108	0x3d1d4653	0.038397145
109	0xbda30182	-0.07959272
110	0xbd497ba6	-0.049190186
111	0x3d9d4ec6	0.076810405
112	0xbda17a43	-0.07884648
113	0xbd43969b	-0.04775105
114	0xbaeb5ac8	-0.0017956132
115	0x3c3b2629	0.011422672
116	0x38b18198	8.4641564e-05
117	0xbdac25cf	-0.08405649
118	0x3d58d3c3	0.052936327
119	0xbd4dd355	-0.05025037
120	0x3bf4fd82	0.0074765095
121	0xbd39bbdd	-0.045345176
122	0xbd7de825	-0.06198897
123	0x3c1b1c3c	0.009467181
124	0x3d1797be	0.037009947
125	0xbd475f49	-0.048674855
126	0x3d6e4e4f	0.05818015
127	0x3d3fc647	0.04681995
128	0xbd9c2369	-0.076239415
129	0xbc188572	-0.00930916
130	0xbc9381a7	-0.018006159
131	0xbd5fc419	-0.054630373
132	0xbd7674ee	-0.060170107
133	0xbbe66787	-0.0070313844
134	0x3c3b9b2d	0.011450571
135	0x3cf403b4	0.029786922
136	0xbd808ef3	-0.062772654
137	0x3cbf75ce	0.023371603
138	0x3c807b2a	0.01568373
139	0x3c96268c	0.018328927
140	0xbd401a65	-0.04690017
141	0xbdca430d	-0.0987607
142	0x3d462104	0.04837133
143	0xbdb7feb2	-0.08984126
144	0x3b62537a	0.003453462
145	0xbbbf65f8	-0.005841013
146	0x3d2bd599	0.04195175
147	0x3d043860	0.032280326
148	0x3d8766fa	0.06611438
149	0x3c1aa12d	0.009437841
150	0x3d195843	0.03743769
151	0xbd236e5c	-0.03990017
152	0xbd4e0d70	-0.050305784
153	0xbd6708b1	-0.056404773
154	0xbd6edb12	-0.05831439
155	0x3d9ea015	0.07745377
156	0x3ba7ed93	0.0051247566
157	0x3c6d4b1e	0.014483241
158	0xbcf971a5	-0.030449698
159	0x3da9fdb1	0.08300341
160	0xbdb2ddbc	-0.08733699
161	0xbd5c1551	-0.053731266
162	0x3d62443e	0.055240862
163	0x3c5a858f	0.013337507
164	0x3d913742	0.07090618
165	0xbcba2246	-0.022721421
166	0xbd3f7256	-0.0467399
167	0xbda98b8d	-0.0827857
168	0xbd0ea561	-0.034825686
169	0x3d74f92b	0.059807938
170	0xbdcaf498	-0.09909934
171	0x3c99349d	0.018701846
172	0xbd2f3f89	-0.0427852
173	0x3d4b2fb8	0.049606055
174	0xbd0e5fae	-0.034759216
175	0x3cee6bb3	0.02910409
176	0x3d6f9841	0.05849481
177	0x3dbaa44d	0.09113369
178	0x3d3fd5e6	0.04683485
179	0xbd280b65	-0.04102649
180	0x3d6e76e9	0.05821887
181	0x3d820c52	0.06350006
182	0xbdb8ecb6	-0.09029524
183	0xbd860f8a	-0.065459326
184	0xbbe7e6e8	-0.0070770867
185	0xbd7c738e	-0.06163364
186	0x3d8d2a5d	0.06892846
187	0xbd129fe2	-0.035797007
188	0xbdd52949	-0.10408265
189	0xbba7b5a6	-0.0051180897
190	0x3c8d38be	0.01723897
191	0x3db01b5f	0.085989706
192	0xbc5ccdbe	-0.013476787
193	0xbd1e71be	-0.03868269
194	0xbbd11d64	-0.0063816775
195	0x3d93e761	0.072218664
196	0x3d4d72b5	0.05015822
197	0xbd0c4b4c	-0.034251496
198	0x3d70014b	0.058594983
199	0xbc0990e2	-0.008396359
200	0x3d1218b2	0.035668083
201	0x3cd997e6	0.026561689
202	0x3d93d1d6	0.072177574
203	0x3d243e0f	0.040098246
204	0xbd85522c	-0.06509814
205	0x3d2801ec	0.041017458
206	0x3c6752c0	0.01411885
207	0xbda3a087	-0.079896025
208	0xbb51ca26	-0.003201136
209	0xbc2aa1c1	-0.010414542
210	0x3d8f325b	0.069920264
211	0x3ced73a4	0.028985806
212	0x3d7c16ee	0.061545305
213	0xbd1ad821	-0.037803773
214	0xbd7ab2c3	-0.061205637
215	0xbba86177	-0.005138572
216	0xbd8bd888	-0.068284094
217	0xbd86bfa3	-0.065795206
218	0xbd9ebd2d	-0.07750926
219	0xbd910cad	-0.07082496
220	0xbdaab482	-0.083352104
221	0x3d31fc68	0.043453604
222	0xbcee1a54	-0.029065289
223	0x3c4b8edf	0.0124242
224	0x3d559233	0.05214138
225	0x3d8c8566	0.06861381
226	0xbd75b40d	-0.059986163
227	0x3d18389f	0.037163373
228	0x3c56e7fb	0.013116832
229	0xbccfa45e	-0.025346931
230	0x3d97184d	0.07377682
231	0xbc890a89	-0.016728656
232	0xbd8e1c32	-0.069389716
233	0xbd6e39ac	-0.05816047
234	0x3d9038e3	0.070421
235	0x3c9030a1	0.017601313
236	0x3cfe11c3	0.031014329
237	0xbca19008	-0.019722
238	0x3a017d2c	0.00049396115
239	0xbd8367cf	-0.06416284
240	0x3d1f9503	0.038960468
241	0xbd7ae25f	-0.06125104
242	0x3c08be7a	0.008346194
243	0xbd9c3a76	-0.07628338
244	0x3d7330e7	0.05937281
245	0xbd50d662	-0.0509857
246	0x3d43b8d8	0.047783703
247	0xbc17285b	-0.00922593
248	0x3ced4c65	0.028967092
249	0x3d9edc4b	0.07756861
250	0x3dc82d63	0.09774282
251	0x3cb93328	0.022607401
252	0x3d120c91	0.035656516
253	0x3cbea534	0.023272134
254	0xbd558669	-0.052130137
255	0xbb4b56d4	-0.0031027095

lstm1.weight_hh_l0 f4 [512, 128]
0	0xbd0ff0f9	-0.03514192
1	0x3d21961f	0.039449807
2	0xbdb918a7	-0.09037905
3	0xbbc257f5	-0.0059308955
4	0x3d837288	0.064183295
5	0xbd23500a	-0.039871253
6	0x3b8fe97a	0.0043918462
7	0xbc04e404	-0.008111004
8	0x3d9c83ba	0.07642312
9	0x3d9e919f	0.07742619
10	0x3d46b82b	0.04851548
11	0x3d821f35	0.063536085
12	0x3d8b5ab4	0.068044096
13	0xbd641f71	-0.055694047
14	0x3dc260ee	0.09491144
15	0x3be5b884	0.0070105214
16	0x3d43869b	0.04773579
17	0xbd5a0856	-0.053230606
18	0x3c7248ee	0.014787896
19	0x3c249c74	0.010047067
20	0xbc409e83	-0.011756542
21	0xbd819e0d	-0.06328974
22	0xbc9ec0f6	-0.01937912
23	0xbd8d81fc	-0.06909558
24	0xbd368006	-0.044555686
25	0x3dba27a5	0.09089593
26	0x3d14bbb4	0.03631182
27	0xba9a1cca	-0.0011757847
28	0x3d35084c	0.044197366
29	0xbb6afe57	-0.0035857165
30	0xbd82fb8b	-0.06395634
31	0xbc2bb709	-0.010480651
32	0x3c0317d1	0.008001284
33	0x3d58e749	0.052954946
34	0x3c822e5e	0.01589125
35	0xbd131dbe	-0.035917036
36	0xbd305df2	-0.043058343
37	0x3d8c02b4	0.06836453
38	0xbcfcc104	-0.030853756
39	0x3dc44783	0.09583952
40	0x3d4f3fa1	0.05059779
41	0xbd77365f	-0.060354587
42	0x3d39cb1b	0.045359712
43	0xbc086bc5	-0.0083264755
44	0xbc84d4c1	-0.01621473
45	0xbe02f21b	-0.12787668
46	0x3c79c1ac	0.015243929
47	0xbcb10297	-0.02160768
48	0xbdc950a7	-0.09829836
49	0xbd8d3128	-0.068941414
50	0xbd8182e8	-0.063237965
51	0xbd32b010	-0.043624938
52	0xbdb7c91b	-0.08973905
53	0x3b806911	0.003918775
54	0x3d6a0b52	0.057139702
55	0x3ced43cb	0.02896299
56	0xbd33a497	-0.043858137
57	0xbd7fce75	-0.062452752
58	0x3d3c81a0	0.046022058
59	0xbd1b01b8	-0.037843436
60	0x3d9afec8	0.07568127
61	0xbd5f78b6	-0.05455848
62	0x3cd0731c	0.025445513
63	0xbc5e13ce	-0.0135545265
64	0xbd2b8760	-0.04187715
65	0x3dbd585f	0.09245371
66	0xbd7efc5e	-0.062252395
67	0x3c9b394b	0.018948218
68	0xbd27d0dc	-0.04097067
69	0xbc357051	-0.011074142
70	0x3d9d3eda	0.076780036
71	0xbd1715ae	-0.03688591
72	0x3d2a5cc6	0.041592382
73	0x3d0f3fc7	0.034972932
74	0xbd20004d	-0.039062787
75	0x3b1dc48b	0.0024073448
76	0x3d572ca6	0.052532814
77	0x3d7ca754	0.061683014
78	0xbcc06e20	-0.023490012
79	0x3d8433f7	0.06455224
80	0x3c659a61	0.014013858
81	0xbd83a35e	-0.06427644
82	0x3d79c92e	0.060982876
83	0xbdc22e7f	-0.09481525
84	0xbbece70e	-0.0072296923
85	0xbd3a7b3a	-0.045527674
86	0xbbae6bfa	-0.0053229304
87	0xbd8e63f2	-0.06952657
88	0x3cca3278	0.024682269
89	0x3db31ed8	0.08746117
90	0x3cdbdc17	0.026838345
91	0x3c5e3add	0.013563839
92	0xbdc69166	-0.09695701
93	0xbd7d4be6	-0.06183996
94	0xbcc0fac4	-0.023557074
95	0xbd9fea1a	-0.07808323
96	0xbce3f286	-0.027825605
97	0xbda737c0	-0.0816493
98	0x3d95a238	0.073063314
99	0xbd5ef644	-0.054434076
100	0xbd55a4b2	-0.05215902
101	0xbcc2592f	-0.023724167
102	0xbdcf2db8	-0.10116142
103	0x3ad9307b	0.0016570234
104	0xbd7f12a2	-0.06227363
105	0xbd8c2488	-0.06842905
106	0xbc3d5a39	-0.011557155
107	0x3d68ec74	0.056866124
108	0x3d6fdbfa	0.058559395
109	0xbce4244a	-0.027849335
110	0x3db3dc6b	0.08782276
111	0xbc518ad0	-0.012789443
112	0xbdb4aee9	-0.08822424
113	0xbd703c51	-0.058651272
114	0xbd64d0ca	-0.05586318
115	0x3ccbbbb3	0.024869775
116	0xbc97bca5	-0.01852257
117	0x3d969bf8	0.073539674
118	0xbd673073	-0.05644269
119	0x3d4ea9ae	0.050454788
120	0xbd878889	-0.06617839
121	0xbdc07078	-0.09396452
122	0x3b91f1db	0.0044538802
123	0x3c60ee0a	0.013728628
124	0x3d84742f	0.06467473
125	0x3ccbfdd2	0.024901304
126	0x3cfce389	0.030870216
127	0x3ccc1839	0.024913894
128	0xbd21d6c7	-0.03951147
129	0xbb9599e9	-0.0045654667
130	0xbdaba678	-0.08381361
131	0x3cece436	0.028917413
132	0xbd4f753a	-0.050648905
133	0xbca6e1be	-0.020371314
134	0x3d487489	0.04893926
135	0x3d6122f7	0.054964986
136	0x3cddc1c8	0.027069941
137	0x3d3e9631	0.046529952
138	0x3ccd4bff	0.025060652
139	0xbcba3a64	-0.022732921
140	0xbc33c882	-0.010973098
141	0x3ce0c507	0.0274377
142	0xbd234dac	-0.039868996
143	0x3dbdaae1	0.09261108
144	0xbd03acad	-0.0321471
145	0x3dbd6d4b	0.092493616
146	0xbce981e3	-0.028504318
147	0x3d67b7a6	0.056571625
148	0x3ccc26e2	0.024920885
149	0xbd95ea43	-0.073200725
150	0xbd616489	-0.05502752
151	0x3d0c8405	0.03430559
152	0xbd9fb654	-0.07798448
153	0x3c9a909a	0.01886778
154	0x3d5328ca	0.05155257
155	0xbd91854a	-0.07105501
156	0xbd8300df	-0.063966505
157	0xbc8c3de1	-0.01711935
158	0xbda23d11	-0.07921804
159	0x3dbac4df	0.091195814
160	0xbbfe5224	-0.007761257
161	0x3d270f17	0.040785875
162	0xbd247e17	-0.04015931
163	0x3d9e5a76	0.07732098
164	0xbc8679c9	-0.016415494
165	0x3d413285	0.04716732
166	0xbced1489	-0.028940456
167	0x3bf17218	0.0073683374
168	0x3da93996	0.08262937
169	0xbd60421c	-0.054750547
170	0xbd986db6	-0.07442801
171	0xbd8d9f6e	-0.069151744
172	0xbd9d7acc	-0.07689437
173	0xbd82efc9	-0.06393392
174	0x3dcee648	0.101025164
175	0xbd04d1d9	-0.03242669
176	0xbd81dbcc	-0.06340751
177	0xbcedbe9c	-0.029021554
178	0x3d719dc8	0.058988363
179	0x3ce7a4c6	0.028276812
180	0x3d9f38b0	0.07774484
181	0xbda84a8b	-0.08217343
182	0x3da7f085	0.08200172
183	0xbde89055	-0.11355654
184	0x3d07d85f	0.033165332
185	0xbd727cf2	-0.05920119
186	0x3c946246	0.018113267
187	0xbd9e1458	-0.07718724
188	0x3d863eb9	0.06554932
189	0x3d799fc9	0.0609434
190	0xbbad4f39	-0.005288985
191	0x3d8e37ec	0.0694426
192	0x3d09a5ad	0.033605266
193	0xbdb2e943	-0.087358974
194	0xbd919eaf	-0.071103446
195	0xbca3c22b	-0.019990047
196	0x3d338f02	0.043837555
197	0xbd7ed6d1	-0.062216584
198	0xbb0bd51a	-0.0021336735
199	0xbd7ca675	-0.061682183
200	0xbda91dca	-0.08257635
201	0xbd5ecb75	-0.05439325
202	0x3d8e2dca	0.06942327
203	0x3d81b88d	0.063340284
204	0x3d1265fa	0.035741784
205	0xbd5a4aa2	-0.05329383
206	0xbcb621c9	-0.022232907
207	0x3be6fbfe	0.007049083
208	0x3d37c67f	0.044867035
209	0x3cec440d	0.028841043
210	0xbb90abbb	-0.004415003
211	0x3d9478ab	0.07249578
212	0xbd342dc7	-0.04398897
213	0xbd5242b4	-0.051333144
214	0x3cdb3992	0.02676085
215	0x3d7d1041	0.06178308
216	0xbd598138	-0.05310175
217	0xbd539be6	-0.05166235
218	0x3be8bf2d	0.007102868
219	0xbd20b725	-0.03923716
220	0x3d964cbd	0.073388554
221	0xbc2aaa84	-0.010416631
222	0xbcbf9dcb	-0.023390671
223	0x3c64f60c	0.013974678
224	0xbd3f5c17	-0.046718683
225	0x3d87e2ef	0.06635081
226	0xbd09a597	-0.033605184
227	0x3d93bda5	0.07213906
228	0x3c1e0b89	0.009646305
229	0xbc92431d	-0.017854268
230	0xbd368a85	-0.044565696
231	0xbd843bc9	-0.064567156
232	0x3c0a9f74	0.008460868
233	0xbda9ca04	-0.082904845
234	0x3daf972e	0.08573757
235	0xbd8194d3	-0.06327214
236	0xbc734aa8	-0.014849342
237	0xbcd115a8	-0.025523022
238	0x3d0ee5eb	0.034887236
239	0x3d740a9c	0.05958043
240	0xbc78d163	-0.01518664
241	0xbd673aa6	-0.056452416
242	0x3d98910a	0.07449539
243	0x3d1209cd	0.035653878
244	0xbd04f078	-0.03245589
245	0xbd1aabdf	-0.037761565
246	0x3d9c31c3	0.07626679
247	0xbc84f149	-0.016228335
248	0xbdc7ef04	-0.097623855
249	0x3ce7303b	0.02822124
250	0xbd076c47	-0.033062246
251	0x3cadc2d7	0.021211071
252	0xbce5dff2	-0.028060887
253	0x3d074860	0.033028007
254	0xbd4036da	-0.04692731
255	0xbd409488	-0.04701665

lstm1.bias_ih_l0 f4 [512]
0	0xbd235ec3	-0.039885294
1	0xbd086db7	-0.033307757
2	0xbd18ea94	-0.037333086
3	0x3c1f3be9	0.009718874
4	0x3d47cd1f	0.048779603
5	0xbdad03e4	-0.08448008
6	0x3dba191a	0.09086819
7	0x3c9c0b55	0.019048372
8	0x3d6b3bec	0.057430193
9	0xbd21479d	-0.039374936
10	0x3d4f866f	0.050665315
11	0xbdc3a065	-0.09552077
12	0x3cdf58b6	0.02726398
13	0x3d397ba3	0.045283925
14	0x3d7d501d	0.06184398
15	0x3d3780be	0.044800512
16	0xbd29f5cf	-0.041494187
17	0xbd3cbfa7	-0.04608121
18	0x3c3f2a9d	0.011667875
19	0xbd489296	-0.04896792
20	0x3d48706e	0.048935346
21	0x3d56d61e	0.05245029
22	0x3d055393	0.032550406
23	0x3cedde99	0.029036807
24	0xbdba0b44	-0.0908418
25	0x3c1d4c94	0.009600777
26	0xbd3d54cb	-0.046223443
27	0xbc62ab99	-0.013834857
28	0x3d1a5e70	0.03768772
29	0x3d10c361	0.035342578
30	0xbce18b8b	-0.02753236
31	0xbd9c3984	-0.07628158
32	0x3c51a47f	0.012795567
33	0xbd2a016a	-0.041505255
34	0xbdb36eca	-0.08761366
35	0x3c0bdbe9	0.008536317
36	0x3d0192e5	0.03163423
37	0x3b32b408	0.0027267952
38	0xbd20621d	-0.039156068
39	0x3ca8f045	0.020622382
40	0x3d9c7409	0.076393194
41	0x3cb67e91	0.022277148
42	0xbcb3abd0	-0.021932513
43	0xbd107fc2	-0.03527809
44	0xbd11cca8	-0.035595566
45	0x3ccd07f8	0.025028214
46	0x3d382306	0.044955276
47	0x3d21ddeb	0.039518278
48	0x3d7ca196	0.061677538
49	0x3d332834	0.043739513
50	0x3cbd4886	0.023105871
51	0xbc191b8e	-0.009344948
52	0xbdb0e0b0	-0.08636606
53	0x3cafe98e	0.021473672
54	0x3bff2e79	0.0077875224
55	0x3d838e16	0.06423585
56	0xbd62479c	-0.055244073
57	0x3d69ab03	0.057047855
58	0xbc6ba0db	-0.014381613
59	0xbd91f611	-0.071270116
60	0x3d1d13f1	0.038349096
61	0x3d480341	0.04883123
62	0xba1f5216	-0.00060776004
63	0x3d91bbdd	0.0711591
64	0x3dbaf049	0.09127862
65	0xbc81b74a	-0.01583447
66	0xbd814df6	-0.06313698
67	0x3d8d5d3c	0.06902549
68	0x3d3b1bfe	0.045680992
69	0x3da7eb2f	0.081991546
70	0x3da08ba5	0.07839135
71	0xbd55c9ce	-0.05219441
72	0x3d3c6323	0.04599298
73	0x3bd6476c	0.006539276
74	0x3d637827	0.055534508
75	0x3cac09fb	0.021000853
76	0xbdcb14a5	-0.09916047
77	0x3b9ccb5e	0.0047849854
78	0xbca53cfb	-0.02017068
79	0x3d202be4	0.039104357
80	0x3cd68f65	0.026191423
81	0xbdb7f654	-0.0898253
82	0xbd870a68	-0.06593782
83	0x3c18177d	0.009282944
84	0x3d3f9f29	0.046782646
85	0xbd0e16b9	-0.03468964
86	0xbdd1915e	-0.10232805
87	0xba528934	-0.0008031309
88	0x3a52d04c	0.0008041903
89	0xbc380fea	-0.011234263
90	0xbdab7815	-0.08372513
91	0xbd986855	-0.07441775
92	0x3c4461a5	0.011986171
93	0xbc19e96a	-0.009394029
94	0xbc5db188	-0.013531096
95	0xbbca7d7a	-0.0061795088
96	0x3cfd46f5	0.030917624
97	0x3cfadcf5	0.030622939
98	0xbc8a8b35	-0.016912082
99	0xbd4f15d0	-0.05055791
100	0xbd56ce54	-0.052442864
101	0xbd008fb2	-0.03138704
102	0x3ccdc5fa	0.025118817
103	0xbd8d2175	-0.06891147
104	0xbd991544	-0.07474759
105	0xbd867a81	-0.065663345
106	0x3cb32717	0.021869225
107	0xbd28705a	-0.04112277
108	0x3cad3f31	0.021148296
109	0xbd7d9b43	-0.061915647
110	0xbd86ef2b	-0.065885864
111	0xbd95d6d9	-0.073163696
112	0x3c847f64	0.016174026
113	0x3d20ba5a	0.03924022
114	0x3cc692bc	0.02423989
115	0xbd1ee13f	-0.03878903
116	0xbdbdcaf8	-0.09267229
117	0x3ca21b17	0.019788308
118	0x3cf43de5	0.02981467
119	0x3c659a91	0.014013902
120	0xbd86335e	-0.06552766
121	0xbdc4827f	-0.09595203
122	0x3d4686f9	0.048468564
123	0xbc9cf9de	-0.019162115
124	0x3d15bb56	0.03655561
125	0xbda1d6fa	-0.07902332
126	0x3d0fe523	0.03513063
127	0xbd26c1d3	-0.04071219
128	0xbb8adbba	-0.004237619
129	0xbd1e46cc	-0.038641736
130	0xbd87960b	-0.06620415
131	0xbd641c4b	-0.055691045
132	0xbd2f1f6d	-0.04275458
133	0x3d76535f	0.060138103
134	0x3c97c6c4	0.018527396
135	0xbd4cf73c	-0.05004047
136	0x3cc236ca	0.023707766
137	0x3d93373c	0.071882695
138	0x3d0d7539	0.03453562
139	0x3c92d966	0.01792593
140	0xbdf41ed9	-0.11919946
141	0xbb9cfd42	-0.004790933
142	0xbcc2abf6	-0.023763638
143	0x3c8b265e	0.016986068
144	0xbd895756	-0.06706111
145	0x3d952973	0.072832964
146	0xbd875707	-0.06608396
147	0x3dca7e69	0.09887392
148	0xbdb08d27	-0.08620673
149	0x3d8d1b1e	0.06889938
150	0x3dbbd709	0.09171874
151	0xbc72c5d8	-0.014817677
152	0xbd8447b6	-0.0645899
153	0xbd7aebfe	-0.061260216
154	0x3ba6b3f7	0.0050873714
155	0x3ce456ff	0.027873514
156	0x3d335084	0.043777958
157	0x3c78af01	0.015178443
158	0xbd87d2d2	-0.06632008
159	0xbd5f9e29	-0.054594193
160	0x3d156659	0.03647456
161	0xbd7044f4	-0.05865951
162	0x3d033e05	0.03204157
163	0xbd61e124	-0.05514635
164	0x3ddd85d4	0.10816541
165	0xbd925f4c	-0.07147083
166	0xbd27b57e	-0.04094457
167	0x3cf377dd	0.029720241
168	0xbda47981	-0.080309875
169	0xbdc619ac	-0.09672865
170	0x3da85512	0.08219351
171	0xbb1be11b	-0.0023785296
172	0x3d1e1295	0.03859194
173	0xbd440594	-0.047856882
174	0x3cbb0cd7	0.022833271
175	0x3c562a98	0.013071679
176	0x3cc05d56	0.023482006
177	0x3d155a3e	0.036463015
178	0x3d18abdd	0.037273277
179	0xbcba9c3f	-0.022779582
180	0x3d4cfc58	0.05004534
181	0x3d411987	0.047143485
182	0x3d3bdc45	0.045864362
183	0xbd9f1163	-0.07766988
184	0xbce1c703	-0.027560716
185	0xbc302ec6	-0.010753339
186	0x39834297	0.0002503588
187	0xbdb636d4	-0.088971764
188	0xbdabb598	-0.08384246
189	0xbc60c483	-0.013718727
190	0x3d327c65	0.043575663
191	0xbcc520f0	-0.024063557
192	0x3cba282a	0.02272423
193	0xbc0f39aa	-0.0087417755
194	0x3d120fce	0.035659604
195	0xbcf1542c	-0.029459082
196	0xbce4b24b	-0.027917048
197	0xbbf5871e	-0.007492914
198	0xbd2fb194	-0.04289396
199	0x3d518d2b	0.05116002
200	0x3d9bdbf6	0.076103136
201	0x3d03a93a	0.03214381
202	0x3d4dadad	0.05021446
203	0xbd6f1a50	-0.058374703
204	0x3d720f37	0.05909654
205	0x3d481527	0.048848297
206	0xbbc2c017	-0.005943309
207	0xbd714135	-0.058900077
208	0xbd4219de	-0.04738795
209	0x3d01576b	0.03157751
210	0xbd7c61ff	-0.061616894
211	0xbd16b70c	-0.03679566
212	0xbd9a3f60	-0.07531619
213	0x3d4d1c59	0.050075863
214	0x3d15e9a5	0.036599774
215	0xbd4e24d7	-0.050328102
216	0x3d8da2b2	0.06915797
217	0xbd03b0ed	-0.03215115
218	0xbd8593e0	-0.065223455
219	0xbd7f2e1b	-0.06229983
220	0x3d822d6b	0.06356319
221	0x3d06cf46	0.032912515
222	0x3d7926b5	0.06082793
223	0x3c2b8ce2	0.010470601
224	0x3d0449e9	0.03229705
225	0xbda8987d	-0.0823221
226	0x3d971e6a	0.07378848
227	0x3d54ba46	0.051935457
228	0x3d45aa59	0.04825816
229	0xbd267008	-0.040634185
230	0x3c505a72	0.012716876
231	0x3c6ec821	0.014574082
232	0x3d295646	0.041342042
233	0x3ce13a1f	0.027493535
234	0x3d968ba1	0.07350851
235	0xbd74c13d	-0.0597546
236	0xbd6b9045	-0.057510633
237	0xbdaec8c7	-0.08534389
238	0x3c3e5b19	0.011618399
239	0xbd9e4ed1	-0.07729877
240	0x3bd6b884	0.0065527577
241	0xbc8e6b9c	-0.017385297
242	0xbdbdf334	-0.09274903
243	0x3dcd1ca8	0.10015231
244	0x3ced9da0	0.029005826
245	0xbd985991	-0.074389584
246	0x3d0f2f77	0.034957375
247	0xbd9aa0cf	-0.07550203
248	0xbd84f3d0	-0.06491816
249	0x3d83ded4	0.064389855
250	0x3d6e1b5d	0.058131564
251	0x3cc7e2f9	0.024400221
252	0x3d90f45c	0.07077858
253	0xbd51bea0	-0.051207185
254	0xbc96e122	-0.018417899
255	0x3d721c22	0.05910886

lstm1.bias_hh_l0 f4 [512]
0	0x3be385d1	0.0069434424
1	0x3d8803be	0.06641339
2	0xbd9de323	-0.077093385
3	0xbdabf46b	-0.083962284
4	0xbd177b09	-0.03698257
5	0xbd562e65	-0.05229034
6	0xbd2ec9ac	-0.042672798
7	0x3d88a103	0.066713355
8	0xbd1adf2f	-0.0378105
9	0x3d9c3b0b	0.07628449
10	0x3d8ebf12	0.069700375
11	0xbd023327	-0.031787064
12	0x3c33d659	0.010976397
13	0xbd37c4b6	-0.044865333
14	0x3cf139be	0.029446479
15	0xbd173bf6	-0.036922418
16	0xbdb8949a	-0.090127185
17	0x3c826d6b	0.015921315
18	0x3cddf226	0.027093004
19	0xbd633b96	-0.055476747
20	0x3c04aa11	0.008097188
21	0xbd899da6	-0.06719522
22	0x3be60cad	0.007020554
23	0xbd87e6b4	-0.066358
24	0x3d46b6df	0.048514243
25	0x3d9d592f	0.07683026
26	0x3d249a7f	0.0401864
27	0xbdad530b	-0.08463105
28	0x3d01f85c	0.031730995
29	0x3d4627a1	0.048377637
30	0xbc0a99c9	-0.008459517
31	0xbc8797ab	-0.016551813
32	0xbba53368	-0.0050415285
33	0x3d9b8b2e	0.07594906
34	0xbd874ed6	-0.06606834
35	0xbd2b8a48	-0.041879922
36	0x3a830afe	0.0009997783
37	0x3d30625c	0.043062553
38	0xbd590d0b	-0.052990954
39	0xbd63c602	-0.055608757
40	0xbd5590fd	-0.052140225
41	0xbd652c98	-0.05595073
42	0xbd81ca8b	-0.0633746
43	0x3c4ef3ba	0.012631351
44	0xbc7365c5	-0.014855807
45	0x3d4af949	0.049554143
46	0x3d41e85c	0.047340736
47	0xbad2ad9b	-0.0016073467
48	0x3d313535	0.043263633
49	0x3bf60e2a	0.0075090127
50	0x3d8a0064	0.06738356
51	0xbd244d82	-0.04011298
52	0x3c27d2e9	0.010243156
53	0xbd494a57	-0.04914316
54	0x3d7909c0	0.060800314
55	0x3cdf2eea	0.02724405
56	0x3ce68653	0.028140223
57	0x3d2c39e1	0.042047385
58	0x3bc497cd	0.0059995414
59	0x3cffe6a2	0.031237904
60	0x3d3d7363	0.04625262
61	0xbb573c72	-0.0032842425
62	0x3cb63e74	0.022246577
63	0xbd64ad01	-0.055829052
64	0x3d5328f9	0.051552746
65	0xbdc15005	-0.09439091
66	0xbd2b5a1c	-0.041833982
67	0x3d96db8e	0.073660955
68	0xbdc441b4	-0.095828444
69	0xbad23894	-0.001603859
70	0x3d1e1bcc	0.038600728
71	0x3d840439	0.06446118
72	0x3d24d58f	0.040242728
73	0xbdbd1573	-0.09232607
74	0xbceb70b0	-0.028740257
75	0x3d2d11ae	0.04225319
76	0xbc7fdb32	-0.015616225
77	0xbd5eca26	-0.054392003
78	0xbcf66304	-0.030076511
79	0xbc2d98e9	-0.010595539
80	0xbd92046b	-0.07129749
81	0xbd234a72	-0.03986592
82	0x3c2f5264	0.010700796
83	0x3d9ef26f	0.07761084
84	0xbdc188bc	-0.09449908
85	0xbd78fc36	-0.060787402
86	0x3cc69041	0.024238707
87	0x3b6875ae	0.0035470533
88	0xb9fe1c28	-0.00048467633
89	0x3d08b878	0.033379048
90	0xbdd0a3c2	-0.10187484
91	0xbd2a5b9b	-0.041591268
92	0xbc343f30	-0.011001393
93	0x3d5fcba4	0.054637566
94	0xbd111442	-0.03541971
95	0xbc22eb23	-0.009943756
96	0x3d3c6d79	0.04600284
97	0xbd8ce590	-0.06879723
98	0xbd5204a6	-0.051273964
99	0x3d3dfc9b	0.04638348
100	0x3c9b479f	0.01895505
101	0x3c27272a	0.0102022085
102	0x3bf93436	0.007605101
103	0xbd90d9a2	-0.0707276
104	0x3c8fb2a8	0.017541245
105	0xbc80f3af	-0.015741197
106	0xbc6493ea	-0.013951281
107	0xbcaa6b3d	-0.020803088
108	0xbd1f00cf	-0.03881913
109	0x3d988eac	0.074490875
110	0x3d383bc5	0.044978876
111	0xbd8afdd9	-0.06786699
112	0x3c5dfb3f	0.013548671
113	0x3d40365c	0.04692684
114	0x3d676d62	0.0565008
115	0xbd31f430	-0.043445766
116	0xbd9e4449	-0.07727868
117	0x3c2d53fe	0.010579107
118	0xbdaf9807	-0.08573919
119	0xbdb9d5b2	-0.09073962
120	0x3c8ff917	0.01757483
121	0x3cd02c08	0.02541162
122	0x3d9ccd5f	0.07656359
123	0x3d849843	0.06474354
124	0xbd9e07c2	-0.077163234
125	0xbc845ae3	-0.01615662
126	0x3d5a2782	0.053260334
127	0x3d458337	0.04822084
128	0x3d3d48c6	0.04621198
129	0x3d7f188e	0.062279277
130	0xbcd06981	-0.025440933
131	0x3d238a50	0.039926827
132	0xbdc1edf3	-0.09469213
133	0x3d26b7aa	0.0407025
134	0x3d2260c0	0.03964305
135	0xbc9f17ba	-0.019420493
136	0xbd88af34	-0.06674042
137	0xbd5bf43d	-0.05369972
138	0xbd56cddc	-0.052442417
139	0x3b4a4b15	0.0030867506
140	0x3ca84aed	0.02054354
141	0x3c433239	0.0119138295
142	0xbc977cea	-0.01849218
143	0x3d8b9db8	0.06817192
144	0x3ccc6891	0.024952205
145	0x3cf9f8c6	0.030514132
146	0x3ce3ba12	0.027798686
147	0x3d59ce02	0.05317498
148	0x3d8f787e	0.07005404
149	0x3da40f45	0.08010725
150	0x3da3380a	0.07969673
151	0xbb0342d5	-0.0020028849
152	0xbce4c2d6	-0.027924936
153	0x3c11ba79	0.008894556
154	0x3c41cdcd	0.011828852
155	0xbda5301d	-0.080658175
156	0x3d529b99	0.05141792
157	0x3ca173e2	0.019708578
158	0x3d74e39e	0.059787385
159	0xbdbbe552	-0.09174599
160	0x3d472356	0.048617683
161	0xbda4af72	-0.08041276
162	0x3db2db3f	0.08733224
163	0xbd8dd759	-0.0692584
164	0xbc2a2fdb	-0.010387386
165	0xbcccb32e	-0.024987783
166	0xbd14a088	-0.036285907
167	0x3d6cd3df	0.057819244
168	0xbadc5c04	-0.0016812091
169	0xbd47c706	-0.048773788
170	0xbcd6aac6	-0.026204478
171	0xbcc4dea9	-0.024031954
172	0x3d891291	0.066929944
173	0x3c0253ef	0.007954582
174	0xbd987dcb	-0.07445868
175	0x3db2ace3	0.08724382
176	0x3d16cee2	0.036818393
177	0x3d364e54	0.044508293
178	0xbd48c9b3	-0.04902048
179	0xbcc2cf15	-0.023780385
180	0xbd0833e4	-0.03325261
181	0xbc5114ad	-0.012761277
182	0x3d08056c	0.033208296
183	0x3d1c7630	0.03819865
184	0xbcabbae2	-0.020963136
185	0x3db3a934	0.08772507
186	0x3d1e9028	0.038711697
187	0x3d362b8e	0.04447513
188	0x3d8a1872	0.06742944
189	0xba37e31a	-0.0007014737
190	0x3d80ac3c	0.06282851
191	0xbd81c918	-0.06337184
192	0xbbbe3bde	-0.0058054766
193	0xbdab6611	-0.08369077
194	0xbd52b2a3	-0.051439893
195	0x3c303db0	0.010756895
196	0xbcabfff9	-0.02099608
197	0xbc63488c	-0.013872277
198	0x3d0cce2a	0.0343763
199	0xbd43eaca	-0.047831334
200	0xbb6e0b3e	-0.0036322619
201	0x3dac5c2e	0.084160194
202	0xbd755ea2	-0.059904702
203	0xbcdf1476	-0.027231436
204	0xbd481cf6	-0.048855744
205	0x3d65a7d4	0.056068256
206	0xbccfb0f3	-0.02535293
207	0xbd770769	-0.0603098
208	0xbd784e22	-0.06062139
209	0xbb11c022	-0.0022239764
210	0x3d5691b1	0.052385036
211	0x3c4efceb	0.0126335425
212	0xbcffbe5c	-0.0312187
213	0x3cb4b84e	0.02206054
214	0x3c9439af	0.018093912
215	0xbd6f24e0	-0.058384776
216	0xbdb6bac9	-0.08922345
217	0xbd8fd323	-0.07022693
218	0x3d35bf7e	0.044372074
219	0x3db4db5a	0.088309005
220	0xbd8bb40d	-0.06821451
221	0x3d09700e	0.03355413
222	0x3d9bbb9f	0.07604145
223	0xbd4f3dc9	-0.050596032
224	0xbd272596	-0.04080733
225	0x3d2d1e7a	0.042265393
226	0xbcae8a6f	-0.021306245
227	0x3d71a8ca	0.05899886
228	0x3d09ac0d	0.033611346
229	0x3d854c93	0.06508746
230	0x3d8f0774	0.069838434
231	0xbd823fda	-0.06359835
232	0x3d82714a	0.063692644
233	0x3d74c0ba	0.05975411
234	0x3c8247f0	0.015903443
235	0x3de33ba5	0.11095361
236	0x3d5f8cae	0.054577522
237	0xbd091827	-0.0334703
238	0x3db99c7b	0.090630494
239	0x3d5be241	0.05368257
240	0xbd537344	-0.051623598
241	0xbd9839f9	-0.074329324
242	0xbd6d8523	-0.057988297
243	0x3d08a131	0.03335685
244	0xbcc8ef15	-0.024528066
245	0x3cb002e3	0.021485751
246	0x3d525827	0.0513536
247	0xbd64db40	-0.055873156
248	0x3c2871a6	0.010281002
249	0xbce5dee9	-0.028060393
250	0xbc8be18d	-0.017075324
251	0x3d9cfca2	0.076653734
252	0x3c8cc647	0.01718439
253	0xbd151d24	-0.036404744
254	0xbd1be391	-0.03805882
255	0xbc9a4c54	-0.018835224

bn1.weight f4 [128]
0	0x3f824132	1.0176146
1	0x3f7e9e1a	0.99459994
2	0x3f81d75b	1.0143846
3	0x3f7f1e15	0.99655277
4	0x3f80a428	1.0050097
5	0x3f7fa9bd	0.99868375
6	0x3f8035db	1.0016435
7	0x3f7f14e8	0.99641275
8	0x3f7e1c58	0.99262
9	0x3f81fa87	1.015458
10	0x3f79b64d	0.97543794
11	0x3f7d4f9e	0.9894961
12	0x3f7ef337	0.99589866
13	0x3f7aedd7	0.98019165
14	0x3f7d3716	0.9891218
15	0x3f803abe	1.0017927
16	0x3f7eb55c	0.9949548
17	0x3f8087f2	1.0041487
18	0x3f81d904	1.0144353
19	0x3f7c9ec6	0.9867977
20	0x3f7ed94c	0.9955032
21	0x3f80b178	1.0054159
22	0x3f7dc169	0.99123245
23	0x3f8035b4	1.0016389
24	0x3f7cc47d	0.9873732
25	0x3f7df298	0.99198294
26	0x3f8227ba	1.0168374
27	0x3f82529f	1.0181464
28	0x3f7cdd2b	0.98774976
29	0x3f8192fe	1.0122983
30	0x3f815b88	1.0106058
31	0x3f7fd308	0.99931383
32	0x3f804945	1.002236
33	0x3f7fe30b	0.99955815
34	0x3f7e06aa	0.9922892
35	0x3f7be92a	0.98402655
36	0x3f809a37	1.0047063
37	0x3f807c23	1.0037884
38	0x3f7c9816	0.98669565
39	0x3f845458	1.033824
40	0x3f806ae4	1.003262
41	0x3f7c6a4a	0.98599684
42	0x3f835c8a	1.0262616
43	0x3f7ffa63	0.99991435
44	0x3f7b8ad8	0.98258734
45	0x3f8208b5	1.0158907
46	0x3f7bfa12	0.9842845
47	0x3f80c5a7	1.0060319
48	0x3f7d35ee	0.98910415
49	0x3f81237d	1.0088955
50	0x3f794725	0.9737418
51	0x3f7f7105	0.9978183
52	0x3f81240e	1.0089128
53	0x3f80faf1	1.0076581
54	0x3f808998	1.004199
55	0x3f8134ec	1.0094275
56	0x3f7ccf1c	0.98753524
57	0x3f82ab3a	1.0208504
58	0x3f7835ed	0.96957284
59	0x3f80a822	1.005131
60	0x3f7b2e0e	0.9811715
61	0x3f7e9724	0.9944937
62	0x3f8197e3	1.0124477
63	0x3f80c1ef	1.0059184
64	0x3f7b847c	0.9824903
65	0x3f7fc262	0.9990598
66	0x3f8012b8	1.0005713
67	0x3f80024c	1.0000701
68	0x3f800c72	1.0003798
69	0x3f7fd1be	0.99929416
70	0x3f817778	1.0114584
71	0x3f80c278	1.0059347
72	0x3f8071f7	1.0034779
73	0x3f7b6911	0.98207194
74	0x3f81fbf4	1.0155015
75	0x3f8180b0	1.0117397
76	0x3f81d59a	1.0143311
77	0x3f80fff0	1.0078106
78	0x3f7e1bba	0.9926106
79	0x3f799554	0.9749348
80	0x3f7d782d	0.990115
81	0x3f7cc0c3	0.9873163
82	0x3f7de0e3	0.99171275
83	0x3f7d5acc	0.9896667
84	0x3f814970	1.0100536
85	0x3f81090f	1.008089
86	0x3f7fd63b	0.99936265
87	0x3f76be7f	0.96384424
88	0x3f782845	0.96936446
89	0x3f7be57f	0.9839706
90	0x3f838c41	1.0277177
91	0x3f7dec4a	0.99188673
92	0x3f78b3b3	0.971492
93	0x3f7d1bfe	0.9887084
94	0x3f817fec	1.0117164
95	0x3f806d83	1.003342
96	0x3f81008a	1.007829
97	0x3f7b2ecf	0.981183
98	0x3f80a66f	1.0050792
99	0x3f7bf5fe	0.9842223
100	0x3f7d36c8	0.98911715
101	0x3f813bbf	1.0096358
102	0x3f7c7519	0.98616177
103	0x3f8163b8	1.0108557
104	0x3f7ebb37	0.9950442
105	0x3f81372c	1.0094962
106	0x3f7f0f94	0.99633145
107	0x3f8228ce	1.0168703
108	0x3f7f527a	0.99735224
109	0x3f7b500d	0.9816902
110	0x3f80cb2d	1.0062004
111	0x3f7f7356	0.99785364
112	0x3f7eb94a	0.9950148
113	0x3f8009c7	1.0002984
114	0x3f7f0432	0.99615777
115	0x3f7c96cf	0.98667616
116	0x3f7b7c76	0.9823679
117	0x3f7db240	0.9910011
118	0x3f7ffe2a	0.999972
119	0x3f810020	1.0078163
120	0x3f7d37fa	0.9891354
121	0x3f800e9e	1.0004461
122	0x3f81a041	1.0127031
123	0x3f7c92c9	0.98661476
124	0x3f7a4a11	0.97769266
125	0x3f7e1313	0.99247855
126	0x3f810019	1.0078155
127	0x3f7e9d98	0.9945922

bn1.bias f4 [128]
0	0xbc3602c9	-0.0111090625
1	0x3c8f377f	0.017482517
2	0xbbacf29a	-0.005277944
3	0x3c96c145	0.018402705
4	0xbb9e3cb0	-0.004829012
5	0x3a07c3ba	0.0005179007
6	0xbbcf8aba	-0.006333676
7	0xbcde57ba	-0.02714144
8	0x3c30f7b8	0.010801248
9	0xbcd2d4f6	-0.025736313
10	0xbb481d36	-0.003053499
11	0xbbb91d76	-0.005649264
12	0xbb185aa1	-0.0023247378
13	0x3c2bd06e	0.010486705
14	0x3b24b571	0.0025132562
15	0xbc8678b7	-0.016414983
16	0x3b52f423	0.0032188974
17	0x3bfabb14	0.007651696
18	0x3c8d6603	0.017260557
19	0x3c926602	0.017870907
20	0x3c7b0d1b	0.015322949
21	0x3bc63ae1	0.0060494994
22	0xbc2e024b	-0.010620664
23	0xbc52148f	-0.012822284
24	0x3cd44e88	0.025916353
25	0x3a6db786	0.00090681796
26	0xbc909dab	-0.017653307
27	0xbcbbd965	-0.02293081
28	0xba9e3449	-0.0012070026
29	0xbb84b8a2	-0.0040503303
30	0xbbb818a4	-0.0056181718
31	0x3a73fc96	0.00093073526
32	0x3cca9947	0.024731291
33	0xbb184dd2	-0.0023239744
34	0xbb231ec1	-0.0024890157
35	0x3c62a955	0.013834317
36	0x3c2e827b	0.010651226
37	0x3b7c07d7	0.0038456821
38	0x3c6dc012	0.014511125
39	0xbbebc018	-0.00719453
40	0xbb1bc758	-0.0023769941
41	0x3c903149	0.017601626
42	0x3c854b2f	0.016271202
43	0xbc1c4f62	-0.009540411
44	0xbb1cb1d1	-0.0023909698
45	0x3cdbc341	0.026826503
46	0x3c452752	0.0120333005
47	0xbc318919	-0.010835909
48	0x3b072a0e	0.0020624432
49	0xbc57b44f	-0.0131655475
50	0x3c87baae	0.016568508
51	0xbbb2622b	-0.0054438314
52	0x3d243e8d	0.040098716
53	0x3c145da9	0.009055533
54	0xbc016fdc	-0.0079002045
55	0xbb897d2c	-0.00419583
56	0xbc09b13d	-0.008404073
57	0x3ba1548c	0.004923409
58	0xbc7be877	-0.015375248
59	0x3a8957d2	0.0010478443
60	0x3c85c237	0.01632796
61	0x3cdfb796	0.02730922
62	0x3c3cc4f7	0.011521569
63	0xbbfef2db	-0.0077804155
64	0xbbd40706	-0.006470564
65	0xbc501d18	-0.012702249
66	0x3c2c4d70	0.010516509
67	0x3c523252	0.01282938
68	0xbc1cfe1d	-0.00958207
69	0x3cae00f4	0.021240689
70	0x3c4f394c	0.012647938
71	0x3c590190	0.013245001
72	0x3c8a18eb	0.016857585
73	0x3c9e4ccb	0.019323727
74	0xbca1b97a	-0.019741762
75	0x3c820f49	0.01587643
76	0x3c2971ad	0.010342044
77	0xbbbb1d87	-0.005710307
78	0xbca054f1	-0.019571753
79	0xbc3a836b	-0.011383872
80	0x3cd06a2d	0.025441254
81	0x3c7b5d23	0.01534203
82	0xbc87f780	-0.01659751
83	0x38f76edb	0.00011798526
84	0x3c90b414	0.017663993
85	0x3cbff095	0.023430148
86	0xbc83e194	-0.016098775
87	0x3b8ca1d9	0.0042917547
88	0x3c13c981	0.00902021
89	0x3b3ae966	0.0028520464
90	0xbcadfe69	-0.021239476
91	0x3c0b3da1	0.00849858
92	0xbb0ca831	-0.0021462555
93	0x3c05bcfc	0.008162733
94	0x3c7f8d36	0.015597632
95	0x3caec046	0.021331917
96	0xbcacf83f	-0.021114467
97	0x3cb47391	0.022027763
98	0xbc46354b	-0.012097667
99	0x3c216e9d	0.009853032
100	0xbbd77739	-0.0065754917
101	0xbc0802bc	-0.008301433
102	0x3be3563e	0.006937771
103	0xbca19ec2	-0.019729022
104	0xbc91189d	-0.017711932
105	0x3c912fca	0.017722983
106	0xbc7edfd3	-0.015556294
107	0x3ad98c1a	0.001659754
108	0xbb6d13e6	-0.003617519
109	0x38484100	4.774425e-05
110	0x3b60b6e8	0.0034288708
111	0x3b02fa15	0.0019985486
112	0x3c4c9a4e	0.012487961
113	0x3c64d316	0.013966342
114	0xbb25f4a9	-0.002532283
115	0x3c863525	0.016382763
116	0xbc8bf71f	-0.01708561
117	0xbc1e242c	-0.009652179
118	0xba8c03b8	-0.0010682261
119	0x3c2e0a2f	0.010622545
120	0xbc31f820	-0.01086238
121	0xbbde83d9	-0.00679062
122	0xba9d0cd0	-0.0011981968
123	0x3b93c7c0	0.004509896
124	0x3c117e9d	0.008880285
125	0xbcdf8fc2	-0.027290229
126	0xbabbcd57	-0.0014328164
127	0xbbd6f867	-0.0065603736

bn1.running_mean f4 [128]
0	0xbd5868da	-0.05283437
1	0xbcb0443a	-0.021516908
2	0x3c5d89a5	0.013521587
3	0xbd42a2a9	-0.047518406
4	0x3c2d2380	0.010567546
5	0xbb77457d	-0.0037730627
6	0x3d90297c	0.070391625
7	0xbd3aec98	-0.04563579
8	0x3d3b09a3	0.045663487
9	0x3d6108d2	0.054940052
10	0x3ddf7563	0.109110616
11	0xbd03cf9c	-0.032180414
12	0xbcc78d48	-0.02435936
13	0xbc250b98	-0.010073565
14	0xbcf1610c	-0.02946522
15	0x3c8a1f8e	0.01686075
16	0xbccd54fa	-0.025064934
17	0x3c9ac2bd	0.018891687
18	0xbcbf6143	-0.023361808
19	0xbdb1aea8	-0.08675891
20	0xbc3abad7	-0.011397085
21	0xbd3861c0	-0.045015097
22	0x3dc89c30	0.097954154
23	0x3d9b4a4e	0.07582532
24	0xbb3a2006	-0.0028400435
25	0x3e070483	0.13185315
26	0xbcffff9c	-0.031249814
27	0x3d5928d8	0.053017467
28	0x3d52d156	0.05146917
29	0x3c6404ce	0.013917161
30	0x3dd614a1	0.104531534
31	0xbb93c7e7	-0.004509914
32	0xbd82c499	-0.06385154
33	0x3d102f4e	0.035201363
34	0xbd944daa	-0.07241376
35	0xbc9d8085	-0.019226322
36	0x3de287c1	0.11061049
37	0x3cfe39f4	0.031033494
38	0x3cbfbd4a	0.02340569
39	0x3d547bdb	0.05187593
40	0x3de635e4	0.112407476
41	0xbd3ba820	-0.045814633
42	0xbdb8411d	-0.089967944
43	0x3d362194	0.044465616
44	0x3bf8014d	0.0075685144
45	0xbd8669f5	-0.065631784
46	0xbddefe76	-0.10888378
47	0x3d2e5a27	0.042566445
48	0xbbb5fca5	-0.005553799
49	0xbe0e105e	-0.13873431
50	0x3d443532	0.047902294
51	0xbd85edf4	-0.065395266
52	0xbcb698b1	-0.022289606
53	0xbd0d65a2	-0.034520753
54	0xbd50b868	-0.050957114
55	0x3c19802f	0.00936894
56	0xbcad4604	-0.02115155
57	0xbdacd601	-0.084392555
58	0xbccb2164	-0.024796195
59	0xbb9e7df7	-0.0048367935
60	0x3cb03ecf	0.021514324
61	0xbd764f4f	-0.06013423
62	0xbd620a3e	-0.05518555
63	0x3ce4c7dd	0.027927333
64	0xbd0c5603	-0.034261715
65	0x3d904ee9	0.07046301
66	0xbd34fc3c	-0.044185862
67	0x3d92d061	0.07168651
68	0x3cb31d5d	0.021864587
69	0xbc4856ce	-0.012227727
70	0x3dba961b	0.091106616
71	0x3c0b1924	0.008489881
72	0xbd2dfb44	-0.042475954
73	0xb9acfb56	-0.00032993656
74	0x3b640df0	0.0034798346
75	0x3d672a5d	0.056436885
76	0x3d8048a4	0.06263855
77	0xbd19c0c5	-0.037537355
78	0x3b716e4f	0.003683943
79	0x3cb19063	0.021675294
80	0x3c4d7486	0.012539988
81	0x3e11e1ae	0.14246246
82	0xbcbd7dce	-0.023131277
83	0xbdb7b8a2	-0.08970763
84	0x3dc63e10	0.09679806
85	0xbc8ce3e6	-0.017198514
86	0x3d801324	0.06253651
87	0xbcc755c9	-0.024332898
88	0x3cda129d	0.026620204
89	0xbd4d4bd0	-0.05012113
90	0x3d488a7a	0.048960187
91	0x3dadfcf3	0.08495512
92	0xbdaaaaed	-0.08333383
93	0xbdafd859	-0.08586187
94	0xbd0d23f2	-0.03445811
95	0xbcef3106	-0.02919818
96	0xbc407989	-0.011747726
97	0xbd4ec571	-0.050481264
98	0x3d22ecd0	0.039776623
99	0xbd3519be	-0.044214003
100	0x3b8afac6	0.0042413203
101	0xbc0142f2	-0.007889496
102	0xbd3c8596	-0.046025835
103	0xbd5d93b1	-0.054095928
104	0xbc98d671	-0.018656941
105	0x3b1fc386	0.0024378016
106	0x3d6b3098	0.05741939
107	0x3d8acf38	0.06777805
108	0x3c2a380a	0.010389337
109	0xbd0135a1	-0.031545285
110	0x3ce6d435	0.02817736
111	0xb9abd6c6	-0.0003277568
112	0xbda5e65b	-0.081005774
113	0x3d3c8944	0.046029344
114	0x3cf9256e	0.030413356
115	0xbca0f0b7	-0.019646032
116	0x3ce35b50	0.027753502
117	0xbd58a718	-0.052893728
118	0x3d401555	0.046895344
119	0xbd937ac8	-0.07201153
120	0x3d8b0e92	0.067898884
121	0xbd9b4a47	-0.07582527
122	0x3cbfcf30	0.023414224
123	0x3bf3fee9	0.007446159
124	0x3d436930	0.047707736
125	0xbd31bd32	-0.04339332
126	0x3d3fc3b0	0.04681748
127	0x3dbe13dd	0.09281132

bn1.running_var f4 [128]
0	0x3a0067e6	0.00048982946
1	0x39e6408e	0.00043917116
2	0x39e394cc	0.00043407676
3	0x39a0f587	0.0003070051
4	0x3a5cc1c7	0.0008421209
5	0x3a88bedc	0.0010432857
6	0x3abc21f1	0.0014353377
7	0x3a1561dc	0.0005698481
8	0x39e9a77a	0.00044566003
9	0x39cb0ade	0.00038727274
10	0x3a001da0	0.0004887227
11	0x39ccb161	0.0003904207
12	0x38f6da1a	0.00011770819
13	0x3a8b87c5	0.0010645321
14	0x3a1f8b93	0.0006086167
15	0x393ba649	0.00017895656
16	0x3897f5f4	7.2460534e-05
17	0x39d619bf	0.00040836443
18	0x3a08fb28	0.00052254135
19	0x3a24a36b	0.00062804547
20	0x394e4c6e	0.00019674163
21	0x3abf6316	0.0014601673
22	0x3a058a3c	0.0005094146
23	0x3acbba27	0.0015543149
24	0x39fa677c	0.00047760818
25	0x3a617eab	0.0008601944
26	0x39517d3c	0.00019978447
27	0x3a284bd8	0.0006419993
28	0x3a578715	0.0008221728
29	0x3a1e0ce9	0.00060291454
30	0x3a784d43	0.0009471962
31	0x38fd63ab	0.00012082545
32	0x39e78a31	0.00044162714
33	0x3a2468e9	0.00062717363
34	0x39943cf5	0.00028274176
35	0x3a492f01	0.00076745456
36	0x3989593c	0.0002619716
37	0x39758d58	0.00023417675
38	0x395131db	0.00019950366
39	0x38d31d8f	0.0001006677
40	0x3a6b7058	0.0008981279
41	0x39d173d0	0.00039949873
42	0x3ae1d0a3	0.0017228316
43	0x3a1892e9	0.0005820231
44	0x39c7ed48	0.00038133026
45	0x39ed6ddb	0.0004528601
46	0x39835248	0.0002504757
47	0x3a2ae66e	0.0006519322
48	0x3997f6e3	0.0002898491
49	0x3a4ccb17	0.0007812245
50	0x3a7ea5e6	0.0009714052
51	0x3abde476	0.0014487642
52	0x39922bde	0.00027879974
53	0x39ac88e4	0.00032908388
54	0x3a2737bd	0.000637885
55	0x392676be	0.00015875229
56	0x3a35e12e	0.00069381564
57	0x3b04e131	0.0020275826
58	0x381b8c90	3.708579e-05
59	0x399ac4ae	0.00029519707
60	0x39edc839	0.0004535334
61	0x39a738f2	0.0003189515
62	0x39cbb914	0.0003885707
63	0x39508d6b	0.00019889108
64	0x3ae1a7ab	0.0017216107
65	0x3a682998	0.00088562956
66	0x39e9b340	0.00044574775
67	0x3a4f7e48	0.0007915241
68	0x39adf9ef	0.00033183346
69	0x398e8ee8	0.00027190824
70	0x3ad0256f	0.0015880297
71	0x3aa25778	0.0012385687
72	0x39e10132	0.00042916235
73	0x3a711e81	0.0009197966
74	0x3a03f05d	0.00050330703
75	0x38dd0d6e	0.00010540603
76	0x3a63a1dd	0.00086834823
77	0x3a0bc3af	0.00053315883
78	0x39df7340	0.00042619742
79	0x39bdf060	0.00036227982
80	0x397a0b45	0.00023846056
81	0x391251eb	0.00013954162
82	0x39b7aea1	0.0003503459
83	0x3ad663c3	0.0016356636
84	0x3a06d0bd	0.0005142799
85	0x3a32b95e	0.0006817783
86	0x39b69ca3	0.0003483045
87	0x3a37f42a	0.0007017279
88	0x39ad8a7e	0.00033100316
89	0x39ae174d	0.00033205227
90	0x3982116f	0.0002480852
91	0x39f6b05e	0.0004705218
92	0x39c724d0	0.00037983665
93	0x3a35e245	0.0006938319
94	0x3a3301d9	0.00068285834
95	0x3a605b72	0.0008558548
96	0x3a0ec8f1	0.0005446813
97	0x3a9d40a2	0.0011997411
98	0x39c5cb6e	0.00037726335
99	0x3a1690b6	0.00057436095
100	0x39c9d52a	0.00038496527
101	0x394addc6	0.00019346838
102	0x3a5d5f83	0.00084447133
103	0x3a3558a0	0.0006917808
104	0x3a0839cb	0.00051966
105	0x39348edf	0.00017219361
106	0x3a1e91ab	0.0006048928
107	0x393c9ba5	0.00017987059
108	0x39e97178	0.00044525764
109	0x3a6b15a6	0.00089677644
110	0x3aa9819c	0.0012932303
111	0x39931a78	0.00028057746
112	0x3a66c751	0.0008803504
113	0x3a0916ea	0.000522955
114	0x39065937	0.00012812471
115	0x39ae19b9	0.0003320703
116	0x3aa2d2eb	0.0012422478
117	0x3a759530	0.0009368239
118	0x3acdcb2a	0.0015700806
119	0x39dbeff9	0.0004194973
120	0x3a723d05	0.000924066
121	0x3927cd00	0.0001600273
122	0x39b3bf55	0.00034284094
123	0x3a77910a	0.0009443915
124	0x3a5b8cb2	0.0008375152
125	0x39917440	0.00027743168
126	0x39bab175	0.000356089
127	0x395e258c	0.00021185557

lstm2.weight_ih_l0 f4 [256, 128]
0	0xbdddc53f	-0.10828637
1	0x3cfef624	0.031123228
2	0x3d46d991	0.04854733
3	0xbb0b7a13	-0.0021282479
4	0xbdeeb516	-0.11655633
5	0x3b816821	0.0039491807
6	0xbcc2947e	-0.023752447
7	0x3cee7486	0.029108297
8	0xbb815c25	-0.003947752
9	0x3c8045c3	0.015658265
10	0x3d1364ca	0.03598479
11	0x3d89e0a5	0.06732301
12	0xbd84f2ea	-0.06491645
13	0x3e0307d8	0.12795961
14	0x3dc77e8d	0.097409345
15	0x3cb6df86	0.022323381
16	0xbd5306d9	-0.051520202
17	0x3ddb465c	0.10706779
18	0x3d8281f3	0.06372442
19	0xbda588a6	-0.08082704
20	0xbde67a93	-0.11253848
21	0x3dbf156a	0.09330256
22	0x3b61f10d	0.0034475953
23	0xbdd82736	-0.10554354
24	0xbdf32afc	-0.11873433
25	0x3dfcc591	0.1234237
26	0xbd44800f	-0.04797369
27	0xbdca6066	-0.09881668
28	0x3c3043b5	0.01075833
29	0xbdddfc84	-0.10839179
30	0x3db669a3	0.08906867
31	0xbb7afc96	-0.0038297526
32	0xbd8ec4f9	-0.06971163
33	0xbdcd7b11	-0.10033239
34	0x3ce34fc1	0.02774799
35	0x3ce626ef	0.028094737
36	0xbd9a44de	-0.075326666
37	0x3d9cd861	0.076584585
38	0xbca03c9f	-0.019560156
39	0xbd31f8dc	-0.04345022
40	0xbdc64675	-0.09681407
41	0xbdc48d1e	-0.095972285
42	0x3dab6fb4	0.08370915
43	0xbd2e89ca	-0.042611875
44	0xbdfaaee1	-0.12240387
45	0xbe036d69	-0.12834705
46	0x3d1e852b	0.038701218
47	0x3d86cb14	0.06581703
48	0x3c5de322	0.013542922
49	0xbda96a81	-0.08272267
50	0x3c00cfb4	0.00786202
51	0xbc1e3b30	-0.009657666
52	0xbda4ebdb	-0.08052798
53	0xbdbcca35	-0.092182554
54	0x3bbec6a4	0.0058220197
55	0x3de079b9	0.10960717
56	0x3c197c19	0.009367966
57	0x3a8d9790	0.0010802615
58	0xbcb3aac5	-0.021932015
59	0xbc3bebd2	-0.011469798
60	0xbdca5858	-0.098801315
61	0x3ccd2e8f	0.025046615
62	0x3df5a449	0.119942255
63	0x3d279df4	0.04092212
64	0xbc88f657	-0.016719026
65	0xbdb93ce3	-0.09044816
66	0xbd9903c6	-0.07471423
67	0xbdb4f759	-0.0883624
68	0xbd78bee2	-0.060728915
69	0x3d7798f6	0.06044861
70	0x3d340cbe	0.043957464
71	0xbb37314f	-0.0027952974
72	0x3d3c84ab	0.04602496
73	0xbd1475ed	-0.036245275
74	0xbdbd4613	-0.09241881
75	0xbdebfe81	-0.11523152
76	0x3de10e34	0.10989037
77	0x3c5dca6c	0.013537031
78	0x3de4e035	0.111755766
79	0xbdbdeaa4	-0.0927327
80	0x3dac85ec	0.08423981
81	0x3dab3f80	0.08361721
82	0xbcad41b7	-0.0211495
83	0xbda9b4d0	-0.0828644
84	0xbde6a5bb	-0.11262079
85	0x3d9c2546	0.07624297
86	0x3cc90ba9	0.024541693
87	0x3c901f67	0.017593099
88	0xbd8cbcb4	-0.0687193
89	0x3d7540e3	0.059876334
90	0xbdc97cad	-0.09838233
91	0x3d2da7a8	0.042396218
92	0x3d4840cf	0.04888993
93	0x3d3151fd	0.04329108
94	0x3c2f764b	0.010709356
95	0xbd440191	-0.047853056
96	0x3dc6b7e9	0.09703047
97	0xbda07194	-0.07834163
98	0xbe064483	-0.13112073
99	0xbd038a4c	-0.032114312
100	0x3e10b97f	0.14133261
101	0x3db7a232	0.08966483
102	0xbd879ecb	-0.06622084
103	0x3de06765	0.10957221
104	0xbc7d4029	-0.0154571915
105	0xbc494907	-0.0122854775
106	0xbd05ff02	-0.032713898
107	0xbbd1bff4	-0.0064010564
108	0xbd6496b2	-0.055807777
109	0x3cddcf19	0.02707629
110	0x3d8cb915	0.06871239
111	0xbd560c8b	-0.052258056
112	0xbc856d13	-0.016287362
113	0xbdebf370	-0.115210414
114	0xbcba0c78	-0.022711024
115	0x3d5c4de0	0.053785205
116	0xbe06713f	-0.13129137
117	0xbd06477c	-0.032783017
118	0x3d1ded1e	0.03855621
119	0xbca03c0e	-0.019559886
120	0x3c04e8a3	0.008112106
121	0xbc295dd3	-0.010337311
122	0x3dc001a2	0.093753114
123	0x3dd25e15	0.10271851
124	0xbd0d3663	-0.034475695
125	0xbdb0b2d1	-0.086278565
126	0x3d073739	0.03301165
127	0x3d3897ad	0.045066524
128	0xbd8ba13b	-0.06817862
129	0xbd31f2f8	-0.043444604
130	0xbd383fee	-0.044982843
131	0x3d4668f9	0.048439953
132	0x3d7679d0	0.060174763
133	0xbd52383f	-0.05132317
134	0x3d9177f8	0.0710296
135	0xbd97c25e	-0.074101195
136	0x3deaaa4b	0.11458262
137	0x3ca4ea3d	0.020131225
138	0x3d8913ac	0.06693205
139	0xbbb24dab	-0.0054413876
140	0x396fab8b	0.00022856721
141	0xbd9dd98e	-0.07707511
142	0x3dfc4365	0.12317542
143	0x3d5c68b0	0.053810775
144	0xbd010f9b	-0.031509023
145	0x3db3b45c	0.08774635
146	0xbdc70ef4	-0.09719649
147	0x3d9eb1c4	0.0774875
148	0x3dba8271	0.09106911
149	0x3dac637d	0.084174134
150	0x3cbd608c	0.023117326
151	0xbdf2e6a1	-0.11860395
152	0xbd16b745	-0.036795873
153	0xbd03191b	-0.032006364
154	0xbd09f4fa	-0.033680893
155	0x3d9c9277	0.076451235
156	0xbbfe7ef4	-0.007766599
157	0xbdc1f3a8	-0.09470302
158	0xbdb7e79d	-0.089797236
159	0x3d1bff29	0.038085137
160	0x3d92ac8e	0.071618184
161	0x3cde39aa	0.027127106
162	0xbdc89342	-0.09793712
163	0x3db9016b	0.090334736
164	0x3db5edd9	0.088832565
165	0xbcdadc20	-0.026716292
166	0x3941952c	0.00018461485
167	0x3d6f1525	0.058369774
168	0xbb7c079e	-0.0038456689
169	0x3d5c6e68	0.05381623
170	0x3d6b3ccc	0.057431027
171	0xbd6df17a	-0.058091618
172	0x3d583b90	0.05279118
173	0x3d6bdf88	0.057586223
174	0xbde74e93	-0.11294284
175	0xbdef7af6	-0.11693375
176	0xbde03955	-0.10948435
177	0x3d5521a3	0.05203403
178	0x3cc8c65f	0.024508653
179	0xbb6f56b4	-0.0036520185
180	0x3d477cc6	0.048702978
181	0xbc5f2f1c	-0.013622072
182	0xbdc09388	-0.09403139
183	0xbd81ef12	-0.06344427
184	0x3c862ec8	0.016379729
185	0x3cfb5297	0.03067903
186	0x3d29b117	0.04142865
187	0xbde73c04	-0.11290744
188	0x3df2bb7c	0.11852166
189	0x3d9d5c2d	0.07683597
190	0x3d1ad4a7	0.037800457
191	0x3d3b4776	0.045722447
192	0x3d0056c1	0.031332735
193	0xbb3fcbe7	-0.0029265822
194	0x3cf4b7f8	0.02987288
195	0x3b028c1c	0.0019919937
196	0xbda6af47	-0.081389
197	0x3d1b208e	0.037872843
198	0x3d000df5	0.03126331
199	0xbdc4d625	-0.09611157
200	0x3d6e37e8	0.058158785
201	0x3dea1b1f	0.11430954
202	0x3cdb66a9	0.02678235
203	0x3d6da0b1	0.058014575
204	0x3d71a9d8	0.058999866
205	0x3d6d4c22	0.057933934
206	0xbc8e79b9	-0.017392026
207	0x3c6a0818	0.014284156
208	0x3d27a031	0.040924255
209	0xbd457982	-0.048211582
210	0xbd331a64	-0.04372634
211	0xbd97f653	-0.074200295
212	0xbdca577d	-0.09879968
213	0xbdc06470	-0.09394157
214	0xbc72c3ae	-0.0148171615
215	0xbd07d9f4	-0.03316684
216	0x3c8670fc	0.016411297
217	0x3d7e1e17	0.062040415
218	0x3d31b920	0.04338944
219	0x3d2d0355	0.042239506
220	0x3ccd48e9	0.02505918
221	0xbb195caf	-0.002340119
222	0x3d11a53a	0.035557963
223	0x3db8104f	0.089874856
224	0xbd4e6a9d	-0.050394643
225	0xbcab49fd	-0.020909304
226	0x3cbc745b	0.023004701
227	0xbdfc0208	-0.12305075
228	0xbd61f68e	-0.055166773
229	0xbda9b07a	-0.08285613
230	0xbd4c55ca	-0.049886502
231	0xbdc71225	-0.09720258
232	0x3dea0021	0.11425806
233	0x3d80065a	0.062512115
234	0x3c2313da	0.009953463
235	0xbd58b64b	-0.052908223
236	0xbd45649d	-0.048191655
237	0xbd28154e	-0.041035943
238	0x3e036b0e	0.12833807
239	0x3c6146a6	0.013749754
240	0xbdb8608f	-0.09002792
241	0x3dea145c	0.114296645
242	0xbc6c50fd	-0.014423606
243	0xbd2ad2ca	-0.04170493
244	0x3cef6457	0.02922265
245	0x3dd7b7f2	0.10533132
246	0xbcbf9b9f	-0.023389636
247	0xbd159942	-0.03652311
248	0xbd604f0a	-0.054762878
249	0xbc9d6c07	-0.01921655
250	0xbd85d7ba	-0.06535287
251	0x3d397b83	0.045283806
252	0xba686281	-0.0008864776
253	0xbdf455ee	-0.11930452
254	0x3d80dc13	0.06291976
255	0xbaafb3e0	-0.0013405047
