backend/ml/research/models/crash1000_tp_before_sl_lstm.pth (torch, 498705 bytes, 19 tensors)

lstm1.weight_ih_l0 f4 [512, 7]
00000000: d64d 35bc 4f61 013d 781e 19bc 63ef e93b
00000010: 02bb 303d 0c58 a13d 6d6a b2bd 3e26 e5bb
00000020: 9563 11bc 354b ffbc dba7 563d 4965 26bd
00000030: 7247 bbbd 83ed d4bb 9c1a 39bc c931 373a
00000040: de51 933d c28c 063d 5a52 67bd 8627 a33d
00000050: 9e95 7abc 562a c7bb 9f99 3fbd 9059 e33c
00000060: c763 cdbc 5d04 a6bd fdb5 a03d 6db3 2abc
00000070: 4abe 3f3d 084b e4bd 3fca 0bbd 91ef 583d
00000080: 74ad babd e0ec e23c 5191 75bc e016 80bd
00000090: 4941 4b3d 75d9 813d 4272 ebbc b1c4 cb3c
000000a0: 00d6 c7bc 5232 45bd 1320 833d f024 f63c
000000b0: 366e 5d3c da45 80bc 1258 0bbd 3ae9 2b3d
000000c0: 08ef f6bc 823c 83bd 7f46 02bd e55a f0ba
000000d0: 88e8 52bd 7d09 4f3d 985a 3c3d 40e0 f53c
000000e0: 4b02 023d fa56 453d 9b97 38bc 98bd bebd
000000f0: cec8 48bd 5f06 6bbc b200 b93d 162c 473c
00000100: ff07 76bd f7f0 353d 0a27 873d 9646 93bd
00000110: b18c 3ebc a170 abbc d6ea d13c b8c0 223d
00000120: ee42 413d afc7 e63c 8160 b53c 516d 9f3d
00000130: cdd6 34bd 7f1e 6bbd 5ecd 543d 8ff7 1bbd
00000140: 5210 c1bd 945f e3bc f181 83bd 2e7a 04bd
00000150: 437f 983d 5440 b13d 2d34 4bbd 5546 1f3c
00000160: 5849 903c c3f2 f03c a3db 133b 0dd3 93bd
00000170: a368 82bd 7bb1 42bb 74a6 20bd f2e9 adbd
00000180: 6a5b a83b ea4f 86bd 9e75 4abd f427 98bd
00000190: 6000 89bd 0cfc fb3c 9d18 933c c54c 8e3c
000001a0: 514b ac3d 1b34 30bb 7212 8abd f7c2 74bc
000001b0: 041d 5dbc a75a 913d 9423 c43c e43f 523d
000001c0: 2dac 39bd c1bd 313d 4663 e0bc f855 103b
000001d0: c2d0 023c c553 833c 807f 9c3c 0dd1 84bd
000001e0: ffcf 343d 68ec a8bd 7bbe 743d 614c d23c
000001f0: 24a9 e53b c4fe 96bd 5fa0 5abd c3f5 b13d
00000200: 3222 0cbd 0a7d aa3d c521 c9bc 4971 4fbd
00000210: 70d3 343c 9f8f cfbb 4f60 403a 2b19 62bc
00000220: 0fc4 593d 2caa 753d c482 debb 996c 6dbd
00000230: ea26 9b3c a4e7 6ebd 7b95 45bd a85b 5e3c
00000240: 1281 a93d bfcf f3bd 2f8f 213d b6db c0bc
00000250: a0a8 83bd b63f 6a3d 0e7c ce3c eb78 a3bc
00000260: 02b5 a3bd 932a 53bd b226 b0bd d9f0 62bc
00000270: f393 903d 7ca7 36bc e9e2 4c3d 4bf6 843d
00000280: 1fa9 843d 9af3 c53b dec0 25bd 02af 07bd
00000290: 4d0a b63c fd8d 81bc 7e63 5e3c 9009 1dbd
000002a0: 7b0b 993d 788f 9e3d 076d 8b3d a0a1 5fbd
000002b0: f813 9abd 4cb1 96bd 9236 903d 66fe 863d
000002c0: 463c df3c 41c8 a33d c9b0 38bd 1ce3 7c3d
000002d0: 3f4b 383d 668d 1e3d d662 5fbb 774e a13c
000002e0: abec 1c3d 7cb6 613d e24f a4bd b67f 8e3d
000002f0: ec6c aebd e3ac a8bd 2564 60bb a479 23bb
00000300: bb5f 3abd d312 b13b 8e52 94bc 13a9 33bd
00000310: d513 523d a6e8 6e3c ab54 a9bc ad17 a13d
00000320: b40b d1b9 94c9 a4bd 9c10 e5bc 7dc1 8fbd
00000330: 1a18 263c 22c8 4fbd b7bc 753d 9a44 3a3b
00000340: ac2c fb3c c027 5dbd f242 6d3d b3af 283d
00000350: 7c86 b03d ae37 48bd 58cb d73d b405 74bc
00000360: 3b27 3e3c a7ae 89bd f082 363d 9a58 4abd
00000370: 5598 833c a46f 423c b923 93ba 8899 3cbd
00000380: 16a3 20bc f311 15bd 0d02 9c3d fd6d 92bd
00000390: 0d2d 893d f8bd 9cbd afaf d53c 8ec7 cb3d
000003a0: dcff a83d 6879 35bd 5a8e 27bd fc44 c03c
000003b0: 7932 1b3c cef7 373d f7e3 963d 257b d03b
000003c0: ccda 8ebb 10ad 84bd 2467 953d 892c 88bd
000003d0: be4c ad3d 131c 193d 2df2 7bbc e5cc d8bc
000003e0: f099 a9bd 8d87 c83d 4c74 be3d 2ed1 883c
000003f0: f1ba 20bd e2ef 063d 305a bfbd 0c0c 63bd
-0.011065921 0.03158694 -0.009345643 0.007139133 0.043147095 0.07878122 -0.08711705 -0.006993084
-0.00887384 -0.031163791 0.052406173 -0.040623937 -0.091444865 -0.00649804 -0.011297848 0.00069883146
0.07193349 0.03284908 -0.05647502 0.07966523 -0.015294461 -0.006078045 -0.046777364 0.027752668
-0.025071992 -0.08106301 0.078472115 -0.010418755 0.046812333 -0.111471236 -0.034128424 0.052962843
-0.09115115 0.027700841 -0.014988259 -0.06254363 0.049622808 0.06340305 -0.028741006 0.024874063
-0.024394035 -0.048143692 0.06402602 0.03004691 0.013515046 -0.015658308 -0.034019537 0.04197047
-0.030143276 -0.06408025 -0.03180551 -0.0018337636 -0.05149129 0.050546158 0.045984834 0.030014157
0.031740468 0.04817865 -0.011266614 -0.09313506 -0.049019627 -0.014344781 0.09033336 0.012156507
-0.06006622 0.044419255 0.06599243 -0.071911976 -0.011630223 -0.02092773 0.025624674 0.039734572
0.04718297 0.028171388 0.022140743 0.07784522 -0.044150162 -0.05740213 0.051953666 -0.038077887
-0.09426941 -0.027755536 -0.06421269 -0.032343082 0.07446148 0.08654848 -0.049610306 0.009721358
0.017613098 0.029412633 0.0022561334 -0.07217989 -0.06367614 -0.0029707837 -0.039221242 -0.08491887
0.0051378505 -0.06558211 -0.049428575 -0.074294955 -0.06689525 0.030759834 0.017956072 0.017370591
0.08412803 -0.0026886526 -0.067417994 -0.014939061 -0.013495687 0.07097369 0.023942746 0.051330462
-0.045330215 0.043393854 -0.027391087 0.0022023898 0.007984342 0.016031155 0.019103765 -0.06485186
0.044143673 -0.08248216 0.05975197 0.025671186 0.0070086885 -0.073728114 -0.053375598 0.086894535
-0.0342123 0.083246306 -0.024552235 -0.050645147 0.011036739 -0.0063342596 0.000733857 -0.013799946
0.05316549 0.05997674 -0.006790491 -0.057964895 0.018939454 -0.05832638 -0.04823826 0.013571657
0.08276571 -0.11904859 0.03944319 -0.023542266 -0.06428647 0.057189666 0.025205638 -0.01995512
-0.07993509 -0.051554274 -0.086011305 -0.013851368 0.07059469 -0.01114833 0.050021086 0.06492289
0.0647757 0.0060410025 -0.040467136 -0.033125885 0.022221709 -0.015814776 0.0135735255 -0.038339198
0.07472893 0.07742208 0.06807905 -0.054597497 -0.0752334 -0.073580354 0.070416585 0.065914914
0.02725042 0.0799718 -0.04509047 0.061740026 0.044993635 0.038709067 -0.003408601 0.019690735
0.03831164 0.05510567 -0.08023049 0.06957953 -0.08516869 -0.082361005 -0.0034239378 -0.002494433
-0.045501452 0.0054038553 -0.018105771 -0.043862414 0.051288445 0.014581835 -0.020670256 0.07865844
-0.00039872306 -0.080462605 -0.027962022 -0.07019327 0.010137582 -0.05072797 0.059994426 0.0028422237
0.03066095 -0.053992987 0.057925172 0.041183185 0.08619401 -0.048881225 0.105368316 -0.014893938
0.011606033 -0.067227654 0.044558465 -0.049400903 0.016063849 0.0118674375 -0.0011225856 -0.046044856
-0.009804508 -0.03639407 0.07617579 -0.07149885 0.06698046 -0.07653421 0.026084749 0.099501714
0.08251926 -0.044305235 -0.04090724 0.023470394 0.009472483 0.04491406 0.073676996 0.006362336
-0.0043595787 -0.064783216 0.07295063 -0.066491194 0.08461903 0.03738029 -0.015377563 -0.026464889
-0.082813144 0.09791479 0.092995256 0.016701307 -0.03924078 0.032943614 -0.09343374 -0.05543141

lstm1.weight_hh_l0 f4 [512, 128]
00000000: 568b 513d f9ca a53c e1c6 003d b410 ecbb
00000010: d522 953c 76da ac3d 34c0 043d 074a a23d
00000020: a44d 893c 8981 f8bc e36d a33d 40db 3e3d
00000030: 8939 b23b 21be d7bc 555a 19bd 0008 ecbc
00000040: df8f 993d ccdf 2e3d 4629 d73a b732 60ba
00000050: d580 c93c 07ac 8ebd 01fd c83c 6855 94bd
00000060: ce07 eabc 2ad3 5bbd 8a0c c03d 70f2 6fbc
00000070: e17d 5bbd b677 d13c 5165 943d 0233 0f3d
00000080: 48e1 0fbd 4460 73bd c5dc 353d c599 7cbd
00000090: 67c0 b5bb ad31 8ebd e74c 90bd 6a73 80bd
000000a0: d262 f6bc de26 9b3d 074a a83b 022a 49bd
000000b0: 114d 90bc adbc 9f3d ec09 e23c cbcd 4bbc
000000c0: 1f12 b23b a6ae 66bd 3de1 3f3d 57c4 5cbd
000000d0: 6e3e b03d d67c a53b 7c4d cf3d cbab e1bc
000000e0: c032 c03c de76 83bd 9308 88bc fd1a 923c
000000f0: 93ac e2bc e638 aebb 9e92 fabc ad9c 57bd
00000100: 0540 f23c 35c9 37bd eda7 a63d 7821 09bd
00000110: 9724 13bc 58cc ffbc 052c 853d 0a0e a5bd
00000120: af83 80bd 3b47 c63c a11e 2d3d 32b7 53bd
00000130: 41dd a43c b1e1 883d 109e 853d 5e82 8fbc
00000140: 093d c63d 8ae6 993d 8688 923d 6388 49bd
00000150: e7a8 a7bb ac6c 88ba 6b7b 7ebc 41cb 86bd
00000160: 7ac0 22bd b4d0 8c3d 64ea b03c fb4e d73b
00000170: 2732 aa3d 6c82 a93d 2193 efbb 8017 9c3c
00000180: 1c48 94bd 9dbc ad3d 9c4d 943d 9d20 4f3d
00000190: 7082 d3bc dc35 33bd cf6d 46bd 3791 a5bd
000001a0: e66f 7e3d b98a 43bc 1139 8c3c 1f62 0ebb
000001b0: d3ca 263d 7890 90bd d937 abbc 0a06 a93d
000001c0: 34f6 db3c 7351 983a 24ce 1abc c0a6 343c
000001d0: 06f9 a1bd 7494 71bc 2cf0 8cbd 08a1 83bd
000001e0: fb1b dabc 841d 363d f770 6ebc a267 7bbb
000001f0: 3d0c 99bd c77d f6bc 8e65 c93c 43cc 03bd
00000200: d4b3 3abd 8765 283d 24b1 a33d f078 c3bc
00000210: f7e0 f4bc 2e2f a53c a6c4 963c 9461 933d
00000220: 5fb3 1abd 6074 1f3c 807f a8bd 48d7 68bd
00000230: 09b0 23bc 5c99 2abd 8d9d 293c 7973 54bd
00000240: e60c 54bd ee9d 793c 2cb9 fc3c 6e8a 74bd
00000250: a3d4 c53d 6ef0 1bbd 8c88 b0bd 8391 a33d
00000260: 2eee 5ebd 55cd 383c 4967 433d 44fe 8abd
00000270: 05bb e7bd 6d0f 31b9 4b3c 5dbd 0e80 12bd
00000280: af80 9d3d 7186 0dbd 6cb2 febd 08a0 2abd
00000290: 69ce 7a3d 3061 80bd d179 573c b016 29bd
000002a0: bcc6 233c 75a8 14bd 2ece 8dbc 2c69 8d3d
000002b0: 99b2 053d 93cc d63c b0fa 63bd f501 c63d
000002c0: 48c3 7fbd 626a b4bc 34eb 4abd c6e2 ddbd
000002d0: db38 b8bd 4c03 70bd c6d8 a93c 3790 55bb
000002e0: f481 90bd 8332 66bd e21e aabd b3f4 d9bd
000002f0: 75ac 203d dc31 13bc 3ec9 01bd 61ed 933d
00000300: 4b77 c83d 8d16 c6bd 66ef 84bc 386a 9bbc
00000310: cd69 c0bd 0c20 493d 9020 c5bd bcc6 04bd
00000320: 331e 233c 9f8d 3dbd 35b3 443d 08f2 283d
00000330: 7ed9 993d 7557 913d fef5 5bbd fee1 2bbd
00000340: 9817 473d 30d3 0d3c 9a18 c13a 51ac b63d
00000350: d34e b93d 37a8 3f3d 895c c03d 4b33 8bbc
00000360: 0488 cfbc c353 373c 827f d2bc 917e e9ba
00000370: 78cf 9cbd 9304 913c b9d9 dc3b a486 90bc
00000380: fe51 34bd d525 953c 568d 533d 7860 de3d
00000390: 0fc4 7f3d faa7 e83c 4a48 3c3d ec81 683c
000003a0: 8aaf f8bc 9fb8 babc 1f47 133c 3f49 9d3d
000003b0: 5f56 dd3b 519b b1bd 617f 71bd 5601 2b3d
000003c0: 5095 b4bc 38a9 813d 2293 7abd 3f88 323c
000003d0: a577 e73c df2d 77bd 1595 b73c 851c ca3d
000003e0: 3284 4bbd 99fb 9ebd e29c eb3c 7b63 bbbd
000003f0: 7432 723d c8d4 8e3d 003e 343d 8c14 41bc
0.05115827 0.020238386 0.031439666 -0.0072041396 0.018205086 0.084401056 0.03240986 0.07924276
0.016760655 -0.030335205 0.079799436 0.04659581 0.0054389876 -0.026335778 -0.037439663 -0.028812408
0.07498144 0.042693898 0.0016415499 -0.0008552479 0.024597565 -0.06966405 0.024534704 -0.072428524
-0.028568175 -0.05366818 0.09377392 -0.014645204 -0.053586844 0.025569778 0.07245887 0.034960754
-0.035126954 -0.059417978 0.044399995 -0.061670084 -0.005546618 -0.06943069 -0.07045918 -0.062720135
-0.030076418 0.07575773 0.005135778 -0.049112327 -0.017614873 0.07799659 0.027592622 -0.012439202
0.005434289 -0.0563189 0.046845663 -0.05389818 0.086056575 0.005050282 0.10122201 -0.027547738
0.0234617 -0.064191565 -0.016605651 0.017835135 -0.02767018 -0.0053168414 -0.03058749 -0.052639652
0.029571543 -0.04486962 0.08137498 -0.033479184 -0.008980892 -0.031225368 0.06502537 -0.08059318
-0.06275117 0.024203887 0.042265538 -0.05168838 0.020125033 0.06683672 0.06524289 -0.017518219
0.0967961 0.07514675 0.07154946 -0.049202334 -0.0051165703 -0.0010408363 -0.015532355 -0.06581736
-0.03973434 0.068757445 0.021596141 0.0065706945 0.08310347 0.08276829 -0.0073112403 0.019054174
-0.07240316 0.08483241 0.07241365 0.05056821 -0.025819033 -0.043752536 -0.048444565 -0.08084338
0.062118433 -0.0119349295 0.017117055 -0.0021725965 0.040720772 -0.07058805 -0.020900654 0.08253105
0.026850797 0.0011620953 -0.009448562 0.011026084 -0.079088256 -0.014744867 -0.06881747 -0.06427199
-0.02662467 0.044461742 -0.0145533 -0.003836133 -0.074730374 -0.030089272 0.024584558 -0.03217722
-0.045581654 0.04111245 0.07992771 -0.023861378 -0.029892428 0.020164099 0.018404316 0.07196346
-0.037768718 0.009732336 -0.08227444 -0.056845933 -0.0099907005 -0.04165016 0.010352504 -0.051867936
-0.051770113 0.015235407 0.030850016 -0.05970233 0.09659698 -0.03807109 -0.08619794 0.079867385
-0.054426365 0.011279424 0.047705922 -0.067867786 -0.11314968 -0.00016885782 -0.054012578 -0.035766654
0.0769056 -0.03455204 -0.12436375 -0.041656524 0.061232004 -0.06268537 0.013151602 -0.041281402
0.009996112 -0.036293466 -0.017310228 0.069048256 0.032641027 0.026220595 -0.055658996 0.09668342
-0.062442094 -0.022023384 -0.049540713 -0.10834269 -0.08995219 -0.058596894 0.020733248 -0.003258718
-0.070560366 -0.056200515 -0.08306672 -0.10642376 0.039226968 -0.008984055 -0.03168606 0.07223011
0.09788378 -0.0967227 -0.016227435 -0.018971547 -0.0939518 0.049102828 -0.096253514 -0.03241609
0.0099559305 -0.04627764 0.048022468 0.041246444 0.075121865 0.07096759 -0.053701393 -0.04196357
0.048606485 0.008656308 0.0014732063 0.089195855 0.09048238 0.04679128 0.0939265 -0.016992232
-0.025333412 0.011189404 -0.025695566 -0.0017814209 -0.07656759 0.017702376 0.0067398218 -0.017642327
-0.044023506 0.018206516 0.05164846 0.10858244 0.062442835 0.02840041 0.045967378 0.014191132
-0.030357141 -0.022793112 0.008989125 0.07679986 0.006754681 -0.086722024 -0.05895937 0.04174932
-0.022043854 0.06331104 -0.061175473 0.010896741 0.028255293 -0.06034648 0.022409955 0.09868721
-0.04968662 -0.07762832 0.028761331 -0.09149834 0.059130147 0.069741786 0.04400444 -0.011784684

lstm1.bias_ih_l0 f4 [512]
00000000: 513e 883d 2ea4 ae3c 9f91 55bd 0537 83bc
00000010: a1c5 9dbd 58e8 8ebd 49a9 b43d 1a27 413c
00000020: a621 873d 5ca3 353d 2a30 ad3c 20e0 4fbc
00000030: 6466 c2bd f5d3 d3bb a744 89bd 8991 c03c
00000040: cccb 1c3d 8cb0 27bd 0c22 cfbd 3ae8 20bd
00000050: b4bf d2bc e7e9 bb3d bf7b ee3c 62a5 9bbd
00000060: 0ee1 793c 08c7 6a3d 542e f23c 1322 21bd
00000070: e0ca d5b7 6485 383d 10ee ccbd 7b6c 11bd
00000080: 7c75 06bd a603 fdbc 7ae4 29bc 4801 803d
00000090: e50b dfbb 1e5a 0c3d 882f 243b d289 bc3d
000000a0: 4b97 8bbb 5124 0bbb ba8a 953c 324a 7239
000000b0: 3128 7c3d 1b30 d4bd 119e 2abd 65cd c4bc
000000c0: c567 6b3d 7f5d 37bd 01aa 8cbd 161f 693d
000000d0: 8493 86bd 6787 9abd a89d e4bc 2636 9a3d
000000e0: 1f81 283d 68e8 afbd 4a71 80bd 8de0 bcbd
000000f0: e709 efbb d294 dabc eef6 21bd af27 513d
00000100: 1486 443d f55f 9c3d 2f09 2fbd 2415 90bc
00000110: d316 34bd 4c55 ce3d 4a4b 4a3c 510e d6bc
00000120: 90dc 323c 06b4 81bd e8e5 dc3c 4533 95bd
00000130: 70de 593d f95c ea3c ca01 a83c 1460 8b3d
00000140: d07e aabc e42e 9dbd 1b48 77bd 4e63 863d
00000150: f096 63ba 0110 81bd d4f4 3fbd b152 153d
00000160: 5566 343d 1fc7 42bd 909c 5bbd afad c1bd
00000170: 41db 613d f4bc 9d3c 548b fcbc 4855 febc
00000180: 3599 bfbc e840 4bbd 3d02 adbd 6f90 363d
00000190: 8da6 853d c3a6 293b 1969 313d 28e9 7a3d
000001a0: 97a4 873d be57 67bd 4f95 b8bd e16e 6abd
000001b0: d00d ba3c fa60 21bd 48f1 eebc 9220 bcbd
000001c0: 8ed7 95bd 2880 363c 918b 023b 7d89 d93c
000001d0: 619e 4abc eda4 c5bd d5e0 003d 47ba b53b
000001e0: 4de4 393d 92fd 07bd 5931 803d 3064 cebc
000001f0: 2614 ddbc 8dde 8f3d 0aa0 223c 874e 3bbd
00000200: b29b 9bbd 5cd3 6c3d 5351 413d 96c0 84bb
00000210: 768c 6a3d 52b3 9a3c 313c 063d 5f4c 1d3c
00000220: bb89 173d 7662 723d b7b2 63bd 6c20 4f3d
00000230: 6115 9d3d fda4 3f3d 0bf2 4bbc bbf6 95bd
00000240: d056 fe3c e8c5 913d d159 0e3d 05eb ef3c
00000250: 02d5 253d bf45 89bc 3fce 51bb 471e 6c3d
00000260: 5a5c bfbd f8df a33c 2371 4b3d 3bd0 513d
00000270: b4e8 4ebd 0c85 a2bc 0501 3cbd 8f20 8b3d
00000280: 02c0 8abd 91bb fabc 8a3b 0bbd 1793 d63c
00000290: 94ef 1cbd 5702 ccbc 4d29 47bd 6ab5 843d
000002a0: c924 8bbd 20cf 38bd be44 adbd 5bbc 9cbd
000002b0: d085 d8bb b1b3 92bd dfa1 28bc f11a 883d
000002c0: b6e7 0bbd 7044 9a3d 1092 0bbd 8ede e0bd
000002d0: 8844 913d 934a 203d e115 59bd d66e 613d
000002e0: 0a6f 273d 1ec4 fcbc bd0f 783d 054b 3dbd
000002f0: 15e8 343c bb62 753d deb4 fdbc 12e1 313d
00000300: f04d 5d3d b682 993d 0954 743d fc50 78bd
00000310: ae61 c0bc 22aa 3abd cf3f 2e3c 1430 733d
00000320: 0513 b3bd 5f49 03bd 08dc b3bd fec3 02bd
00000330: 36b1 8e3d 9242 acbd f3fa 8fbd 95d0 47bb
00000340: f4e8 babd d103 8e3c 5754 cbbc 36b3 ea3b
00000350: aa3a 8dbd 74f5 66b9 3179 8ebd 6f25 843d
00000360: 612a e73c 28f2 55bc 99fe 46bd 8eae 23bb
00000370: ba54 b6bd a51f 91bd e0f8 b63d 9850 2cbd
00000380: 0555 0ebb 429b fd3c 0f48 833d 5359 f23c
00000390: ff65 443b 9911 f3bc 3889 53bd f94c 063d
000003a0: 709d 793d a353 9f3d 8bc2 1cbd a6db eb3c
000003b0: 03d4 1ebd 93ca a83c 963a b3bc be1e 5bbb
000003c0: a7cd 5fbc 8aa7 95bc 7350 53bc b63c c0ba
000003d0: ff3d 5dbc 6c0f b4bd c647 03bd 5e02 9d3c
000003e0: 829b c93c bb39 453d a913 f73c f394 d9bc
000003f0: e577 1c3d 14b2 e7bc 6681 2b3d f717 7cbc
0.06652511 0.021318521 -0.05214083 -0.016017446 -0.0770371 -0.0697791 0.08821351 0.011789108
0.06598215 0.044345245 0.02114113 -0.012687713 -0.09492186 -0.006464476 -0.067025475 0.023506897
0.038280293 -0.040939853 -0.10113916 -0.03928397 -0.025726177 0.09175473 0.029111741 -0.07599904
0.015251411 0.057318717 0.029563107 -0.039339136 -2.548605e-05 0.045049086 -0.10006344 -0.035503846
-0.032826886 -0.030885529 -0.010369414 0.062502444 -0.006806838 0.03426563 0.0025052745 0.09205975
-0.004259979 -0.0021231363 0.018254627 0.00023106558 0.061561767 -0.10360738 -0.04165465 -0.024023721
0.05747201 -0.0447669 -0.06868363 0.05691441 -0.06571105 -0.07545357 -0.027907208 0.07529859
0.041138764 -0.0858925 -0.06271608 -0.09222517 -0.0072948816 -0.026682291 -0.03954213 0.051063236
0.04797943 0.0763549 -0.042733368 -0.017588206 -0.04396708 0.10074863 0.012347052 -0.026129873
0.010916844 -0.06333165 0.026965097 -0.072851695 0.05319065 0.028608786 0.020508666 0.06805435
-0.020812422 -0.07674959 -0.0603715 0.065619096 -0.0008681854 -0.06301881 -0.046864346 0.036455814
0.044042904 -0.047553178 -0.053616107 -0.09456956 0.055140737 0.019255139 -0.030828156 -0.031046525
-0.023388484 -0.049622446 -0.084476925 0.044571336 0.06525908 0.0025886751 0.04331312 0.06125751
0.0662319 -0.05648016 -0.09012853 -0.05723465 0.022711664 -0.039399125 -0.029167786 -0.091859
-0.073165044 0.011138953 0.0019919614 0.026554817 -0.012366862 -0.09650598 0.031464417 0.0055458876
0.04538374 -0.033200808 0.06259412 -0.025194257 -0.026987147 0.0702487 0.009925852 -0.045729186
-0.07598056 0.057818756 0.047196697 -0.0040512783 0.05726286 0.018884335 0.032772247 0.009600728
0.036996584 0.05917593 -0.055590358 0.05056803 0.07670093 0.046788204 -0.012447844 -0.07322451
0.031047255 0.07117826 0.034753624 0.02928687 0.040486343 -0.01675689 -0.0032013801 0.057646062
-0.093437865 0.020004258 0.049668442 0.051223975 -0.05051489 -0.019838832 -0.04589941 0.067933194
-0.06774904 -0.030607017 -0.033992328 0.026193185 -0.038314417 -0.02490346 -0.048623372 0.064799145
-0.067941256 -0.045119405 -0.08460377 -0.076531135 -0.0066077486 -0.0716318 -0.010292499 0.06645764
-0.034156524 0.07532585 -0.034074843 -0.10979949 0.070931494 0.03913362 -0.05299938 0.055037342
0.04087738 -0.030855235 0.060561884 -0.046214122 0.011041661 0.05990861 -0.030970033 0.043427534
0.054029405 0.07495634 0.059650455 -0.060624108 -0.023484077 -0.045572408 0.01063533 0.059372023
-0.08743862 -0.032052394 -0.08782202 -0.031925194 0.06967394 -0.08411135 -0.07030287 -0.0030489315
-0.091264635 0.017335804 -0.02482049 0.007162477 -0.06895955 -0.00022025948 -0.06956709 0.064524524
0.02821845 -0.013058223 -0.048582647 -0.002497587 -0.08902879 -0.07086114 0.08934188 -0.042069048
-0.0021718156 0.030957822 0.064102285 0.029583609 0.002996802 -0.029671477 -0.051644534 0.03278825
0.06094116 0.07779624 -0.038271468 0.02879126 -0.03877641 0.020604407 -0.021878522 -0.0033435072
-0.013659871 -0.018268365 -0.012897599 -0.0014666531 -0.013503551 -0.08792004 -0.03205087 0.019166168
0.024610285 0.04815076 0.030160742 -0.026560282 0.038200278 -0.028283156 0.04187145 -0.015386573

lstm1.bias_hh_l0 f4 [512]
00000000: f907 243b b769 5cbd e477 24bd b0c2 8b3b
00000010: 25af 9cbd 8855 753d b1f9 35bd 213a 89bd
00000020: 1fa1 8fbd fe26 903d 6f19 99bc 1e24 06bd
00000030: 35e9 d6bc 6db9 66bb 153b 553d 4d2a 2d3d
00000040: 8999 153d e035 1ebd 1527 acbd 9783 57bd
00000050: 2754 363c acae 80bd e932 553d 130c ab3d
00000060: e6d3 eebb 5996 45bd ad65 fb3c 6381 243d
00000070: 2bed bd3d e39a 62bd 5503 d6bd a69d 8cbc
00000080: 3d2a 20bd 41eb 6d3d 0cf7 ab3d acc4 38bd
00000090: e76d ae3d 7d4e 4bbd 72d7 e8bc 5ac3 5e3d
000000a0: e6cb 1dbd 972e d4bd ca7f 90bd 6bb4 27bd
000000b0: 9efc 4abc 2dd9 3b3d 7f09 7e3d 43ee 9e3d
000000c0: 4e09 153d f867 513d 6520 453a 3dba 67bd
000000d0: 35dc 95bd cb5b 6f3d 9df5 6bbc 3037 4c3d
000000e0: a06c c93c 4598 903d d2bd 87bd 0e20 d1bd
000000f0: 901e 453d b04c 5a3d ac53 863d 46c5 883d
00000100: d967 6bbd e082 6fbd a3d3 413d 45e5 8e3b
00000110: 61e9 6dbd 015f 81bc 6f61 653d 87ae 1b3b
00000120: 8712 43bd b725 43bd 358d 21bd b7d5 56bd
00000130: b099 6e3d 46fc 66bd 4702 e93b 35d5 723d
00000140: 5381 e53c 4755 77bb 5e8b d2bd ab89 b53a
00000150: a816 a2bd 06a9 d2bc e792 2f3d 5afd 16bd
00000160: 20e2 bfbd 5d34 453d 00ce 903a d9d4 833c
00000170: afd7 f73c 6b2d be3c 2650 a2bd e9ae 983d
00000180: dc4b b8bd 96a8 ae3c b0ce 023c eea7 8bbc
00000190: 3260 903b 3cc3 97bd 2cbb ecbc 4417 ae3d
000001a0: a51b aabc 3b51 693d a9d4 213c b4b3 6fbd
000001b0: 6d5e 48bd e228 8e3d 44d0 7c3c 259d e8bd
000001c0: b20e 333b dfcd afbd e262 7abd fe00 82bd
000001d0: 20c1 873d a902 08bd c022 64bd 1ce3 c8bd
000001e0: 1ace b7bd 6849 7bbd 4d14 8f3d 4f36 3fbc
000001f0: 9007 afbd 8144 c2bb 51d9 31bd 63a7 a2bd
00000200: 5c9b 92bd 3f2f a73d aabe 2a3d d9dd c13d
00000210: d8a9 ecbc 78df 35bd 76ad 6c3d a454 113d
00000220: 34cf 243d e14e 75bd 7a10 61bd 583f a6bd
00000230: e59e 8cbd e386 ec3c e415 afbc 9248 73bd
00000240: ca73 f83c 0bb3 883d 1201 133b 1541 c0bd
00000250: ab0d 6fbd d929 52bd a910 51bd 371c 98bd
00000260: 87f4 3e3d 20d8 333d 1e3f 65bc d0d4 7a3d
00000270: 6e24 6fbd 4f91 8abd 7532 5c3d e896 983c
00000280: 66ea bf3b 9f70 9bbc ca43 063c db45 65bd
00000290: 9c38 123d f129 14bc 6c2c 143d 1556 223d
000002a0: 8ea0 d3bd 97e9 bd3b 88b5 1a3d bd80 abbd
000002b0: 933b 323c 95ae 18bd a993 64bd ae58 a63d
000002c0: 2bf8 0bbc b7fc 773c 9f29 5bbd e53c 9b3c
000002d0: ec3b 9a3d c7ec 30bd 3694 c9bd 05f9 033d
000002e0: 5cee 1f3c 5d47 433c c5b5 b8bd b698 263d
000002f0: 09ff 293d f50d ae3c 731d 343d f5f0 5ebd
00000300: 86f4 39bd c6e2 b03d 6dca a83d acde 80bd
00000310: 6325 78bd c461 303d 5afb 8ebc 3a08 e53c
00000320: a807 c23c 5a08 9cbd 6e79 003d 7c52 903d
00000330: 8489 9d3b 4947 6cbd 9ebd 90bc 9ad3 af3d
00000340: c6bc cf3c e4a0 8e3c 13d7 b4bd 3bfe 90bc
00000350: 95a8 94bd be5b cf3c 7e89 f6bc fe20 4fba
00000360: 037b a43c 3718 b03d a9d7 583d 0abc 3d3d
00000370: b775 cdbc 19cf 8c3d 605b d7bc f08d 153d
00000380: 27b5 7abd ac21 93bd 0d00 3abc afdc 9c3d
00000390: c804 bdbd 9094 c6bb d39c 4ebd 2582 2fbd
000003a0: e4be 233d 5eda a3bd 5754 ccbc 369b 02bc
000003b0: 8dcd 683d 4fec c53c 99a0 39bd 9a15 f13a
000003c0: 629d 99bd 8aee c83c e9d8 403d 3cb7 2fbd
000003d0: 9d88 623d 59ea 633d 3267 c6bc 8219 a33a
000003e0: e9eb 72bd 601c 603d e568 e2bc 90fd b8bc
000003f0: f31e 4e3b 111f c9bd 7d97 b83d 6558 8fbd
0.0025029166 -0.053811755 -0.0401534 0.004265152 -0.07650594 0.059896022 -0.044427577 -0.0670054
-0.07013153 0.07038687 -0.018688885 -0.032749288 -0.026234249 -0.0035205737 0.0520583 0.04227667
0.036523376 -0.038625598 -0.08405892 -0.05261573 0.011128462 -0.06283316 0.052050505 0.08351912
-0.007288444 -0.048239086 0.030688131 0.040162455 0.09273752 -0.055323493 -0.10449854 -0.017165016
-0.03910278 0.058085684 0.0839673 -0.045109436 0.08517056 -0.0496354 -0.028423045 0.05438552
-0.03852453 -0.10360449 -0.07055624 -0.040943544 -0.01238933 0.04586141 0.062020775 0.077602886
0.036385827 0.051124543 0.0007519781 -0.056574095 -0.07317392 0.05843715 -0.0144018205 0.04985732
0.02458793 0.07060293 -0.06628002 -0.10211192 0.04812485 0.05329579 0.06558928 0.06678252
-0.057472084 -0.05847442 0.047320973 0.004360827 -0.058083896 -0.015792372 0.056001123 0.002375515
-0.04762509 -0.04764339 -0.039441306 -0.052449908 0.058252037 -0.05639293 0.007110867 0.05928536
0.028015768 -0.0037740038 -0.102804884 0.0013850232 -0.079144776 -0.025715362 0.042864706 -0.03686271
-0.09369302 0.04814564 0.0011047721 0.016092705 0.030254213 0.023215016 -0.07925443 0.074552365
-0.08998844 0.021320622 0.007983848 -0.017047849 0.0044059986 -0.07410285 -0.028897844 0.08500531
-0.020765135 0.056962233 0.009877362 -0.058520988 -0.048918176 0.069413915 0.015430514 -0.11358098
0.0027321992 -0.08584189 -0.06112946 -0.063478455 0.066286325 -0.033205662 -0.055697203 -0.09808943
-0.08974858 -0.061349303 0.06986294 -0.011670663 -0.08546364 -0.0059285765 -0.04342014 -0.07942083
-0.07158539 0.08163308 0.041685738 0.09466142 -0.028889582 -0.04440257 0.057782613 0.03548111
0.040236667 -0.059889678 -0.054947354 -0.081175506 -0.06866244 0.028872913 -0.021372743 -0.05939538
0.03032865 0.06674775 0.0022431058 -0.093874134 -0.058362644 -0.05130944 -0.05104128 -0.074272566
0.04661992 0.043907285 -0.013992099 0.06123811 -0.05838435 -0.06765997 0.053759057 0.018626645
0.0058568 -0.0189746 0.008194873 -0.055974822 0.03569852 -0.009043203 0.036175177 0.039632875
-0.10333358 0.0057956683 0.037770778 -0.08374164 0.010878461 -0.03727587 -0.055804882 0.08122383
-0.008543055 0.0151359355 -0.05350649 0.018949935 0.075309604 -0.04319456 -0.09842722 0.032219905
0.009761419 0.01191887 -0.09019045 0.04067298 0.041502986 0.02124689 0.043973397 -0.054429013
-0.04539921 0.086370036 0.08241735 -0.06292471 -0.06058253 0.043061987 -0.017453838 0.027958024
0.023685291 -0.076187804 0.031365804 0.07046983 0.004807653 -0.05768517 -0.017668542 0.08585282
0.025358569 0.017410703 -0.08830085 -0.017699352 -0.07258717 0.0253123 -0.030094858 -0.00079013396
0.020078188 0.085983686 0.052940045 0.046321906 -0.025080545 0.06875438 -0.026288688 0.036512315
-0.061207917 -0.07184157 -0.011352551 0.076592796 -0.092294276 -0.0060601905 -0.050442528 -0.042848725
0.03997697 -0.080006346 -0.02494256 -0.0079715755 0.056836654 0.024160532 -0.045319173 0.0018393279
-0.075007215 0.024527807 0.04708186 -0.042899355 0.055306066 0.055643413 -0.02421913 0.0012443515
-0.059307013 0.05471456 -0.027637908 -0.022581846 0.0031451553 -0.098203786 0.09013269 -0.06999282

bn1.weight f4 [128]
00000000: f841 7b3f a886 7a3f d447 7b3f e1d1 803f
00000010: 9dba 803f 0b58 793f e714 7c3f 5076 803f
00000020: 43ae 783f c391 7b3f b0bc 803f e2a2 793f
00000030: 6348 7c3f 62d2 783f 75a1 7d3f 5829 7f3f
00000040: cb14 803f 67b2 7f3f 14e7 793f b6b7 7d3f
00000050: d1ef 7a3f c92d 823f 5146 7c3f 975e 803f
00000060: ee53 803f e378 793f 6f8d 7e3f 51cd 7e3f
00000070: 6dcf 7e3f 3e5b 7d3f 3ea6 7d3f feb9 7f3f
00000080: 4568 813f 8bd2 833f 211a 7e3f c6cb 823f
00000090: eae4 7e3f 6ec1 773f 019d 813f bbb7 813f
000000a0: 1136 7b3f 6aaa 7c3f a49a 833f 3152 823f
000000b0: e0cc 823f 7829 863f 6dfe 7f3f 7967 7c3f
000000c0: 16ca 813f f412 793f d531 7f3f 5e4c 823f
000000d0: 2c62 7f3f ccac 813f 937e 7e3f 1ea1 753f
000000e0: 3ba6 833f b0a0 7f3f 1066 7b3f 34d1 813f
000000f0: d9e5 7f3f acdf 7c3f b8b1 7f3f d863 7d3f
00000100: d1ea 783f aa6e 803f bf46 783f 4b7c 7f3f
00000110: e21c 813f 96e8 803f 85f8 813f cd82 773f
00000120: 742f 7b3f d2e6 7c3f a9e1 803f c8b4 7f3f
00000130: 301e 7f3f 0665 7f3f 23e0 803f 7733 803f
00000140: fb39 7e3f 94fd 7b3f 9463 783f a7b4 853f
00000150: 9419 7d3f 007c 7f3f 4c4e 7a3f 48a1 823f
00000160: 4c75 803f 9ed5 7a3f 9e10 7a3f a444 7c3f
00000170: 3acb 7c3f cebe 813f f889 813f 71e5 7a3f
00000180: 042d 7a3f 8b1c 773f f107 7f3f 3152 803f
00000190: e54d 7e3f e091 813f 72e5 7b3f 0e8e 7d3f
000001a0: 3ee2 7c3f 1c5b 7e3f 5115 7d3f f9a4 783f
000001b0: f4ef 833f 09f4 793f d08b 7e3f 6c5c 783f
000001c0: 6597 803f 4c56 783f a9b9 803f 3a95 833f
000001d0: 9361 7d3f d399 733f c63b 7f3f 359a 843f
000001e0: 7027 7b3f 5a53 7e3f 1524 823f f088 7a3f
000001f0: 7119 7a3f 5751 7d3f 0229 803f 9080 803f
0.98147535 0.9786172 0.98156476 1.006405 1.005695 0.9739997 0.98469394 1.0036106
0.971409 0.9826929 1.0057583 0.97514164 0.98547953 0.9719602 0.9907449 0.9967246
1.0006346 0.99881595 0.9761822 0.99108446 0.9802218 1.0170223 0.98544794 1.0028867
1.0025613 0.97450083 0.9943456 0.9953204 0.99535257 0.9896735 0.9908179 0.99893177
1.0109946 1.0298628 0.9925862 1.0218437 0.99568045 0.96779525 1.0126039 1.0134195
0.98129374 0.9869753 1.0281568 1.0181333 1.0218773 1.0481405 0.999976 0.98595387
1.0139797 0.97294545 0.9968541 1.0179555 0.99759173 1.0130858 0.99411887 0.9594897
1.0285105 0.99854565 0.9820261 1.0141969 0.99960095 0.98778796 0.9988055 0.98980474
0.972333 1.0033772 0.9698295 0.9979903 1.0086939 1.007098 1.0153967 0.9668396
0.9811928 0.98789704 1.0068866 0.99885225 0.9965544 0.99763525 1.0068401 1.0015706
0.9930722 0.98433805 0.97026944 1.0445756 0.98867154 0.99798584 0.9777572 1.0205469
1.0035796 0.97982204 0.97681606 0.9854224 0.987476 1.0136354 1.012023 0.9800635
0.9772494 0.9652793 0.9962149 1.0025083 0.9933761 1.0122643 0.9839698 0.99044883
0.9878272 0.9935777 0.9886065 0.9712673 1.0307603 0.97637993 0.99432087 0.97016025
1.0046202 0.9700668 1.0056659 1.0279915 0.9897701 0.9515659 0.9970058 1.035956
0.9810705 0.99345934 1.0167261 0.978652 0.9769507 0.9895224 1.0012515 1.0039234

bn1.bias f4 [128]
00000000: d5d5 64bc 55a7 0cbc 3832 183c 2f24 443a
00000010: fe71 cb3c 68fc 493c 41df f9bc 74e0 67ba
00000020: 9236 d73c 800a e23b 58d9 c8bc e1dc 6a3b
00000030: 3d53 2f3d f1f7 153c 3388 2dbc bdb6 17bd
00000040: 78fe 87bb 6931 e73b 2f21 8f3b 45ae 133c
00000050: d183 963c a844 afbc 6bf6 0b3b d05b 7abc
00000060: 3d06 b33b a6af ad3c 23fe bfbc b6c4 c4bc
00000070: ed6b f13b 4495 913a cb48 f839 96d5 333c
00000080: 1906 bd3c afd5 03bc ee2b 55ba 0e22 bbba
00000090: ee21 8b3b e0e8 96bc 6e12 973c c7bc 403c
000000a0: f955 8938 17fa a63c c6cc 10bc e1d3 d13c
000000b0: 1045 743b 4cc3 cf3a 8236 823b 0f4f 053d
000000c0: a439 65bb a986 a63c b754 22ba ccb7 933b
000000d0: ee8f 353c 8091 0fbd 818b aaba 00a9 5c3b
000000e0: b0d7 5a3c abf0 673c 6052 6a3c f0f9 c8ba
000000f0: 1a95 2e3c 8bea 5dbc d2d5 d43b bbb3 233c
00000100: 0e85 1e3c e0d1 e6bb 8265 30bc f90c 193d
00000110: 2e21 20bd 43d1 d4bb 4cec dcbc afdb b9bc
00000120: 53f8 c1bc 3bc0 6cbc 9070 88bb 45a6 323d
00000130: 879f 8d3c 5dc5 b43c 0a24 ef3a 4fb9 083c
00000140: 7058 713c 6876 caba 32d9 663c 1b76 b03c
00000150: aac6 d0bb c40d c13c b0c9 043c 9ac4 dbbb
00000160: f6af d9bc 2eaa 6a3b 6b84 303d 4618 f73c
00000170: 8319 05bc f92b b2b9 e9b6 5abc 793f e83c
00000180: 41b2 f83b bba3 703b 5d69 4fbc 6e3a febb
00000190: 44b1 6dbc 448b a7bc bf3c 07bc eec2 293c
000001a0: 61f4 6d3c 60cb c4bb 2c50 16bb 0cf7 25bd
000001b0: bba3 9e3b 93d6 343b 8c4c cf3a 8489 1e3c
000001c0: 61c2 1a3c 4b8b 4b3d e628 85bb 55d8 d6bc
000001d0: 967b 4e3c 6d30 05bc 70b3 fe3a 6134 8a38
000001e0: 81ff debc 997c f93b 35c7 caba 571f 0a3a
000001f0: 1fa3 0dbb 92bf 54bc bfc7 aabb 804b 393c
-0.013966997 -0.008584817 0.009289317 0.00074821984 0.02483463 0.012328245 -0.030501964 -0.0008845397
0.026271138 0.0068982244 -0.0245177 0.003583722 0.04280399 0.009153352 -0.010591554 -0.037039507
-0.004150208 0.0070554507 0.0043679695 0.009013717 0.018373402 -0.021395043 0.0021356593 -0.015280679
0.00546339 0.02120192 -0.023436612 -0.02401958 0.007367602 0.0011107107 0.0004735648 0.010976216
0.023074197 -0.008046552 -0.0008131851 -0.0014277117 0.004245988 -0.01842159 0.018441405 0.011763758
6.548683e-05 0.020382924 -0.008837884 0.025613727 0.003727261 0.001585105 0.003973783 0.0325461
-0.0034976983 0.020327883 -0.0006192433 0.0045079943 0.011081679 -0.03505087 -0.0013011546 0.0033670068
0.013357088 0.014156501 0.014301866 -0.0015333276 0.010655666 -0.013544689 0.006495216 0.009991582
0.009675277 -0.007044062 -0.010766389 0.037365887 -0.039094143 -0.0064946725 -0.026968144 -0.022687761
-0.02367798 -0.014450128 -0.004163809 0.0436156 0.017287983 0.022066766 0.0018244993 0.008344962
0.014730558 -0.0015446665 0.014089869 0.021540692 -0.006371339 0.023566134 0.008104727 -0.0067067863
-0.026573163 0.0035807001 0.043095034 0.030162942 -0.008123758 -0.00033983568 -0.013349273 0.028350579
0.007589609 0.0036718685 -0.012659398 -0.00775843 -0.014507595 -0.02045215 -0.008254229 0.010361416
0.0145235965 -0.0060056895 -0.002293597 -0.040518805 0.0048412955 0.0027593717 0.001581566 0.009676341
0.009445758 0.049693387 -0.0040637134 -0.026226202 0.012602707 -0.008129221 0.0019432139 6.590109e-05
-0.027221443 0.00761373 -0.0015470745 0.0005268952 -0.002161212 -0.012985127 -0.0052118 0.0113095045

bn1.running_mean f4 [128]
00000000: a5f9 b9bd 51d7 233d cd80 b4bb 6bc9 a33d
00000010: ddec b0bc e86e 0dbd c238 c13c 0668 16bc
00000020: aa49 663d 347f 523d f398 243c 9c27 be3c
00000030: 76ee 50bd 1d8b 1c3d cf1b 6e3d 3d2e e63c
00000040: 5c96 acbd aedc e4bc 54ea 8d3d 4d97 d5bc
00000050: 17f5 13bd f04b ddbb 3d67 f8bc 1073 983d
00000060: cf28 49bd d2d7 f73d bad8 47bd 0bd2 2dbb
00000070: 4260 bfbc 0b0b b93d d388 dc3d 4b45 81bd
00000080: 0ff5 433d f6af e83d 85a1 92bd 419c 98bd
00000090: 26a6 9c3d b920 0d3d 94d2 523d 786e 79bc
000000a0: f0af 79bb 0c09 173d f5d0 f53c 822a 683d
000000b0: c3de 77bd 875c 753c 7b5c c9bc c357 cc3d
000000c0: a96c 83bd 1193 c5bd 1464 55bd 483c edbc
000000d0: b88b a1bd 5a5e bebd 6828 883c 64d2 d13d
000000e0: 9672 f33b 0f6d e1bd 5cda 28bd 219d f7ba
000000f0: 049b 053d 411f 23bc ab28 8dbc 46dd 5a3c
00000100: 0043 cbbc 5890 9abd 4443 bd3c bfbd 8e3b
00000110: bd61 433d 43be 183e 625d dabd c95d 43bd
00000120: 08ed f03c 8041 fa3c 6b69 a13d c0ca ce3d
00000130: 8608 b33d 0159 343b 1ac7 9fbd 0275 92bd
00000140: 1d49 b83c 1709 e83d 3cc2 693d 451a 743c
00000150: 8616 6a3c b4a0 583d 10c0 963b 78b1 1a3d
00000160: 9c96 29bc 3f70 8bbc 6004 7ebd 4af7 0d3d
00000170: b160 1cbd ac10 b73b 8f4d 803c ea98 c73c
00000180: c1a4 133d 482a 193e 30a3 d83d 2c10 5ebc
00000190: 221c 21bd a097 cf3d c254 9a3c 2e1e a2bd
000001a0: 508d 36be ba25 833b 0b14 48bc 0716 623d
000001b0: 270d 41bd 933e c6bd f9ae 6cbd b35e b93d
000001c0: 7d7f 47bc 6fd3 a53b b74d b83b b46b c7bd
000001d0: b3cc 9cbd f420 7cbd 978a a03d dab6 dabb
000001e0: 2018 d43c 9abf 503a 00f5 bcbd 26c2 323d
000001f0: d62b 86bd 85e2 52bd 8a88 913d 76eb cbbc
-0.09080819 0.040000264 -0.0055085183 0.07997402 -0.02159732 -0.034529597 0.023586635 -0.009180075
0.056222595 0.05139084 0.010046232 0.023212247 -0.051008664 0.038218606 0.05813199 0.02809822
-0.08427116 -0.02793726 0.0692946 -0.026073122 -0.036122408 -0.006753437 -0.030322665 0.074438214
-0.049111184 0.12101711 -0.04879067 -0.00265229 -0.023361329 0.090353094 0.10768285 -0.06312045
0.047841128 0.11361687 -0.07159714 -0.07451678 0.07648878 0.034455035 0.051470354 -0.015224092
-0.0038099252 0.036873862 0.030006865 0.056681164 -0.060515177 0.0149756735 -0.024580231 0.09977677
-0.0641721 -0.09647191 -0.052097395 -0.028959408 -0.07887977 -0.0929534 0.01662083 0.10245207
0.007429431 -0.110071294 -0.04122387 -0.0018891433 0.032618538 -0.009956182 -0.017231306 0.01335842
-0.024812222 -0.07547063 0.023103364 0.0043561156 0.047700632 0.14916329 -0.106623426 -0.047696862
0.0294099 0.030548811 0.07881435 0.10097265 0.0874186 0.002751887 -0.078016475 -0.07151224
0.0224958 0.11329859 0.057070002 0.014898841 0.014287597 0.052887633 0.0046005324 0.037766904
-0.0103508495 -0.017021297 -0.06201589 0.03465966 -0.03817815 0.0055867042 0.015661983 0.024364907
0.036045793 0.14957535 0.105780005 -0.01355366 -0.03933347 0.10136342 0.018839244 -0.079159126
-0.17827344 0.0040023 -0.01221181 0.05519679 -0.047131684 -0.09679904 -0.057784054 0.090512656
-0.012176392 0.0050606052 0.0056244987 -0.097373396 -0.07656231 -0.061554864 0.07838934 -0.0066746296
0.02589041 0.0007963121 -0.092264175 0.043642186 -0.0655133 -0.051485557 0.07106121 -0.02489255

bn1.running_var f4 [128]
00000000: 347f 6a3a 0c8c 543b 8f0e ed39 015e d63b
00000010: 1308 1e3a c8e6 143a 7bfa 063b 1247 bd39
00000020: 3a8a 453a cae2 343a 80bc ac3a d9a7 053a
00000030: eeb2 b039 67e3 1c3a 73ce 9a3a 97f6 e33a
00000040: c1b3 e23a 535d 003a 149e 073a e19f 383a
00000050: f131 203a d9a8 783a e29e 9c3a e4c7 103b
00000060: b9f4 3e3a c6bd 903b a995 053a cb83 093a
00000070: dedd c639 4a3c 7d3a 36c9 e339 f18c a839
00000080: c93d d03a aac8 383b 918a c73a a851 e539
00000090: c3e7 603b a230 e239 9e3e 803a 62d8 883a
000000a0: aae0 3039 5818 113a 2a65 d839 5966 603a
000000b0: fc8f f13a 0e90 163a 928f 663a c7e7 473b
000000c0: fc52 c83a c011 003b 0b90 963a 11d1 273a
000000d0: cda2 903a 0b06 033b 02a0 4439 2e1c ff3a
000000e0: 4e8b 273a ca80 cb3a 5fde 513a 9b29 0d3a
000000f0: 7ea3 443a 351a c839 be84 b83a ddcb 8f3a
00000100: 55fc 5939 c736 243a 5c99 cb39 a073 0d3a
00000110: 8ece 953a 334e 893b fb28 a23a 1ac8 ca3a
00000120: d800 fc3a 8c02 853a 8fde d23a ac25 803a
00000130: 0cdd b03a 5bbb 8139 4908 f63a ff63 943a
00000140: 1996 053a fa59 dc3b 54b5 d83a d3ed 343b
00000150: 6229 573a 2cca 5e3a be33 de3a 5b78 b93a
00000160: 4313 843a 35b1 b53a a8d0 1c3a 8861 573a
00000170: 6f7b 443a 20c5 b83a 3255 1c3a e724 843a
00000180: 88b8 223a 7864 3c3b 3fda f73a 7fac 6139
00000190: f5a0 273a 006d c83b e59a ee39 f74b 663b
000001a0: f8fa cc3b 46d7 213a 0f6f 043a bc74 3c3a
000001b0: 1358 b43a 3ed8 be3a d7cc d63a 921b af3a
000001c0: 5b72 233b bba7 d639 d389 c43a 43f2 cc3a
000001d0: ca8c 843a 0c77 923a f004 873a b619 a53a
000001e0: 665f df39 fd6e 813a 8de2 113b 600a d03a
000001f0: a204 ca3a 1b8f 9d3a 99eb 873a 01ec 1d3a
0.00089453463 0.0032432107 0.0004521501 0.006541968 0.0006028425 0.0005680141 0.0020596075 0.0003610184
0.0007535551 0.0006900249 0.0013178736 0.00050985586 0.0003370265 0.00059848133 0.0011810794 0.0017392215
0.0017296002 0.0004896719 0.0005173397 0.0007042867 0.00061109575 0.00094856095 0.0011949206 0.00220918
0.00072843913 0.004417154 0.00050958485 0.0005245774 0.00037930807 0.0009660168 0.00043446728 0.00032148467
0.0015887554 0.0028195777 0.0015223791 0.00043739122 0.0034317828 0.00043142313 0.0009784286 0.0010440464
0.00016868362 0.00055349385 0.00041274104 0.0008560173 0.0018429752 0.0005743512 0.00087951974 0.003050314
0.001528352 0.001954183 0.001148702 0.0006401698 0.0011034847 0.0019992616 0.00018751624 0.0019463354
0.00063913024 0.0015526053 0.0008005853 0.0005384923 0.0007501169 0.00038166498 0.0014077646 0.001097079
0.00020788734 0.0006264266 0.0003883344 0.00053959526 0.0011429356 0.0041902303 0.0012371832 0.0015471012
0.0019226326 0.0010147854 0.0016088056 0.0009776852 0.0013493611 0.00024744388 0.001877078 0.0011321305
0.00050959137 0.006724593 0.0016533532 0.0027607575 0.00082077656 0.0008498754 0.0016952676 0.0014150249
0.0010076541 0.0013862016 0.000598202 0.00082161324 0.00074951997 0.0014096834 0.0005963623 0.0010081799
0.0006207307 0.0028746407 0.0018909647 0.00021521932 0.0006394529 0.0061165094 0.00045510303 0.0035140493
0.0062555037 0.0006173741 0.00050519494 0.00071890256 0.0013759158 0.0014560295 0.0016387951 0.0013359657
0.0024939987 0.0004094223 0.0014994688 0.0015636164 0.0010112759 0.0011174395 0.0010301154 0.0012596163
0.00042604952 0.0009874996 0.002226028 0.0015872233 0.0015412758 0.0012020798 0.0010369896 0.0006024242

lstm2.weight_ih_l0 f4 [256, 128]
00000000: 7d13 bfbd 1e0b acbc 70ab f1bd 7774 bf3c
00000010: b3e5 8a3d 1d7e 8fbd 9b8a 963d 0115 05be
00000020: 3ef6 45bd 29b4 633c 4877 bf3d 9ecc e53c
00000030: a0d9 8e3d bb00 1cbc 7a87 12bd ca57 76bd
00000040: 8c8a 183e 6321 53bb bb8f aebc fc7c e5bd
00000050: be33 17be e05b 2d3d 619b 133d 2405 cfbd
00000060: 37d9 e33d 6b65 2abd f324 e8bd 8ef4 4ebb
00000070: a8e5 1abd a8da 5ebd bd5c 00be b5f7 a0bc
00000080: 7722 9ebd 5ac2 ee3c 4a7a 83bd 79f9 553d
00000090: 8ee7 3fbd 3936 6bbd ae4b 2fbd b32b 093d
000000a0: 25a7 a73d 1607 36bd 07bb 9d3c 67b4 8bbd
000000b0: 64d8 5ebd f4bc ca3d ec02 bd3d 1cf9 ccbd
000000c0: 02f3 a4bd b716 873c 88ba 09be 2120 be3d
000000d0: 4fc4 873b 8344 933d 96ce b8bd 33a1 9ebd
000000e0: 4854 f03c fc88 0bbd 06d4 e13d dbed b7bd
000000f0: abbf 193d 6521 f43d ca2f eb3c 9e51 a8bd
00000100: 112f 623d 99c2 443d 6c93 52bb 6364 a1bd
00000110: db2c 86bd dc5e 103b 9664 ee3d eb72 23bd
00000120: df95 633d eb52 c83d 6209 a13c 1015 9fbd
00000130: 9d44 eb3d b38f 173c b8a9 a0bd e07a 243d
00000140: ab5f 4d3d d12a 90bd 83ca e8bb 91b1 353c
00000150: 0530 a6bd 6d39 233c 67bf f63d 545a 473d
00000160: 76c9 dc3d 20dd c53b e97a 8ebd 63ee 8ebd
00000170: a933 eebd 2de3 a7bd 12f7 893d 4882 cc3d
00000180: 55a5 b73d ee31 53bd 6c87 92bd d368 17bd
00000190: b5b2 c1bd 2b09 383d 3896 dfbd bec2 42bd
000001a0: 3e12 42bd f6c7 cebd c20b 94bd 3c6c d13c
000001b0: 6917 abbd 3799 c13d 50e8 e83d 2c2d 7bbd
000001c0: 11c2 223d 8849 fd3c 3b65 b5bc 86c6 953c
000001d0: 6475 b2bd f403 e33c c35f cebb 31b5 7ebd
000001e0: 2e3f 83bc 7bc9 92bd 764b 29bd c45a 38bd
000001f0: 2dfc d03d a4fd 953d 8840 f83c 1460 abbd
00000200: 81a4 e33d 9812 163c 7ff0 f6bd 8df0 303d
00000210: d31c 093d 8dbf 61bd 9fa6 b9bd ac5f aa39
00000220: a6c4 70bd 75fc 433d 603e 9a3d fd44 17be
00000230: 6815 00be 8ace 9b3c fd77 f83d 8f2d dd3d
00000240: 9e38 a9bd 3965 a83d 5156 8b3d fd87 02bd
00000250: fc81 e63c e081 e4bd 5c77 ea3d bff6 07bb
00000260: d66c b3bb 20f4 95bd b230 6b3c 48ca 073d
00000270: f4d0 43bd 557e 903d 85d6 07bd 1f92 053d
00000280: 83c5 db3d 4506 54bd b32b c53d be81 833d
00000290: e62a 7c3b 082e b83d 9641 8c3d 716a bebd
000002a0: f07c 36bd 6e8d 2abd d35e 1b3d b8ca 3b3d
000002b0: 995a 2bbd d784 d63b 184a d0bd b762 77bd
000002c0: 24fd 7a3c 6779 ca3d ff3f fcbd 37fc 843d
000002d0: a883 f33d fcc7 bcbd 47a8 913d 77c3 a33d
000002e0: 4d02 05bc d5a9 8e3c 29c2 3fbd abe3 a43d
000002f0: e206 f03d fd38 b83d adb5 9dbd b13d 87bd
00000300: ccfe 0d3d f0e7 b13d 0bc0 f13d 281a aebc
00000310: 2439 993c 04e6 de3d 6083 f13d 46fd c83c
00000320: 2566 3bbc b493 423d dd59 393d 3c8f 4a3d
00000330: 4fa9 e83d dc5f f53d 2c87 b6bd 1530 253d
00000340: 81f9 93bd e1a5 c53d 0cd2 c1bd a388 d8bd
00000350: 4f74 253b d300 8c3d f9bb 34bd 0b62 b53c
00000360: 9dd7 dd3c 4672 88bd 33e8 c6bd 826c 89bc
00000370: 5e77 a8bc b30f 863d edf0 a13d d65e 0abd
00000380: 7bb0 3cbc 1b5f 123e 7e4c a33d 7c9e acbd
00000390: 0ec9 eebc 87df b53c 5522 a1bd 0f0c e2bd
000003a0: ba40 cdbd 5511 83bd ad3f 933d c364 593d
000003b0: 11ee 753b 9474 eb3d f9ae c33d 8c21 383d
000003c0: 722a a83c 9218 ac3d e190 a93d 1c69 773d
000003d0: 2e66 0abe 6955 1dbb 3b58 efbd bb94 ed3d
000003e0: c1a4 89bd 8de5 9cbd c51b bdbd a759 26bd
000003f0: 9be7 d13c 406f c0bd 4aff c9bd f851 eb3c
-0.09329889 -0.021001395 -0.11800277 0.023370964 0.06782093 -0.07006476 0.07350656 -0.12996294
-0.048330538 0.013897934 0.09348923 0.02805167 0.069751024 -0.0095216585 -0.03577373 -0.060142316
0.14896601 -0.0032215945 -0.02130877 -0.112054795 -0.14765832 0.042323947 0.036036853 -0.10108402
0.11125415 -0.041600626 -0.113351725 -0.0031578871 -0.037816674 -0.054407746 -0.12535377 -0.019649366
-0.077214174 0.029145408 -0.06419809 0.05223987 -0.046851687 -0.057424758 -0.042796783 0.03348894
0.08186177 -0.04444035 0.01925422 -0.068215184 -0.054405585 0.09899321 0.09229073 -0.10008451
-0.080541626 0.016490323 -0.13450062 0.09283472 0.004143275 0.07190802 -0.09023778 -0.0774559
0.029337063 -0.034066185 0.110267684 -0.08980914 0.037536304 0.11920432 0.028709311 -0.08218692
0.055220667 0.048037145 -0.0032131327 -0.07880475 -0.06551524 0.0022029197 0.11640279 -0.039904516
0.05556285 0.0978144 0.019657794 -0.07767689 0.11487696 0.009250569 -0.07844871 0.040156245
0.050140064 -0.070394166 -0.0071042194 0.011089698 -0.08114628 0.009962422 0.12048226 0.048670128
0.10780613 0.006038323 -0.06957037 -0.069790624 -0.11630947 -0.08197627 0.06736578 0.09985787
0.089670815 -0.05156129 -0.07154736 -0.036965203 -0.09457914 0.04493062 -0.10917324 -0.047549002
-0.04738068 -0.10096733 -0.07228805 0.025564305 -0.083540745 0.094530515 0.11372435 -0.061322376
0.039735857 0.030918851 -0.022142997 0.01828314 -0.08713797 0.027711846 -0.006298037 -0.062184516
-0.016021337 -0.071673356 -0.04133173 -0.045008436 0.10204349 0.07323769 0.030304208 -0.08367935
0.11115361 0.0091597065 -0.1205759 0.043198157 0.033474755 -0.055114318 -0.090649836 0.00032496208
-0.05878129 0.047848184 0.07531428 -0.1477241 -0.12508166 0.019019384 0.12132261 0.10799705
-0.08262752 0.08222432 0.06803573 -0.03186797 0.028138153 -0.11157584 0.11448547 -0.0020746437
-0.0054756207 -0.07321954 0.014354872 0.033151895 -0.047806695 0.07055346 -0.033163566 0.032610055
0.10731032 -0.05176379 0.096274756 0.06421231 0.0038477718 0.08993155 0.06848447 -0.09297646
-0.044552743 -0.041638784 0.03793223 0.045847625 -0.041834448 0.0065465975 -0.10170382 -0.060396876
0.0153191425 0.09886437 -0.12316894 0.06493419 0.11890346 -0.092178315 0.071121745 0.07996266
-0.008118224 0.017414967 -0.046816025 0.08051237 0.11720063 0.08995245 -0.077006675 -0.066035636
0.03466682 0.08686817 0.118042074 -0.021252707 0.018704005 0.10883716 0.11792636 0.024534833
-0.011437927 0.047504142 0.045251716 0.049453005 0.11360418 0.11981174 -0.08912501 0.040329058
-0.072253235 0.096507795 -0.094638914 -0.105729364 0.0025246327 0.06836095 -0.044124577 0.022141477
0.027080351 -0.06662421 -0.09712257 -0.016775373 -0.020564731 0.06545963 0.07907281 -0.03378185
-0.011516686 0.14294092 0.07973574 -0.08428666 -0.029148605 0.022201313 -0.078678764 -0.11037456
-0.10022111 -0.0639979 0.071898796 0.05307461 0.0037525932 0.11496845 0.09554858 0.044953868
0.020528052 0.08403124 0.082795866 0.060402974 -0.13515541 -0.0024007207 -0.116867505 0.11600634
-0.067208774 -0.07660971 -0.09233812 -0.040612843 0.025623133 -0.09396219 -0.09863146 0.02872561
