backend/ml/research/models/crash_survival_lstm.pth (torch, 494321 bytes, 19 tensors)

lstm1.weight_ih_l0 f4 [512, 5]
0.015672678 0.043544788 -0.014138833 0.027952837 0.066181004 0.027721325 -0.012392643 0.09738571
0.09312881 -0.070671 0.14657366 0.13288333 0.041510113 0.044016995 0.0133622 0.08939639
0.0629688 0.049970847 0.080362864 -0.15268661 -0.07930869 -0.040203232 -0.006914732 -0.120064825
0.09414234 -0.056161445 0.03213113 0.01985365 0.07374547 -0.09849472 0.13568185 0.03604501
0.084424995 0.021229682 -0.05751062 -0.0071355053 -0.0004332838 0.058376744 -0.014312225 -0.043895658
0.011073013 -0.04570881 0.10518168 -0.024158891 -0.026050238 0.11999151 -0.024087427 0.030475592
-0.023451848 -0.0193121 -0.05454452 0.04849368 -0.08086615 0.05711385 -0.045207545 0.07117207
0.016666513 -0.055388816 -0.023474373 -0.020198692 0.072362915 -0.051316045 0.034587648 0.070030294
-0.047168754 0.07632201 0.00049066555 -0.00240287 0.15308864 -0.06154477 -0.075303055 -0.011233144
0.081037946 0.09940998 -0.070095554 0.0104134325 0.020044116 0.00051533943 0.10014946 0.05024894
-0.027176658 0.1269129 0.02745595 0.029754505 -0.05647677 -0.030495405 0.08751896 -0.041937627
-0.01804661 0.06814293 -0.026763557 0.120674945 -0.043774083 0.08631859 -0.0059304894 0.06313656
0.11681461 0.014129 0.08751554 -0.08511875 -0.001269147 0.13458237 -0.021893654 0.096728645
-0.0632804 -0.031481057 -0.007224467 0.014104156 0.012296101 -0.056322355 0.029991224 0.06529585
0.036526974 -0.01463568 0.012094685 -0.052046295 -0.016523592 -0.10910475 -0.025546065 0.054432478
0.008387669 0.05732998 0.05525025 0.038469676 -0.0018781004 -0.01780104 0.05387853 0.08154123
0.011008157 0.05730779 0.03877776 -0.010686125 0.059335127 0.047021855 -0.08186768 0.0569874
0.06453332 0.13801306 0.03211699 -0.037543043 -0.0050193984 -0.017152406 -0.027908228 -0.005919593
0.04097989 0.09118709 0.05429671 0.05660143 0.098698445 -0.0056154206 -0.021322135 0.0056365957
-0.0071127634 0.02204691 0.087525055 0.07401083 0.010428911 -0.045314465 -0.036005303 0.06957553
0.012167441 0.08546287 0.008750317 0.09123864 -0.016838692 0.038589537 -0.064162806 0.09193871
-0.034817092 0.023448776 0.018450106 0.08994334 0.08163766 0.02855239 -0.17067485 -0.008256485
0.09353258 0.086406596 0.08690403 -0.01476277 -0.03888243 0.08565082 0.043423206 0.048751898
-0.070196316 0.05923864 0.082951695 0.07148201 -0.023231851 0.05824407 -0.03491939 0.11150899
0.13069434 0.0004843081 -0.013335629 -0.018860321 0.070945315 -0.042078193 0.011312899 0.008763637
0.047995023 0.09077721 0.06373733 0.04797746 0.024739595 0.07558721 -0.023947353 0.06597718
0.13271773 -0.029409237 0.13572335 0.094206914 0.09717489 0.025937557 -0.00081872416 0.011948048
0.015599944 -0.053438924 -0.005117561 -0.06106178 -0.048590623 -0.06007724 -0.077542394 -0.17711262
0.071656644 0.060507048 0.11832687 0.102502435 0.09227731 -0.06933406 0.085007675 0.08727197
0.0037141722 -0.008379239 -0.08850465 0.045660645 0.045182485 -0.048351713 -0.03182406 -0.029956678
0.04268451 0.0289027 0.056908842 0.05477624 -0.04199242 -0.018670332 0.023597533 0.04033277
-0.04430694 -0.13067605 0.07571417 -0.011753088 -0.07081731 -0.022958998 0.066384025 -0.04740575
00000000: fd63 803c 055c 323d 90a6 67bc 59fd e43c
00000010: e889 873d d517 e33c 830a 4bbc 2972 c73d
00000020: 51ba be3d f5bb 90bd 6817 163e 9112 083e
00000030: 8206 2a3d 2a4b 343d 21ed 5a3c 7415 b73d
00000040: c9f5 803d 3bae 4c3d 4995 a43d e159 1cbe
00000050: 986c a2bd 25ac 24bd fa94 e2bb 8ce4 f5bd
00000060: b3cd c03d 8b09 66bd ef9b 033d 1fa4 a23c
00000070: dd07 973d 9ab7 c9bd 2ff0 0a3e efa3 133d
00000080: 03e7 ac3d dfe9 ad3c 4290 6bbd f5d0 e9bb
00000090: 5e2a e3b9 741c 6f3d d37d 6abc efcb 33bd
000000a0: 956b 353c 2939 3bbd 7e69 d73d dee8 c5bc
000000b0: 4f67 d5bc 1cbe f53d ff52 c5bc f3a7 f93c
000000c0: 171e c0bc 6934 9ebc 136a 5fbd 4fa1 463d
000000d0: 279d a5bd 36f0 693d 8c2b 39bd aac2 913d
000000e0: 3688 883c 62df 62bd 544d c0bc ba77 a5bc
000000f0: 0233 943d c630 52bd c7ab 0d3d 0b6c 8f3d
00000100: 0634 41bd b74e 9c3d 02a0 003a 7879 1dbb
00000110: 45c3 1c3e 5e16 7cbd 7d38 9abd 390b 38bc
00000120: 39f7 a53d 7697 cb3d 428e 8fbd 1a9d 2a3c
00000130: 8f33 a43c d817 073a 291b cd3d d5d1 4d3d
00000140: 95a1 debc 75f5 013e 4deb e03c b8bf f33c
00000150: 3054 67bd 80d1 f9bc 243d b33d cac6 2bbd
00000160: 7cd6 93bc 858e 8b3d 3f3f dbbc 6d24 f73d
00000170: 744c 33bd cdc7 b03d 8d54 c2bb be4d 813d
00000180: 803c ef3d 527d 673c 593b b33d bd52 aebd
00000190: 8259 a6ba f6cf 093e 525a b3bc ab19 c63d
000001a0: 2899 81bd 48f2 00bd 39bb ecbb 1e15 673c
000001b0: 9675 493c 45b2 66bd 28b0 f53c d5b9 853d
000001c0: 4f9d 153d 7eca 6fbc c928 463c 7f2e 55bd
000001d0: 7c5c 87bc 5072 dfbd fb45 d1bc 97f4 5e3d
000001e0: 6f6c 093c d7d2 6a3d 164e 623d 6192 1d3d
000001f0: 982a f6ba 7dd3 91bc bcaf 5c3d 17ff a63d
00000200: 8f5b 343c 93bb 6a3d 6ed5 1e3d db14 2fbc
00000210: 6409 733d fd99 403d 3eaa a7bd 9f6b 693d
00000220: 0c2a 843d 4c53 0d3e 1b8d 033d bcc6 19bd
00000230: c479 a4bb 3483 8cbc cc9f e4bc 25f9 c1bb
00000240: 87da 273d 4cc0 ba3d 3a66 5e3d e7d6 673d
00000250: 6922 ca3d 9001 b8bb c2ab aebc 31b3 b83b
00000260: 2f12 e9bb b99b b43c 5640 b33d fd92 973d
00000270: 06de 2a3c a99b 39bd 4c7a 13bd 9e7d 8e3d
00000280: f259 473c 2807 af3d 7d5d 0f3c 53db ba3d
00000290: 4cf1 89bc 1010 1e3d ca67 83bd 5d4a bc3d
000002a0: 5e9c 0ebd a617 c03c ad24 973c 3734 b83d
000002b0: a531 a73d b4e6 e93c 63c5 2ebe 3546 07bc
000002c0: 028e bf3d f1f5 b03d bdfa b13d 8cdf 71bc
000002d0: 2f43 1fbd b269 af3d 88dc 313d 12b0 473d
000002e0: 16c3 8fbd 37a4 723d 94e2 a93d 2965 923d
000002f0: b950 bebc 5591 6e3d a207 0fbd d35e e43d
00000300: bdd4 053e bcea fd39 af7d 5abc f680 9abc
00000310: c74b 913d 2f5a 2cbd bd59 393c 5c95 0f3c
00000320: 6e96 443d 67e9 b93d b888 823d 0384 443d
00000330: b1aa ca3c 78cd 9a3d 3d2d c4bc 0b1f 873d
00000340: 28e7 073e a4eb f0bc 10fb 0a3e 8eef c03d
00000350: a103 c73d 007b d43c a69f 56ba bfc1 433c
00000360: e896 7f3c c6e2 5abd 37b1 a7bb eb1b 7abd
00000370: f606 47bd 8d13 76bd 8cce 9ebd 035d 35be
00000380: b8c0 923d 3dd6 773d 5c55 f23d ccec d13d
00000390: e3fb bc3d 04ff 8dbd 8118 ae3d a6bb b23d
000003a0: 7869 733b 1349 09bc ed41 b5bd a806 3b3d
000003b0: 4511 393d 720c 46bd f259 02bd b567 f5bc
000003c0: f4d5 2e3d 5bc5 ec3c 3f19 693d 0d5d 603d
000003d0: 3e00 2cbd 86f2 98bc 9d4f c13c fa33 253d
000003e0: 327b 35bd f1cf 05be 0810 9b3d 0690 40bc
000003f0: aa08 91bd 8214 bcbc 59f4 873d 882c 42bd

lstm1.weight_hh_l0 f4 [512, 128]
-0.055324007 0.02764419 -0.050991744 0.035723917 -0.015951388 -0.0780549 0.020175513 0.055022467
0.058085583 0.08689711 0.05372769 -0.007128263 0.022063266 -0.06887216 0.05260113 0.015542529
0.035425004 -0.053098794 0.0004406295 0.04176994 -0.02960751 0.0060228477 -0.051238634 0.06487029
0.029236298 -0.019611776 -0.081286296 0.0812878 -0.05559125 -0.040330525 0.058329385 0.032962464
-0.014297785 -0.09603711 -0.08836771 0.012384061 0.04405759 0.017185913 -0.03133848 -0.06476488
-0.012306634 0.055683654 0.07019102 0.056579445 0.019310009 -0.054277107 0.016423676 0.053698648
0.02792712 0.022662716 0.05019621 0.006448551 -0.072957836 0.01339731 -0.059094332 0.07401591
0.01673187 0.084186114 0.081044346 -0.052519534 -0.0149471015 0.019335391 0.049745873 0.007503334
-0.008545689 -0.03765305 0.03844641 -0.09021588 0.065703586 0.033300906 0.05164214 0.08369012
0.08112934 -0.008513375 -0.068574324 -0.058040734 0.08523918 0.033638477 0.06967797 0.011339587
0.06722681 0.070390716 -0.04192702 0.03861446 0.06747891 -0.00014753823 -0.007467133 0.037661467
-0.069181666 -0.08292011 0.07504693 -0.06330367 0.06529683 0.07458148 -0.08374593 0.030836534
-0.067471 -0.002257236 0.025022548 -0.08046247 -0.006814033 -0.07070899 -0.051431574 -0.035498742
-0.034254216 -0.05926354 0.07278761 0.01572661 0.071882054 -0.076412044 0.09458378 -0.015406604
0.07982902 -0.07775845 -0.05908124 0.023298595 0.06467443 -0.0074427756 -0.0403695 -0.0065659834
0.036355816 0.036208738 -0.073068835 -0.09727782 0.009533018 -0.020853098 0.021199735 0.07861707
0.045608003 -0.06368141 0.024171464 -0.022482287 -0.00989391 -0.0072119464 0.06988372 -0.037877437
0.01398507 0.07182499 -0.019065544 0.012902702 -0.026053865 -0.043267526 -0.06907614 0.031487986
-0.007975569 0.010337276 0.10421347 0.00092883 -0.060022265 -0.04196405 0.0048070583 0.10984156
-0.052465215 -0.024136988 -0.068926476 0.034570567 0.05472011 0.016540129 0.037582003 -0.09900484
0.06909939 -0.099975206 -0.06867179 -0.018511157 0.10256273 -0.052479956 -0.044768225 -0.07376616
-0.012223757 0.08293773 0.04460088 0.06794707 0.10420988 -0.041884836 0.07359684 -0.021585405
-0.014133391 -0.029325958 0.068686515 0.105679296 0.019761937 -0.037284814 0.008999759 0.056959428
-0.067229636 0.05493343 0.039956696 -0.076160796 -0.06611156 -0.07348134 0.04743383 -0.033822704
-0.045820214 -0.022183593 -0.06491203 0.0038763871 0.014162587 0.014523265 0.09990488 -0.02544426
0.031237718 0.02242882 -0.031783614 -0.07354973 -0.023109477 0.05083868 -0.009323794 -0.06158933
-0.07606912 0.04664688 -0.0063242116 0.05148344 0.033772655 0.062417705 0.019192733 -0.06600271
0.08976071 -0.011838569 -0.054725915 0.08456034 -0.022320002 -0.02820113 0.040386602 -0.096775465
-0.042392604 -0.07132144 0.094548725 0.004405723 -0.021040797 -0.0860637 0.05386247 -0.025781836
0.060653362 -0.0042925104 0.021590866 -0.07264417 -0.05058366 -0.06971047 0.0036034693 -0.044346098
0.064323954 0.0022278149 -0.030858442 0.084084004 -0.05753624 -0.0025617005 -0.009478446 -0.08918488
0.010239934 -0.106913686 -0.027111389 -0.027399976 -0.019242704 0.108489506 -0.02707234 -0.04576861
00000000: 6d9b 62bd 1176 e23c b8dc 50bd 3e53 123d
00000010: 7cac 82bc 3fdb 9fbd 1e47 a53c 3d5f 613d
00000020: 26eb 6d3d 1df7 b13d 9111 5c3d 3494 e9bb
00000030: 06be b43c d90c 8dbd 4874 573d 17a6 7e3c
00000040: cf19 113d 1f7e 59bd 4a04 e739 f516 2b3d
00000050: 738b f2bc 4f5b c53b 9adf 51bd b7da 843d
00000060: f680 ef3c e0a8 a0bc 6e79 a6bd 387a a63d
00000070: a7b3 63bd 9f31 25bd cbea 6e3d a603 073d
00000080: 4241 6abc 1baf c4bd 21fa b4bd 84e6 4a3c
00000090: bb75 343d 79c9 8c3c c75c 00bd 73a3 84bd
000000a0: c4a1 49bc 8b14 643d 4fc0 8f3d d9bf 673d
000000b0: 0630 9e3c ac51 5ebd f28a 863c 1df3 5b3d
000000c0: 6ac7 e43c 29a7 b93c 8b9a 4d3d 5e4e d33b
000000d0: eb6a 95bd 6480 5b3c e60c 72bd a795 973d
000000e0: 4611 893c c569 ac3d 94fa a53d b91e 57bd
000000f0: b0e4 74bc 4165 9e3c 54c2 4b3d 87de f53b
00000100: 3803 0cbc 163a 1abd fc79 1d3d 1ac3 b8bd
00000110: 9a8f 863d 8866 083d b586 533d ba65 ab3d
00000120: 2427 a63d af7b 0bbc b270 8cbd 1fbc 6dbd
00000130: e191 ae3d 80c8 093d 53b3 8e3d adc9 393c
00000140: 36ae 893d 0229 903d abbb 2bbd 322a 1e3d
00000150: 6232 8a3d 7eb4 1ab9 daae f4bb e942 1a3d
00000160: 1eaf 8dbd 05d2 a9bd 34b2 993d 5ba5 81bd
00000170: 58ba 853d 2dbe 983d fc82 abbd e69c fc3c
00000180: 3c2e 8abd 23ee 13bb 16fc cc3c 82c9 a4bd
00000190: 4048 dfbb e0cf 90bd eaa9 52bd 2167 11bd
000001a0: 264e 0cbd 53be 72bd ac11 953d 17d5 803c
000001b0: e636 933d eb7d 9cbd 24b5 c13d fb6b 7cbc
000001c0: 667d a33d d23f 9fbd 2cff 71bd b2dc be3c
000001d0: 0774 843d 87e2 f3bb 7d5a 25bd 7627 d7bb
000001e0: d6e9 143d 9d4f 143d 1da5 95bd 9839 c7bd
000001f0: 6030 1c3c 1ed4 aabc 11ab ad3c fd01 a13d
00000200: 75cf 3a3d 666b 82bd 3c03 c63c c62c b8bc
00000210: 111a 22bc 3152 ecbb 321f 8f3d 5f25 1bbd
00000220: a321 653c fb18 933d 582f 9cbc db65 533c
00000230: ea6e d5bc 4a39 31bd cb77 8dbd 8cf9 003d
00000240: f6ab 02bc ae5d 293c df6d d53d ba7c 733a
00000250: e8d9 75bd 7fe2 2bbd 8784 9d3b 9df4 e03d
00000260: c4e5 56bd efba c5bc 5329 8dbd de99 0d3d
00000270: 3222 603d 2a7f 873c 96ef 193d 0dc3 cabd
00000280: fb83 8d3d cdbf ccbd cca3 8cbd b6a4 97bc
00000290: 690c d23d 39f5 56bd e35e 37bd b612 97bd
000002a0: 2746 48bc 42db a93d 6aaf 363d d527 8b3d
000002b0: fd6b d53d 6f8f 2bbd f1b9 963d e0d3 b0bc
000002c0: bd8f 67bc fe3c f0bc 84ab 8c3d 636e d83d
000002d0: c9e3 a13c f6b7 18bd ba73 133c 4a4e 693d
000002e0: b1af 89bd e001 613d a2a9 233d 31fa 9bbd
000002f0: 7f65 87bd 637d 96bd fa49 423d ad89 0abd
00000300: faad 3bbd 5eba b5bc 99f0 84bd fc0a 7e3b
00000310: 320a 683c fdf2 6d3c ee9a cc3d 7b70 d0bc
00000320: 3ee6 ff3c a5bc b73c 892f 02bd 3ea1 96bd
00000330: 1650 bdbc 383c 503d d4c2 18bc 1845 7cbd
00000340: 20ca 9bbd cd10 3f3d 553b cfbb 4de0 523d
00000350: 3255 0a3d b5a9 7f3d 143a 9d3c 6e2c 87bd
00000360: 77d4 b73d 8ff6 41bc 4828 60bd f92d ad3d
00000370: 70d8 b6bc 0e06 e7bc 6c6c 253d 3732 c6bd
00000380: dea3 2dbd fa10 92bd c3a2 c13d e25d 903b
00000390: c05d acbc 2a42 b0bd e59e 5c3d 6e34 d3bc
000003a0: a96f 783d 30a8 8cbb 54df b03c 77c6 94bd
000003b0: d030 4fbd 5dc4 8ebd 2f28 6c3b 41a4 35bd
000003c0: 47bc 833d 8800 123b d8ca fcbc 3c34 ac3d
000003d0: 1fab 6bbd 34e2 27bb 7c4b 1bbc 90a6 b6bd
000003e0: 65c5 273c 90f5 dabd b418 debc ea75 e0bc
000003f0: e0a2 9dbc bf2f de3d d0c6 ddbc de77 3bbd

lstm1.bias_ih_l0 f4 [512]
-0.043358214 0.025029626 -0.04267059 -0.06260834 -0.069919124 -0.013675268 -0.07695168 0.046961464
0.0639471 0.022493046 0.01430662 -0.04633085 -0.032343954 -0.08054168 0.026416786 -0.061958358
-0.04352093 -0.06707009 -0.13153388 -0.069198295 -0.026435105 -0.02634438 -0.11985165 0.016726168
-0.09969813 -0.103915855 -0.013965533 -0.07462738 0.007769234 -0.020905014 -0.066280775 0.019469533
0.04509536 -0.06498618 -0.065053396 -0.010289989 -0.0036941394 -0.08337386 0.0055667795 -0.10224417
-0.08178887 -0.05949724 -0.10589125 -0.08786268 0.050578937 0.028770804 0.037021402 0.028425552
-0.070056215 0.009598686 0.00046798144 -0.039358433 -0.07223137 -0.067759015 0.03833624 -0.07475528
-0.044588596 -0.06763998 0.010956183 -0.04236045 -0.024364132 0.028197877 -0.0570399 -0.09932481
0.10478494 -0.074356094 -0.05357749 -0.08854533 -0.03483883 -0.023345053 0.030627139 0.02890199
-0.08528928 -0.09083005 -0.084755324 -0.077816635 -0.0022340268 -0.14555793 0.03809531 -0.07831166
-0.13231081 -0.0970515 -0.04454663 -0.079540506 -0.009794812 0.018213771 -0.0050029852 -0.026563277
-0.10229533 -0.11761195 -0.009559236 0.028905591 -0.04266794 -0.12550646 -0.06327144 -0.053572487
-0.14918725 0.06989676 0.03906026 -0.14189178 -0.01703758 -0.06571589 0.06271154 -0.049202688
-0.04427623 0.07359356 -0.06273236 -0.14141788 -0.08142933 -0.120608255 -0.002031064 -0.06405514
-0.0099025555 -0.009736679 -0.055987414 0.028611215 -0.04437408 0.044287357 0.0005550712 0.06470551
-0.023275623 -0.05303275 0.012872931 -0.07225188 -0.11020377 -0.06443809 -0.06354685 -0.030515835
-0.07250328 -0.085994944 -0.017896485 0.036359943 -0.0022140169 -0.017360808 -0.020921627 -0.07081796
-0.115276344 0.028934542 -0.012255658 -0.088511944 -0.10451728 -0.04107524 -0.051893305 -0.11327017
-0.09085705 -0.03339907 -0.0085426215 -0.07488453 -0.049372524 -0.10331255 -0.02006656 -0.12231832
-0.01258159 0.027167205 -0.049005613 -0.00073852635 -0.04731752 0.03263531 -0.0783521 -0.021611016
0.06198608 -0.106078364 -0.03534894 0.005865747 -0.10811592 -0.0017343297 -0.058173973 0.029014392
-0.04492778 -0.08530904 -0.007760023 -0.05974611 0.014291499 -0.042335264 0.052368186 0.07639647
-0.025024265 -0.087747395 -0.119023055 0.019618457 -0.11843276 -0.040066544 -0.114561476 -0.070808716
-0.011197489 -0.05669824 0.010835315 -0.076852344 -0.0009562599 -0.12429711 -0.0892823 -0.015716504
0.07442168 -0.073935285 -0.014669899 0.023762515 -0.059120107 -0.066186875 -0.022526333 -0.04544923
0.039233312 0.0025096515 0.05135672 -0.106257 0.01387046 -0.060186587 0.045380827 -0.13158913
0.05148147 0.026234461 -0.105373114 -0.08727079 -0.06671253 -0.10125763 -0.08793832 -0.040596914
-0.09529268 -0.024330202 -0.07294605 0.013295656 -0.074808516 0.023690674 0.04441137 0.057650916
-0.07716036 -0.075641766 -0.055705857 -0.101003446 0.019409332 -0.027108455 0.029697122 -0.050833493
0.05062841 0.05418811 -0.08308192 -0.0011139116 -0.054014716 -0.06795289 -0.0811103 -0.13789916
0.022126714 0.043306462 -0.04841425 -0.025167445 0.06877944 -0.033380184 -0.006745447 -0.029410826
0.045510776 -0.0241209 -0.12230447 0.017323004 0.04997219 -0.047958415 -0.0555377 0.025357233
00000000: 6298 31bd ee0a cd3c 5bc7 2ebd cd38 80bd
00000010: c231 8fbd 3b0e 60bc d898 9dbd aa5a 403d
00000020: b2f6 823d 5643 b83c 5066 6a3c 6bc5 3dbd
00000030: 187b 04bd 09f3 a4bd 0468 d83c 0cc8 7dbd
00000040: 0143 32bd 0b5c 89bd d1b0 06be d6b7 8dbd
00000050: 6f8e d8bc 2bd0 d7bc c874 f5bd 5105 893c
00000060: 882e ccbd d6d1 d4bd b1cf 64bc 3dd6 98bd
00000070: 0f95 fe3b fe40 abbc 37be 87bd 927e 9f3c
00000080: eab5 383d 7917 85bd b73a 85bd 5897 28bc
00000090: 6019 72bb eabf aabd 8869 b63b 6465 d1bd
000000a0: ec80 a7bd 61b3 73bd 83dd d8bd 59f1 b3bd
000000b0: dc2b 4f3d c0b0 eb3c c1a3 173d b4dc e83c
000000c0: a279 8fbd cf43 1d3c 685b f539 4f36 21bd
000000d0: 0aee 93bd 3dc5 8abd 7606 1d3d 4c19 99bd
000000e0: 88a2 36bd d486 8abd 9081 333c 2782 2dbd
000000f0: 4a97 c7bc 3cff e63c aca2 69bd ce6a cbbd
00000100: 7d99 d63d 0248 98bd 1274 5bbd 4157 b5bd
00000110: 29b3 0ebd 203e bfbc c4e5 fa3c dec3 ec3c
00000120: 25ac aebd 1b05 babd 3394 adbd 545e 9fbd
00000130: c068 12bb 230d 15be d409 1c3d dd61 a0bd
00000140: 7c7c 07be f0c2 c6bd 8776 36bd 22e6 a2bd
00000150: 6b7a 20bc 0c35 953c 15f0 a3bb 3b9b d9bc
00000160: 3780 d1bd 89de f0bd 579e 1cbc 6bcb ec3c
00000170: 94c4 2ebd c484 00be 7594 81bd d36e 5bbd
00000180: 8bc4 18be 0826 8f3d a7fd 1f3d 144c 11be
00000190: 6592 8bbc 0d96 86bd e86e 803d c288 49bd
000001a0: fe5a 35bd 38b8 963d d379 80bd d9cf 10be
000001b0: 6cc4 a6bd 7601 f7bd 991b 05bb 572f 83bd
000001c0: 543e 22bc 9786 1fbc 0f53 65bd 1162 ea3c
000001d0: 98c1 35bd a966 353d 3382 113a 5384 843d
000001e0: 85ac bebc de38 59bd fce8 523c cbf8 93bd
000001f0: 84b2 e1bd 1ef8 83bd da24 82bd 58fc f9bc
00000200: 9a7c 94bd 1e1e b0bd a69b 92bc 2aee 143d
00000210: 0a19 11bb 4138 8ebc d563 abbc 0209 91bd
00000220: 0116 ecbd 2208 ed3c f5cb 48bc c045 b5bd
00000230: 280d d6bd 833e 28bd 138e 54bd 31fa e7bd
00000240: 4313 babd 77cd 08bd 5af6 0bbc 0f5d 99bd
00000250: d83a 4abd 8895 d3bd a062 a4bc 0782 fabd
00000260: 0323 4ebc c28d de3c 1cba 48bd aa99 41ba
00000270: 04d0 41bd 9aac 053d 1177 a0bd 9609 b1bc
00000280: 1ee5 7d3d 9d3f d9bd 0dca 10bd 7435 c03b
00000290: e16b ddbd 7352 e3ba d547 6ebd 97af ed3c
000002a0: 3106 38bd 82b6 aebd cb47 febb 56b8 74bd
000002b0: e426 6a3c be67 2dbd 0680 563d c175 9c3d
000002c0: b0ff ccbc e8b4 b3bd 5cc2 f3bd e3b6 a03c
000002d0: e08c f2bd d11c 24bd 359f eabd 2904 91bd
000002e0: ac75 37bc 6a3c 68bd 9b86 313c c364 9dbd
000002f0: 84ad 7aba 7c8f febd a3d9 b6bd e6bf 80bc
00000300: 656a 983d 626b 97bd 045a 70bc 9ba9 c23c
00000310: ed27 72bd fc8c 87bd 2589 b8bc f928 3abd
00000320: 1cb3 203d f778 243b 6d5b 523d 459d d9bd
00000330: ed40 633c 3686 76bd 3fe1 393d 4dbf 06be
00000340: 3cde 523d a7e9 d63c dccd d7bd 07bb b2bd
00000350: 94a0 88bd 2960 cfbd 0219 b4bd f348 26bd
00000360: cf28 c3bd 2250 c7bc bd64 95bd 06d6 593c
00000370: 3535 99bd f212 c23c b2e8 353d 5e23 6c3d
00000380: 4006 9ebd 12ea 9abd d32b 64bd e5da cebd
00000390: 5200 9f3c 8d12 debc 6147 f33c c836 50bd
000003a0: bc5f 4f3d 5af4 5d3d db26 aabd ac00 92ba
000003b0: 893e 5dbd e32a 8bbd 281d a6bd 7035 0dbe
000003c0: 1543 b53c 1e62 313d 054e 46bd f52b cebc
000003d0: 3cdc 8c3d a9b9 08bd e908 ddbb f9ee f0bc
000003e0: 8269 3a3d 3299 c5bc c47a fabd f9e8 8d3c
000003f0: a4af 4c3d 0b70 44bd 807b 63bd f9b9 cf3c

lstm1.bias_hh_l0 f4 [512]
-0.09149421 -0.10391577 -0.11313209 -0.084482096 0.03673754 -0.017529255 -0.0748566 0.052296028
-0.091669895 -0.01870508 -0.10509384 -0.017730307 -0.030215682 -0.024357663 -0.07500799 -0.0755522
-0.10907816 -0.077130534 -0.02904097 -0.07526933 -0.032343563 0.025008406 -0.024754353 -0.13202076
-0.14422294 0.020203298 -0.07493725 -0.042895425 -0.05417593 -0.110688195 0.00604903 -0.017602755
-0.008232997 0.03850654 -0.08574953 -0.087315366 -0.094129555 -0.06419663 -0.031607848 0.028237505
-0.09743272 -0.08131648 -0.040092804 0.017126394 0.06153911 -0.04373775 -0.04216819 -0.10012259
0.016944578 -0.057072315 -0.019259589 -0.03238236 -0.038484674 -0.10251817 0.03922021 -0.02318403
-0.04363839 0.060225956 -0.0696438 -0.104389705 -0.02327667 -0.099937566 -0.040620517 -0.0013823371
-0.035996895 0.020153929 -0.08842126 -0.07040381 -0.0057344153 0.04791987 -0.041834876 0.016547136
-0.066761285 0.033634793 -0.014497889 -0.038757633 -0.09465511 -0.08587415 -0.06291322 -0.0977927
-0.09895516 0.022395404 0.045097377 -0.06553777 -0.0861997 -0.08884918 0.007452745 -0.10812022
-0.090270974 -0.08563095 0.020768952 0.02523793 -0.10602599 -0.0496458 0.011975738 -0.12650822
-0.12431034 -0.0025363278 -0.023131756 -0.023945563 -0.101625845 -0.0620248 -0.050386686 0.025262414
-0.087207854 -0.012151005 -0.09739704 -0.07302782 0.0266598 -0.04531511 0.030111546 -0.12715885
-0.032006882 0.033427946 -0.06721946 0.0026712574 -0.022762273 -0.025831979 -0.047229353 0.021719487
0.05022771 -0.06337298 -0.027568385 -0.057542756 -0.077633284 -0.05753474 -0.07582179 -0.041757483
0.050350938 -0.027518095 0.050489675 0.02161174 -0.13249052 0.031331595 -0.031608056 -0.068606414
-0.014114967 -0.030225579 -0.13123977 -0.05991773 -0.10934057 -0.08699015 0.04133719 -0.11784061
-0.03069061 -0.127358 -0.020981248 -0.052198324 0.033199128 0.005788842 0.03755711 -0.051096607
-0.018331971 0.011297508 -0.059312373 0.013037394 0.07703512 0.019965814 -0.0066856123 0.061001286
0.02730172 -0.09542882 -0.08847289 -0.012641837 -0.049216136 -0.040915612 -0.09738392 0.042765707
-0.103448585 0.014102466 -0.07104521 -0.120658934 0.012980249 -0.0381664 0.04871979 -0.00852356
-0.09806048 -0.11127658 -0.08082605 0.09064495 -0.11935001 -0.029579906 -0.038479153 0.051779807
-0.088197865 0.045857392 -0.051863316 -0.06551273 -0.10419636 -0.13412364 -0.12411527 -0.052260485
-0.029615134 -0.041777052 -0.059913892 -0.118665054 -0.056454077 0.023417983 0.03733291 0.043065608
-0.12401345 -0.024755796 0.044320695 -0.05028415 -0.09085818 -0.020175654 -0.016205072 0.018121108
-0.020419713 0.018070161 -0.046600953 -0.064470515 -0.0065210746 -0.036833316 -0.020794492 0.04270651
-0.00043988338 0.020380272 -0.0111304745 0.07107418 -0.0675583 -0.10428321 -0.08978238 0.010544245
0.00015666639 -0.08904943 -0.066002145 -0.023017894 -0.102269664 -0.051878497 -0.039458178 -0.103270166
0.024631036 0.048135567 -0.023937736 -0.09367807 0.028315224 -0.051872592 -0.009992317 -0.03521174
-0.029263005 -0.1025316 -0.024114346 -0.031237494 0.062001012 -0.036810845 -0.10518796 -0.11825106
0.024402298 -0.12192957 -0.1539641 0.0027202275 -0.08649691 0.07150968 -0.056760974 -0.082184166
00000000: 5161 bbbd cbd1 d4bd ccb1 e7bd f304 adbd
00000010: 1a7a 163d 8399 8fbc 6b4e 99bd 5c34 563d
00000020: 6dbd bbbd 653b 99bc 703b d7bd 263f 91bc
00000030: e186 f7bc b989 c7bc ca9d 99bd 1dbb 9abd
00000040: 5f64 dfbd 9df6 9dbd 54e7 edbc ce26 9abd
00000050: af7a 04bd 6ede cc3c a4c9 cabc 7330 07be
00000060: 2eaf 13be 6381 a53c b378 99bd 1db3 2fbd
00000070: 94e7 5dbd 7eb0 e2bd f136 c63b a733 90bc
00000080: b1e3 06bc 09b9 1d3d 739d afbd 66d2 b2bd
00000090: ffc6 c0bd 8679 83bd 3b77 01bd 5752 e73c
000000a0: ce8a c7bd 4189 a6bd 5a38 24bd a74c 8c3c
000000b0: 6f10 7c3d 5b26 33bd 8db8 2cbd 130d cdbd
000000c0: 5bcf 8a3c a9c4 69bd 49c6 9dbc 5ea3 04bd
000000d0: 1ba2 1dbd 0cf5 d1bd 5fa5 203d 6fec bdbc
000000e0: 2bbe 32bd 7eaf 763d 69a1 8ebd 45ca d5bd
000000f0: b7ae bebc 11ac ccbd b361 26bd 892f b5ba
00000100: 7b71 13bd da19 a53c 3516 b5bd df2f 90bd
00000110: c3e7 bbbb a047 443d 0c5b 2bbd dc8d 873c
00000120: 24ba 88bd a3c4 093d 8e88 6dbc 53c0 1ebd
00000130: 8ada c1bd c9de afbd a5d8 80bd 8a47 c8bd
00000140: 01a9 cabd 9176 b73c 07b8 383d ab38 86bd
00000150: 7889 b0bd 8ff6 b5bd 2836 f43b 226e ddbd
00000160: fddf b8bd 485f afbd a623 aa3c c6bf ce3c
00000170: 2724 d9bd 6559 4bbd e335 443c 5f8b 01be
00000180: 6b96 febd 8538 26bb cf7e bdbc 7c29 c4bc
00000190: 3621 d0bd b70d 7ebd 4562 4ebd 1ff3 ce3c
000001a0: 089a b2bd 0215 47bc 1978 c7bd 9c8f 95bd
000001b0: a765 da3c 569c 39bd 7dac f63c ee35 02be
000001c0: a619 03bd beeb 083d 5baa 89bd 4310 2f3b
000001d0: f277 babc 969d d3bc 9173 41bd 11ed b13c
000001e0: 92bb 4d3d b1c9 81bd 18d7 e1bc f4b1 6bbd
000001f0: 33fe 9ebd 8ca9 6bbd 7448 9bbd e509 2bbd
00000200: c93c 4e3d a16d e1bc 43ce 4e3d 1b0b b13c
00000210: 98ab 07be 8f55 003d 7377 01bd 8581 8cbd
00000220: 7642 67bc a29b f7bc b863 06be 4b6c 75bd
00000230: f3ed dfbd e427 b2bd 2f51 293d 6b56 f1bd
00000240: e06a fbbc 236a 02be dee0 abbc e9cd 55bd
00000250: cffb 073d 54b0 bd3b 7cd5 193d ad4a 51bd
00000260: ee2c 96bc 2f19 393c 88f1 72bd cb9a 553c
00000270: 97c4 9d3d 598f a33c fb12 dbbb 7cdc 793d
00000280: dba7 df3c 2f70 c3bd 4631 b5bd b51f 4fbc
00000290: dc96 49bd 2197 27bd 3871 c7bd 182b 2f3d
000002a0: dadc d3bd 080e 673c 2780 91bd 081c f7bd
000002b0: 1cab 543c 5f54 1cbd 678e 473d 67a6 0bbc
000002c0: efd3 c8bd fae4 e3bd 2188 a5bd 0fa4 b93d
000002d0: c76d f4bd 8f51 f2bc 519c 1dbd 1017 543d
000002e0: 15a1 b4bd f6d4 3b3d a16e 54bd 8a2b 86bd
000002f0: e764 d5bd b557 09be 2630 febd 170f 56bd
00000300: 709b f2bc 6a1e 2bbd 4568 75bd aa06 f3bd
00000310: 643c 67bd 12d7 bf3c 65ea 183d 9065 303d
00000320: c4fa fdbd abcc cabc 9e89 353d c1f6 4dbd
00000330: da13 babd 6a47 a5bc 80c0 84bc b872 943c
00000340: 3e47 a7bc e007 943c a4e0 3ebd 1e09 84bd
00000350: bdae d5bb 88de 16bd 3659 aabc 05ed 2e3d
00000360: 26a0 e6b9 87f4 a63c 985c 36bc 578f 913d
00000370: 025c 8abd 7092 d5bd d3df b7bd c5c1 2c3c
00000380: d046 2439 8c5f b6bd 222c 87bd 0690 bcbc
00000390: c272 d1bd 8c7e 54bd e69e 21bd 4f7f d3bd
000003a0: 07c7 c93c cd29 453d 1219 c4bc 4ada bfbd
000003b0: 54f5 e73c 5b78 54bd d1b6 23bc 2f3a 10bd
000003c0: f8b8 efbc 16fc d1bd 738b c5bc c6e5 ffbc
000003d0: c6f4 7d3d f8c6 16bd c96c d7bd 9d2d f2bd
000003e0: 54e7 c73c 36b6 f9bd c4a8 1dbe d845 323b
000003f0: 4b25 b1bd ab73 923d 327e 68bd 2c50 a8bd

bn1.weight f4 [128]
1.0821015 1.0100567 1.0788114 1.009004 1.0575044 1.0206172 1.0124421 1.1808811
0.94834244 0.99639094 1.0070599 1.054927 1.0881597 1.090619 1.1344693 1.0533122
1.0417491 1.1007242 0.9921528 1.0566087 1.0522324 1.0540683 1.0759054 0.9686417
0.9801197 0.9618097 0.97254026 1.0432849 0.99121565 1.0220788 1.0606595 1.073472
1.0428418 1.0319585 0.9910732 1.0927668 0.9872474 1.0404035 1.0827782 1.0731255
1.1097175 1.059447 1.079832 1.0575323 0.96457475 1.1350963 1.0680058 1.0863973
1.0756955 0.96760017 1.0835567 0.99520016 0.9896465 1.0300847 1.050264 1.13693
1.0839674 1.1400746 1.0895057 0.97667164 1.0185369 0.952768 1.0803248 1.1324186
1.1174017 1.0878849 0.9546813 0.95742446 1.1517357 0.96764004 1.0334717 1.0239114
1.0341982 0.9485539 0.9337907 1.0441368 1.042628 1.061981 1.0680288 0.9842176
1.1634529 1.0288044 1.0244237 1.0105249 1.137164 0.992021 0.9744682 1.111103
1.0387411 0.97433674 0.9843315 0.9970196 1.0095559 1.0151699 1.0981154 1.0001833
1.0180938 1.0935745 0.9959576 0.9594894 1.051724 0.9986729 1.0440903 0.9610651
1.0695539 1.0602027 0.9760919 1.081986 1.0662025 1.129892 1.1069976 1.0494783
1.0817297 1.0965098 1.0248915 1.1014117 1.1208895 0.9092494 1.0954787 1.0275381
1.0329304 1.0132136 1.0637281 1.0495675 1.0278584 1.0089303 1.0430745 1.0274905
00000000: 4d82 8a3f 8a49 813f 7e16 8a3f 0b27 813f
00000010: 4e5c 873f 96a3 823f b497 813f 1d27 973f
00000020: 92c6 723f 7a13 7f3f 57e7 803f d907 873f
00000030: d148 8b3f 6799 8b3f 4a36 913f efd2 863f
00000040: 0958 853f 88e4 8c3f bafd 7d3f f43e 873f
00000050: 8daf 863f b6eb 863f 45b7 893f e7f8 773f
00000060: 20e9 7a3f 2939 763f 66f8 783f 5c8a 853f
00000070: 4fc0 7d3f 7ad3 823f b1c3 873f 8867 893f
00000080: d77b 853f 3717 843f f9b6 7d3f c8df 8b3f
00000090: 3fbc 7c3f f12b 853f 7a98 8a3f 2d5c 893f
000000a0: 390b 8e3f f69b 873f ef37 8a3f 385d 873f
000000b0: 5fee 763f d64a 913f 6ab4 883f 110f 8b3f
000000c0: 64b0 893f a5b4 773f fcb1 8a3f 70c5 7e3f
000000d0: 7959 7d3f d1d9 833f 0d6f 863f ec86 913f
000000e0: 72bf 8a3f f7ed 913f ec74 8b3f 2707 7a3f
000000f0: 6b5f 823f 9be8 733f 1548 8a3f 18f3 903f
00000100: 0507 8f3f d03f 8b3f fe65 743f c519 753f
00000110: 136c 933f 42b7 773f cd48 843f 870f 833f
00000120: 9b60 843f 6ed4 723f e80c 6f3f 46a6 853f
00000130: d674 853f feee 873f 2bb5 883f aff5 7b3f
00000140: 06ec 943f ddaf 833f 5120 833f e158 813f
00000150: 978e 913f 17f5 7d3f bf76 793f a038 8e3f
00000160: 78f5 843f 226e 793f 26fd 7b3f ad3c 7f3f
00000170: 2139 813f 16f1 813f 0c8f 8c3f 0206 803f
00000180: e650 823f 40fa 8b3f 14f7 7e3f 19a1 753f
00000190: e49e 863f 07a9 7f3f c0a4 853f 5d08 763f
000001a0: 24e7 883f b9b4 873f 29e1 793f 847e 8a3f
000001b0: 5379 883f 4da0 903f 19b2 8d3f 4e55 863f
000001c0: 1e76 8a3f 6f5a 8c3f a52f 833f 0ffb 8c3f
000001d0: 4f79 8f3f 92c4 683f a538 8c3f 5e86 833f
000001e0: 1037 843f fcb0 813f 3e28 883f 3a58 863f
000001f0: dd90 833f a124 813f 7783 853f cf84 833f

bn1.bias f4 [128]
0.03476435 -0.11188502 0.0862177 -0.07136565 0.046722677 -0.05073296 0.043413054 -0.07305827
-0.09131245 -0.12381139 -0.036962904 -0.03232601 -0.009125777 0.05678796 0.0023919246 0.0108366385
0.10874648 -0.03355552 0.06743114 0.057897672 -0.045897692 0.021645902 -0.08435406 0.025816657
-0.0032585026 -0.030390907 -0.017994221 0.031218689 0.08128592 -0.076013915 -0.04764136 -0.027005376
-0.0392578 0.009990713 -0.13786659 0.09972776 0.12138814 -0.03782839 -0.08960233 -0.07556083
-0.07733419 0.07283953 0.12556185 -0.038099438 0.07536336 -0.043780874 0.11328883 -0.020059174
0.07475055 -0.16262618 -0.019106837 -0.081225775 0.022605013 -0.062250726 0.008271294 -0.06306825
0.048254162 0.111747615 0.064343214 -0.03798442 0.013403198 -0.04839119 0.11761428 0.049374916
-0.10496472 0.04815307 -0.07581136 0.16857208 0.09786918 0.10618386 0.020791125 0.040294986
-0.09552751 -0.08971372 0.08562012 -0.045855056 0.099781744 0.040926453 -0.013871455 0.08455459
-0.051648375 0.046580754 -0.104015954 -0.041601736 -0.07336979 -0.12603506 -0.06292739 0.12168845
0.021024507 0.087080285 -0.07946656 -0.14330564 -0.02427395 -0.11871318 -0.10555191 -0.13725771
-0.071477704 -0.047943234 0.012573782 0.12739067 0.06258295 0.042881943 -0.05816015 0.0740767
0.022827005 0.04013155 -0.086494654 -0.054453235 -0.079057686 -0.0032023415 0.085441306 -0.0956454
-0.014360179 0.15579821 0.0514585 -0.053846966 0.049980253 -0.09488565 0.09820066 0.004762616
-0.021235546 0.005765153 -0.08344161 0.018936891 0.12923916 0.04960482 -0.10387694 0.010240566
00000000: 1065 0e3d f923 e5bd e892 b03d 2728 92bd
00000010: 4760 3f3d 5dcd 4fbd e3d1 313d 939f 95bd
00000020: 0602 bbbd d390 fdbd 6a66 17bd 4768 04bd
00000030: 4884 15bc 7e9a 683d d6c1 1c3b 288c 313c
00000040: 79b6 de3d 8371 09bd 5619 8a3d 1c26 6d3d
00000050: 38ff 3bbd bf52 b13c d2c1 acbd 747d d33c
00000060: 9a8c 55bb 5af6 f8bc 9e68 93bc 56be ff3c
00000070: 3c79 a63d 2fad 9bbd 9623 43bd 613a ddbc
00000080: c9cc 20bd 16b0 233c e62c 0dbe 113e cc3d
00000090: 589a f83d f1f1 1abd 6d81 b7bd a3bf 9abd
000000a0: 6361 9ebd e42c 953d 4993 003e 280e 1cbd
000000b0: 1b58 9a3d 9353 33bd f903 e83d 2353 a4bc
000000c0: d116 993d 7a87 26be f185 9cbc b359 a6bd
000000d0: 262e b93c 9efa 7ebd 5284 073c ed29 81bd
000000e0: 28a6 453d efdb e43d 60c6 833d 8d95 1bbd
000000f0: 1699 5b3c d735 46bd c1df f03d 5a3d 4a3d
00000100: bef7 d6bd 273c 453d fc42 9bbd 299e 2c3e
00000110: a36f c83d ec76 d93d 2652 aa3c 5b0c 253d
00000120: eda3 c3bd d4bb b7bd 9a59 af3d 83d2 3bbd
00000130: 5f5a cc3d 7fa2 273d 1945 63bc f52a ad3d
00000140: 3f8d 53bd 76cb 3e3d 5106 d5bd 9566 2abd
00000150: e742 96bd 560f 01be 13e0 80bd cb37 f93d
00000160: 963b ac3c 2657 b23d 5dbf a2bd b7be 12be
00000170: 2ada c6bc e51f f3bd 9a2b d8bd 498d 0cbe
00000180: e762 92bd 2060 44bd 4402 4e3c b372 023e
00000190: 7d2b 803d faa4 2f3d 5639 6ebd 86b5 973d
000001a0: b3ff ba3c fb60 243d 1c24 b1bd 5b0a 5fbd
000001b0: ffe8 a1bd 60de 51bb dafb ae3d bce1 c3bd
000001c0: f546 6bbc 9189 1f3e 26c6 523d a38e 5cbd
000001d0: 18b8 4c3d 6853 c2bd 6d1d c93d b80f 9c3b
000001e0: 2bf6 adbc 9ce9 bc3b 6fe3 aabd 8a21 9b3c
000001f0: 4557 043e 6c2e 4b3d 6fbd d4bd 0cc8 273c

bn1.running_mean f4 [128]
-0.019725094 0.08606543 -0.08095898 -0.058102265 0.008106326 0.003989177 -0.06246903 0.018430738
0.13396658 -0.10996978 0.02210093 0.01894902 -0.009849922 -0.04366801 -0.006431121 0.07967603
-0.04008838 -0.009946645 -0.0047112885 -0.023506563 0.053393234 -0.02627966 0.052304253 -0.075593114
0.027309613 0.02724568 0.012395408 -0.046098504 0.07970324 -0.0011137314 -0.03310223 0.033054262
0.082686566 0.06358227 0.014238482 -0.011530468 -0.011676508 -0.036674753 0.0029790383 0.060788102
-0.10594373 0.022839382 -0.027660305 0.019182485 -0.007548404 0.10387171 -0.026468473 -0.019301152
-0.044869896 -0.028912542 -0.020721648 -0.11086289 0.12391264 0.023234552 -0.011775523 0.033353776
0.11542717 0.02439806 -0.05486653 0.032148 -0.010449819 0.07492386 -0.044821665 -0.07197488
-0.10775371 -0.024189591 -0.016513461 0.025603391 0.02229521 0.0881174 -0.15460461 0.021844167
0.00013942912 0.08061321 0.103536636 0.086330965 -0.09486474 -0.014812168 0.038321413 0.040677674
0.016685598 -0.046125796 -0.042458437 -0.01491405 0.0167414 -0.02255079 0.062892355 0.030138563
-0.016006555 -0.031077802 0.023237187 -0.017399918 -0.029183272 -0.006519003 0.08674963 0.043785475
0.023465846 -0.033429362 -0.023216097 -0.007250255 -0.017923366 -0.02520395 0.084579736 -0.06292276
0.021208141 0.009384127 -0.012499032 0.056047667 0.017345399 0.035695773 -0.079647645 0.005067763
-0.086189054 -0.010156241 -0.03267248 -0.024883164 0.047639877 0.056678165 -0.054667234 0.011618853
0.06561919 0.011383576 0.048317343 -0.096502125 -0.074809656 -0.071447216 0.026029715 0.0017331386
00000000: 8596 a1bc 1243 b03d d2cd a5bd a4fc 6dbd
00000010: 65d0 043c a4b7 823b 87df 7fbd 0ffc 963c
00000020: 892e 093e d637 e1bd 020d b53c fa3a 9b3c
00000030: 9161 21bc 3add 32bd 27bc d2bb 302d a33d
00000040: b733 24bd 41f7 22bc 2761 9abb d690 c0bc
00000050: ddb2 5a3d 7148 d7bc fc3c 563d 90d0 9abd
00000060: 69b8 df3c 5532 df3c 1c16 4b3c c9d1 3cbd
00000070: 743b a33d a0fa 91ba 3496 07bd e863 073d
00000080: 9357 a93d 6c37 823d 8648 693c 4aea 3cbc
00000090: d34e 3fbc 4438 16bd f83b 433b f2fc 783d
000000a0: 07f9 d8bd a819 bb3c dd97 e2bc 9624 9d3c
000000b0: 9a58 f7bb b1ba d43d 69d4 d8bc 731d 9ebc
000000c0: 7fc9 37bd ffd9 ecbc 72c0 a9bc 150c e3bd
000000d0: e9c5 fd3d 6356 be3c 20ee 40bc f89d 083d
000000e0: 1565 ec3d 71de c73c babb 60bd 9fad 033d
000000f0: b835 2bbc ae71 993d ec96 37bd 9167 93bd
00000100: faad dcbd 4029 c6bc 3d47 87bc 34be d13c
00000110: 72a4 b63c e576 b43d ac50 1ebe 8af2 b23c
00000120: b833 1239 8a18 a53d 040b d43d 4ace b03d
00000130: 7248 c2bd bcae 72bc eaf6 1c3d a29d 263d
00000140: 3cb0 883c 67ee 3cbd e6e8 2dbd 0f5a 74bc
00000150: 4325 893c 6fbc b8bc b5cd 803d 26e5 f63c
00000160: 2e20 83bc e096 febc ea5b be3c 468a 8ebc
00000170: c211 efbc 5c9d d5bb caa9 b13d 6658 333d
00000180: 723b c03c 3aed 08bd af2f bebc 8c93 edbb
00000190: 06d4 92bc 8478 cebc 2438 ad3d a6dd 80bd
000001a0: b2bc ad3c e2bf 193c bdc8 4cbc 3d92 653d
000001b0: f017 8e3c bb35 123d 4e1e a3bd 7a0f a63b
000001c0: e383 b0bd 5d66 26bc 94d3 05bd c7d7 cbbc
000001d0: 0822 433d 5d27 683d c0ea 5fbd 005d 3e3c
000001e0: 5b63 863d 2e82 3a3c 68e8 453d e8a2 c5bd
000001f0: ce35 99bd eb52 92bd 453c d53c 7b2a e33a

bn1.running_var f4 [128]
0.00015899324 0.00035385403 0.0016256683 0.00067993964 0.00034769598 0.00047380972 0.0011243207 0.0013410904
0.0014567598 0.0005977669 0.0007873177 0.00033871073 0.00057299243 0.001461513 0.00072982 0.0005674718
0.0006648557 0.00031496419 0.00023844201 0.0002036559 0.000512712 0.00030875814 0.0010417509 0.00040905358
0.0001345672 0.00042683072 0.00079238584 0.0021095085 0.0001632097 0.00038889077 0.00028157892 0.0005186105
0.0031103357 0.0002170222 0.000404062 0.0016339485 0.00021779799 0.00027433634 0.00068728894 0.00041681278
0.0003298136 0.00057714345 0.0004608172 0.00017226746 0.00039965712 0.0027188065 0.0016055732 0.0013151059
0.0007889458 0.00027200402 0.0002906011 0.00035848326 0.0007439533 0.0006181114 0.00058873656 0.001991097
0.00021617091 0.0010628526 0.0014868942 0.00064754224 0.0009147246 0.00040888536 0.00051310426 0.00051035004
0.0012569784 0.00049220584 2.2489294e-05 0.000100858204 0.00025566618 0.00030894106 0.00049764593 0.0005820058
0.00053231005 0.00085682294 0.00034044616 0.0006775262 0.0032823186 0.00021972226 0.0009252502 0.00036367722
0.000748378 0.0008767755 0.0003765825 0.00015387501 0.0015765063 0.000412891 0.001760268 0.0008143364
0.0004393545 0.0005900085 0.00027229686 0.0008388218 0.0002845336 0.00059522444 0.0017986848 0.00063900417
0.00011983916 0.001192711 0.00027263848 0.00021637959 0.0008925296 0.00047530298 0.00048887765 0.00015999094
0.000840272 0.0010404236 0.00013917805 0.0010357861 0.001284982 0.00065322086 0.002209397 0.0004510203
0.0007588713 0.0008380229 0.0009269007 0.00059075205 0.0006271358 0.00024335702 0.0004938691 0.00027111504
0.0005464559 0.00022250818 0.0003608841 0.0010786668 0.0019063122 0.0007200507 0.0014034607 9.2401744e-05
00000000: 6cb7 2639 7c85 b939 6014 d53a fa3d 323a
00000010: f74a b639 aa69 f839 f15d 933a 87c7 af3a
00000020: bff0 be3a 75b3 1c3a ff63 4e3a fc94 b139
00000030: df34 163a 3d90 bf3a 6451 3f3a 63c2 143a
00000040: b649 2e3a c721 a539 4a06 7a39 778c 5539
00000050: 8567 063a d1e0 a139 5c8b 883a 3e76 d639
00000060: 9c1a 0d39 40c8 df39 1db8 4f3a ae3f 0a3b
00000070: 4523 2b39 09e4 cb39 e2a0 9339 5df3 073a
00000080: c6d6 4b3b 7490 6339 49d8 d339 372a d63a
00000090: b460 6439 cdd4 8f39 2e2b 343a aa87 da39
000000a0: d5ea ac39 714b 173a d699 f139 b2a2 3439
000000b0: 1289 d139 012e 323b 1972 d23a a25f ac3a
000000c0: 42d1 4e3a c39b 8e39 d25b 9839 cff2 bb39
000000d0: dc05 433a c108 223a 7155 1a3a 107d 023b
000000e0: f0ab 6239 6a4f 8b3a e4e3 c23a d3bf 293a
000000f0: 21ca 6f3a aa5f d639 d881 063a 03c9 053a
00000100: 32c1 a43a 6007 013a 64a7 bc37 d683 d338
00000110: ef0a 8639 5ef9 a139 7474 023a c091 183a
00000120: b98a 0b3a 6a9c 603a e97d b239 039c 313a
00000130: 2b1c 573b 3f65 6639 7d8c 723a eeab be39
00000140: cc2e 443a 68d7 653a 0c70 c539 8259 2139
00000150: c6a2 ce3a 4b79 d839 cbb8 e63a 3179 553a
00000160: 2a59 e639 cdaa 1a3a 11c3 8e39 61e4 5b3a
00000170: 742d 9539 d608 1c3a d9c1 eb3a d882 273a
00000180: 2952 fb38 bd54 9c3a ebf0 8e39 f4e3 6239
00000190: a6f8 693a 1632 f939 0628 003a 3ec3 2739
000001a0: b345 5c3a d35e 883a 53f0 1139 37c3 873a
000001b0: d76c a83a e93c 2b3a 88cb 103b ec76 ec39
000001c0: feee 463a c4ae 5b3a 41fb 723a b3dc 1a3a
000001d0: 5f66 243a a72d 7f39 ff76 013a 7224 8e39
000001e0: 0940 0f3a 1651 6939 0b35 bd39 0d62 8d3a
000001f0: 39dd f93a c9c1 3c3a 54f4 b73a cfc7 c138

lstm2.weight_ih_l0 f4 [256, 128]
-0.058977976 -0.04867026 0.02948499 -0.036526855 0.031770945 0.032867417 -0.053111535 -0.10388067
-0.04914445 0.07459545 -0.09733922 -0.0535604 -0.02149155 0.0047210515 0.05272682 -0.056054026
0.013370774 -0.09789645 -0.007053134 0.010520422 -0.04893462 0.013510253 0.01704407 0.009423612
-0.07461122 -0.070635825 -0.08131834 0.12969093 -0.044297624 -0.053088717 0.06048165 0.04859483
-0.063006915 0.06552621 -0.11331232 0.028958851 -0.08716643 0.031273443 -0.064953126 -0.023456553
-0.08570336 -0.05564902 0.05936768 0.062519565 0.088331595 -0.04561952 0.06646324 0.008369733
-0.049540926 -0.04890782 -0.09177974 0.09440286 0.08722024 0.0068413 0.06191262 -0.037014484
0.042917725 0.006972741 0.061564635 -0.09311428 0.012294263 -0.069819815 -0.0008120714 0.07421849
0.01962529 -0.0038691456 -0.09012108 0.048563477 0.10967898 -0.05136544 0.060110588 0.020692836
0.04467205 0.09322345 0.07983528 0.017745389 -0.035548247 0.10175189 0.03789523 0.04608422
-0.05564075 0.041061353 -0.042836204 0.018014109 0.051994044 -0.041445136 0.0371719 -0.0019513989
0.022476615 0.021540131 -0.034205567 0.07570049 0.03503497 -0.07586809 0.013742949 0.011355933
-0.03451926 -0.12628815 0.04231096 -0.030881269 -0.021958942 -0.09719901 -0.028684445 0.010115448
-0.024873244 0.08178633 -0.0910697 -0.047523767 -0.06819307 -0.036026485 -0.018075855 0.069486596
-0.020248473 -0.048976302 0.0750625 -0.04826902 -0.008134357 0.044973254 -0.039246246 0.021086613
-0.0085444 -0.012332302 -0.029373765 -0.05205445 0.023155134 -0.033436384 0.0027739513 -0.02718795
-0.05796704 -0.05211587 0.014490998 0.010694173 0.15276404 0.104666665 -0.12368525 0.024817895
0.068177976 0.009514029 0.0018259048 0.13224792 0.0573124 -0.055497862 -0.001915976 0.06897036
-0.14132595 0.14998275 -0.022174193 -0.15375401 0.13143602 0.13289677 0.07412844 0.0016362055
-0.04922858 -0.110701256 0.09430409 -0.16850704 -0.056820206 0.09139446 0.1545006 0.065812185
0.041139685 -0.17582747 -0.04596001 -0.18466015 -0.078093275 0.093914755 0.032915533 0.1688691
0.15816106 -0.13653189 0.032434423 -0.17471288 0.08776585 0.042907808 -0.10107888 -0.067543946
-0.008961648 0.05229156 0.031188473 0.0845295 -0.016446268 0.14194961 0.1518223 -0.037999157
0.09596976 -0.023159869 -0.031304322 0.07703898 -0.058272913 -0.12000111 -0.028623367 -0.03874691
0.12947966 -0.02338778 -0.07726829 -0.08086629 0.043262582 0.011873121 -0.080685854 0.0039479434
0.025122719 -0.031365786 -0.14332762 -0.012173319 -0.019981481 -0.10347639 0.075318955 -0.09012528
0.012194002 0.16056618 0.15956107 -0.18005744 0.023987541 0.1366417 0.07804478 -0.030870253
-0.13213177 0.0348678 0.11797658 0.037727777 0.10118826 0.07273114 0.14478728 -0.013099516
0.1473646 -0.044830807 0.07352943 0.014391027 -0.16336507 -0.0693413 0.023035726 -0.13088931
-0.13890542 -0.04338028 -0.022554599 -0.004629772 -0.037811678 0.044874102 -0.100364104 -0.01914748
-0.13311923 -0.04276775 -0.09330673 0.087204434 -0.07764452 0.07095268 -0.1110855 -0.11196006
0.10124615 0.048940305 -0.0020478764 -0.038173288 -0.048358742 0.1651666 0.10772615 0.024465626
00000000: e492 71bd 775a 47bd 818a f13c 2f9d 15bd
00000010: 4022 023d fc9f 063d 7b8b 59bd 64bf d4bd
00000020: b14b 49bd 80c5 983d c959 c7bd 2662 5bbd
00000030: 0c0f b0bc 0db3 9a3b 14f8 573d e898 65bd
00000040: 1711 5b3c ef7d c8bd fa1d e7bb d95d 2c3c
00000050: ab6f 48bd 1c5a 5d3c 01a0 8b3c 7e65 1a3c
00000060: c4cd 98bd 84a9 90bd 3b8a a6bd b3cd 043e
00000070: 6d71 35bd 8e73 59bd 9bbb 773d 5f0b 473d
00000080: c509 81bd 9b32 863d 4a10 e8bd 1d3b ed3c
00000090: 5084 b2bd 9518 003d 2506 85bd f527 c0bc
000000a0: 3e85 afbd 3af0 63bd 862b 733d 420a 803d
000000b0: 32e7 b43d 89db 3abd e11d 883d 3421 093c
000000c0: 6deb 4abd 9153 48bd 04f7 bbbd 4956 c13d
000000d0: 86a0 b23d fc2c e03b 1698 7d3d 809c 17bd
000000e0: 7fca 2f3d 977b e43b 332b 7c3d b3b2 bebd
000000f0: e06d 493c b1fd 8ebd 30e1 54ba ddff 973d
00000100: 37c5 a03c 7e91 7dbb 6791 b8bd 7fea 463d
00000110: 609f e03d 9164 52bd 8536 763d 0684 a93c
00000120: 0afa 363d f0eb be3d ae80 a33d c75e 913c
00000130: 0a9b 11bd 4b63 d03d 0738 1b3d cfc2 3c3d
00000140: 8ee7 63bd f32f 283d 0475 2fbd 5392 933c
00000150: b5f7 543d 60c2 29bd 9041 183d 15c6 ffba
00000160: e120 b83c ee74 b03c 231b 0cbd dc08 9b3d
00000170: d480 0f3d bb60 9bbd 1b2a 613c 3c0e 3a3c
00000180: 1164 0dbd ae51 01be 424e 2d3d b7fa fcbc
00000190: 3de3 b3bc 4610 c7bd a4fb eabc 44bb 253c
000001a0: f9c2 cbbc 977f a73d c082 babd 48a8 42bd
000001b0: cfa8 8bbd 8290 13bd d113 94bc fd4e 8e3d
000001c0: 20e0 a5bc 609b 48bd 5eba 993d bcb5 45bd
000001d0: f745 05bc e035 383d acc0 20bd d5bd ac3c
000001e0: d0fd 0bbc 6c0d 4abc 40a1 f0bc 0c37 55bd
000001f0: d6af bd3c 97f4 08bd 2ecb 353b 44b9 debc
00000200: d96e 6dbd 7377 55bd a76b 6d3c 9d36 2f3c
00000210: 2d6e 1c3e 7a5b d63d b14e fdbd e64e cb3c
00000220: e5a0 8b3d bbe0 1b3c 3353 ef3a 006c 073e
00000230: 68c0 6a3d ba51 63bd 7d21 fbba 5540 8d3d
00000240: c0b7 10be 1495 193e a7a6 b5bc b171 1dbe
00000250: 2a97 063e 1716 083e a7d0 973d f275 d63a
00000260: e8a3 49bd 57b7 e2bd 8122 c13d 1c8d 2cbe
00000270: 4ebc 68bd 052d bb3d 6835 1e3e 8ac8 863d
00000280: 1682 283d 1e0c 34be 9040 3cbd 8d17 3dbe
00000290: 5eef 9fbd 6156 c03d 70d2 063d 05ec 2c3e
000002a0: f9f4 213e 04cf 0bbe f5d9 043d efe7 32be
000002b0: 95be b33d 19c0 2f3d 7202 cfbd 7b54 8abd
000002c0: e0d3 12bc ad2f 563d f87e ff3c cd1d ad3d
000002d0: 53ba 86bc 3d5b 113e 4e77 1b3e 01a5 1bbd
000002e0: cb8b c43d c4b9 bdbc f638 00bd 9dc6 9d3d
000002f0: 94af 6ebd 24c3 f5bd 8d7b eabc 14b5 1ebd
00000300: 5196 043e bb97 bfbc d63e 9ebd 3a9d a5bd
00000310: 1b34 313d 7b87 423c a03e a5bd c05d 813b
00000320: 29ce cd3c 6979 00bd 7ac4 12be 9a72 47bc
00000330: 34b0 a3bc 6eeb d3bd d340 9a3d 9a93 b8bd
00000340: 5ac9 473c 766b 243e fa63 233e fa60 38be
00000350: 8581 c43c cdeb 0b3e f1d5 9f3d 9de3 fcbc
00000360: 8d4d 07be 8ad1 0e3d b59d f13d 7188 1a3d
00000370: ca3b cf3d 10f4 943d 1e43 143e 5a9f 56bc
00000380: bfe6 163e 82a0 37bd 9996 963d 58c8 6b3c
00000390: 2c49 27be d002 8ebd 6bb5 bc3c d907 06be
000003a0: 393d 0ebe 85af 31bd 6cc4 b8bc 58b5 97bb
000003b0: 6be0 1abd e8cd 373d b28b cdbd 2ddb 9cbc
000003c0: 6850 08be 3c2d 2fbd 9917 bfbd 3d98 b23d
000003d0: 1704 9fbd a44f 913d cb80 e3bd 514b e5bd
000003e0: 245a cf3d a175 483d aa35 06bb 985b 1cbd
000003f0: d113 46bd 6f21 293e 879f dc3d 236c c83c
