backend/ml/research/models/crash300n_kan_periodic.pth (torch, 5107 bytes, 4 tensors)

layers.0.base_weight f4 [16, 5]
0	0x3e2893eb	0.16462676
1	0xbe9737d5	-0.29534784
2	0x3e5117fb	0.20419304
3	0x3ce56799	0.0280035
4	0x3e4cd5d4	0.20003444
5	0xbe7e652f	-0.24843286
6	0xbdee89c0	-0.116473675
7	0x3ecbcb42	0.3980351
8	0xbd44eb06	-0.0480757
9	0x3e340fcd	0.17584153
10	0xbdc42351	-0.095770486
11	0xbd0c960a	-0.034322776
12	0x3ea5508d	0.32288018
13	0xbd0b1192	-0.033952303
14	0x3d610639	0.054937575
15	0xbe7794d4	-0.24177867
16	0xbd550068	-0.05200234
17	0xbe0eebb0	-0.13957095
18	0x3d4406b7	0.047857966
19	0xbd33afdd	-0.04386889
20	0x3e0ac1e9	0.13550533
21	0xbe381c6a	-0.17979589
22	0x3e1b4ef4	0.15166837
23	0xbeb1bb04	-0.34712994
24	0x3db489ea	0.088153675
25	0xbe2d0227	-0.16895352
26	0xbe1c583f	-0.15268038
27	0x3dc41fc9	0.09576375
28	0xbe6957c4	-0.22787386
29	0x3ec730e0	0.38904476
30	0xbe156014	-0.14587432
31	0xbe691d0b	-0.22764985
32	0x3e2c7861	0.16842796
33	0xbe3ff598	-0.1874603
34	0xbea3ac2a	-0.31967288
35	0xbcd82c69	-0.026388364
36	0x3d0c2d40	0.03422284
37	0x3e91c55e	0.28470892
38	0xbe15aefb	-0.14617531
39	0x3de30aec	0.110860676
40	0x3d962f89	0.07333285
41	0x3d95f463	0.07322004
42	0xbdb68ca9	-0.089135475
43	0xbe388fde	-0.18023631
44	0x3e3c80a8	0.18408453
45	0x3e7b2413	0.2452548
46	0xbcca6dcb	-0.024710556
47	0x3ed1536e	0.40883964
48	0x3e9bd406	0.304352
49	0xbd427d9e	-0.04748308
50	0x3eda28d5	0.42609277
51	0x3eae9c5b	0.34103665
52	0xbe25fd4c	-0.16209906
53	0xbc888e16	-0.016669314
54	0xbd3978a5	-0.04528107
55	0xbdaeda3a	-0.08537717
56	0x3e394115	0.18091233
57	0x3ea6c593	0.32572612
58	0x3ecd449f	0.40091416
59	0x3d41f970	0.047357023
60	0x3e245c8d	0.1605093
61	0x3e81cf02	0.25353247
62	0x3e72816c	0.23682183
63	0x3ed4f8fd	0.41596213
64	0x3e875e92	0.2643934
65	0xbe400a80	-0.18754005
66	0x3edfdf05	0.43724838
67	0x3ec9aebf	0.39391133
68	0xbea3e079	-0.32007197
69	0xbeda18e5	-0.42597118
70	0x3e6bc711	0.23025157
71	0xbeafcb5d	-0.3433484
72	0x3e4f1062	0.20221093
73	0xbcfe14aa	-0.031015713
74	0xbee2eda0	-0.44321918
75	0xbe0720f9	-0.13196172
76	0xbe6bb2d5	-0.23017438
77	0x3e582cf8	0.21110904
78	0xbd61abac	-0.05509536
79	0xbe9245e9	-0.28568962

layers.0.spline_weight f4 [16, 5, 5]
0	0xbc3e590d	-0.011617911
1	0x3c92d437	0.017923458
2	0xbdd552e5	-0.104162015
3	0xbcffb360	-0.031213462
4	0x3ddc1e60	0.10747981
5	0xbd5ae057	-0.053436603
6	0xbd6caa67	-0.057779696
7	0xbd067fd9	-0.03283677
8	0x3d2642f7	0.040591206
9	0xbc6d3d80	-0.014479995
10	0x3dc24be8	0.09487134
11	0xbd030ab6	-0.031992637
12	0xbccb33d3	-0.024804985
13	0x3ca9c6ed	0.020724738
14	0xbd731198	-0.05934295
15	0xbe1cdfd2	-0.15319756
16	0x3bb5ec07	0.0055518183
17	0xbc144b0a	-0.009051094
18	0x3babf0cf	0.0052472125
19	0x3cde2d62	0.02712125
20	0x3e29594d	0.16537972
21	0x3d9ea844	0.07746938
22	0x3daa108a	0.08303936
23	0xbc9e6c6f	-0.019338815
24	0xbda3a923	-0.07991245
25	0xbb6e1a59	-0.0036331622
26	0x3e0711a0	0.13190317
27	0xbda893db	-0.08231326
28	0x3e7dd97b	0.24789993
29	0x3b8b2557	0.0042463946
30	0x3db1dce3	0.08684709
31	0xbe053f26	-0.1301237
32	0xbd2a26de	-0.041540973
33	0x3aeec376	0.0018216211
34	0x3e1eba04	0.15500647
35	0xbc67a92b	-0.014139454
36	0x3cb2e47b	0.021837464
37	0x3dd551e0	0.10416007
38	0x3d2bf106	0.041977905
39	0xbd703c50	-0.05865127
40	0xbd2416ae	-0.04006069
41	0x3d73529c	0.059404954
42	0xbdd2ed16	-0.10299127
43	0x3d38416b	0.044984262
44	0x3e00d2ce	0.12580416
45	0x3d0de216	0.03463944
46	0x3d449295	0.047991354
47	0x3c4ab892	0.012373107
48	0xbd51aa68	-0.051187903
49	0x3df4f083	0.119599365
50	0xbd92c2f1	-0.07166088
51	0x3dbe5a45	0.09294561
52	0xbd06b82d	-0.032890487
53	0x3dd51c58	0.10405797
54	0xbde0d2ab	-0.10977682
55	0x3e32f84b	0.17477529
56	0x3e673e99	0.22582473
57	0x3c443ea8	0.011977829
58	0x3c7bb4e9	0.015362957
59	0xbe108359	-0.14112605
60	0xbd963da3	-0.07335975
61	0xbdf64f11	-0.120267995
62	0xbc2bf2c5	-0.0104948925
63	0x3db78d66	0.089625165
64	0x3dbade7c	0.09124467
65	0x3d29a63e	0.041418307
66	0xbd976bec	-0.07393631
67	0x3bf91b5f	0.00760214
68	0xbdd2bb18	-0.102895916
69	0xbad57054	-0.0016284087
70	0x3db33d72	0.08751954
71	0xbe4ceabd	-0.2001142
72	0xbd9e926b	-0.07742771
73	0x3d21375a	0.039359428
74	0xbdaf16af	-0.085492484
75	0x3ce763d0	0.028245836
76	0x3da92232	0.08258475
77	0x3d8c310d	0.06845293
78	0x3babbe21	0.005241171
79	0x3dc38016	0.09545915
80	0xbde8166f	-0.11332404
81	0x3e1892c3	0.14899735
82	0xbe5e464f	-0.21706508
83	0x3d29ab0a	0.04142288
84	0x3db4c7ab	0.08827146
85	0x3dcf974e	0.10136281
86	0xbc959671	-0.018260213
87	0x3d85ff89	0.0654288
88	0xbcf6b174	-0.030113913
89	0xbda4b6a7	-0.08042651
90	0x3dec0609	0.115245886
91	0x3d0dad1c	0.034588918
92	0xbd1b62c7	-0.037936
93	0xbe1e06ce	-0.15432283
94	0x3ca37e4b	0.019957682
95	0x3e15683c	0.14590544
96	0x3e2c1ba0	0.16807413
97	0x3e155463	0.14582972
98	0xbcf209f5	-0.029545764
99	0xbdd1e0e7	-0.10247975
100	0x3e13137e	0.14362904
101	0xbe034b94	-0.128218
102	0x3d83fd95	0.06444851
103	0xbdc6f0b0	-0.09713876
104	0x3e0386cd	0.12844391
105	0x3d881015	0.066436924
106	0x3bda8fda	0.0066699805
107	0x3d34f5f3	0.044179868
108	0x3dc4ac9d	0.09603236
109	0x3dc0e781	0.09419156
110	0xbc94335a	-0.018090893
111	0x3e3ae540	0.18251514
112	0x3e03f331	0.12885739
113	0x3d0fb2c5	0.035082597
114	0x3d59a7f0	0.053138673
115	0xbcf6d3ba	-0.030130256
116	0xbc1957a3	-0.009359273
117	0x3d559962	0.05214823
118	0xbe0adab2	-0.13559988
119	0xbdc61f08	-0.096738875
120	0xbcc2bd5b	-0.023771932
121	0xbcb9c76c	-0.0226781
122	0x3db13843	0.08653309
123	0x3d3f45a1	0.046697263
124	0xbe2cb90b	-0.16867463
125	0xbc4cc3ba	-0.012497837
126	0x3e20f264	0.15717465
127	0x3caf8529	0.0214258
128	0x3d152b46	0.036418222
129	0x3e024e27	0.12725125
130	0xbd0f3e4c	-0.03497152
131	0xbb909784	-0.0044125933
132	0xbc90eefe	-0.017692085
133	0x3dcef359	0.10105009
134	0xbe282122	-0.16418889
135	0x3a8c6423	0.0010710995
136	0xbdc1ea36	-0.094685
137	0xbdb253cc	-0.08707389
138	0x3da624cc	0.08112487
139	0x3c33349b	0.010937835
140	0x3cb3bd3c	0.02194082
141	0x3c7eca5d	0.015551177
142	0xbda08af1	-0.07839001
143	0x3d4c07e6	0.04981222
144	0x3c87ec62	0.016592208
145	0x3cb6cc2b	0.022314152
146	0xbd2e51f2	-0.042558618
147	0xbdc15aa7	-0.09441119
148	0xbb0d4fe7	-0.0021562518
149	0x3e31f421	0.17378284
150	0x3d1e6031	0.038665954
151	0x3e0bdd43	0.13658623
152	0x3e1b89a6	0.15189227
153	0x3c81579e	0.01578885
154	0x3d883b05	0.06651882
155	0x3df1123c	0.11771056
156	0x3d946fca	0.072478846
157	0x3d63d2a1	0.055620793
158	0xbc2fbb3c	-0.0107257925
159	0xbe5e2d8b	-0.21697061
160	0x3d9139ce	0.070911035
161	0x3dd179fd	0.102283455
162	0xbd480e5f	-0.04884183
163	0xbddab276	-0.1067857
164	0x3cf641fa	0.030060757
165	0xbdbd15cb	-0.09232672
166	0x3df5305d	0.11972115
167	0x3cc71446	0.02430166
168	0xbda51557	-0.08060711
169	0x3dfbd362	0.122961774
170	0xbda2d8dd	-0.0795152
171	0x3e8af41d	0.2713937
172	0x3d6c1248	0.05763462
173	0x3d34e7a0	0.044166207
174	0xbc914535	-0.017733196
175	0xbd834210	-0.06409085
176	0x3c3df02c	0.011592906
177	0xbd6d37a6	-0.0579144
178	0x3cfca969	0.0308425
179	0x3d70fe4d	0.05883627
180	0xbda88071	-0.08227623
181	0x3d929a74	0.07158366
182	0x3dae56a6	0.08512621
183	0x3d6c546a	0.05769769
184	0xbe005a3a	-0.12534419
185	0x3d9663a0	0.07343221
186	0xbcd413a3	-0.02588827
187	0xbd366fb1	-0.04454011
188	0xbdbb4bc1	-0.09145308
189	0xbc36c17e	-0.011154531
190	0xbdc2bc89	-0.095086165
191	0x3ddf887a	0.10914703
192	0x3cde028c	0.027100824
193	0xbde81c2b	-0.113334976
194	0xbd4c9511	-0.04994685
195	0x3dd3a15c	0.10333511
196	0x3debc481	0.115120895
197	0xbc494cec	-0.012286406
198	0x3d56e215	0.052461702
199	0xbdefb79a	-0.11704941
200	0x3e3c4b5e	0.18388125
201	0x3e0d3c5f	0.13792561
202	0xbda62ae6	-0.08113651
203	0x3c1dcf3f	0.009631931
204	0x3d9c35ec	0.07627472
205	0x3e51e53b	0.204976
206	0x3e14df19	0.1453823
207	0xbc9dec2e	-0.019277658
208	0xbdc86547	-0.09784942
209	0xbd82d1cd	-0.063876726
210	0xbd023536	-0.031789027
211	0xbde968df	-0.11396956
212	0x3e81771c	0.25286186
213	0xbd9889fd	-0.07448194
214	0xbd8a25f8	-0.06745523
215	0xbdf48a61	-0.11940456
216	0x3ddac40b	0.106819235
217	0xbd2994de	-0.041401736
218	0x3e0f86d9	0.14016284
219	0xbc724006	-0.014785772
220	0x3d8b73e6	0.06809215
221	0x3d282019	0.041046236
222	0x3d7cf70b	0.061759036
223	0x3db8555b	0.09000655
224	0x3d70da41	0.058801893
225	0x3e137a39	0.14402093
226	0x3d5d1621	0.053976182
227	0xbd3b3ad9	-0.04571042
228	0xbd1390e2	-0.036026843
229	0xbd96c705	-0.07362179
230	0xbc3e5eb7	-0.0116192615
231	0x3dace7a4	0.084426194
232	0x3dbe15a4	0.09281471
233	0x3cee815b	0.029114416
234	0x3c25f780	0.010129809
235	0xbd8a6ca8	-0.06759006
236	0x3c94f70d	0.01818421
237	0xbddfc95e	-0.109270796
238	0x3d7cbcb1	0.061703388
239	0xbdf73c64	-0.120720655
240	0x3dcfb4cd	0.10141907
241	0x3ce18d7a	0.027533282
242	0xbda08800	-0.0783844
243	0x3b76028f	0.0037538146
244	0xba4291b9	-0.0007422227
245	0x3e25f6c2	0.16207412
246	0xbe1e405b	-0.15454237
247	0x3dcc5251	0.09976638
248	0xbe36707d	-0.17816348
249	0x3dce78b5	0.10081617
250	0x3e6ee2bc	0.2332868
251	0xbe181abc	-0.14853948
252	0x3d70e98b	0.058816474
253	0x3e0f07ff	0.13967894
254	0xbd2bf7ef	-0.041984495
255	0x3dfa4e2e	0.12221943

layers.1.base_weight f4 [1, 16]
0	0x3e5986d0	0.21242833
1	0x3d4baf18	0.04972753
2	0xbe38e3f5	-0.18055709
3	0x3db86d72	0.0900525
4	0xbd2c62c8	-0.042086393
5	0x3d307825	0.04308333
6	0x3e58325d	0.21112962
7	0xbd8018f2	-0.06254758
8	0x3e0364f1	0.12831475
9	0xbd0ac16c	-0.033875868
10	0x3e37035c	0.17872375
11	0xbe0c3e8b	-0.13695733
12	0xbe14edfe	-0.14543912
13	0x3e5e1b44	0.21690089
14	0x3ca33218	0.019921347
15	0xbda781ae	-0.08179031

layers.1.spline_weight f4 [1, 16, 5]
0	0xbd6d2bbf	-0.057903048
1	0xbe0293a2	-0.1275163
2	0x3d4f36f7	0.050589528
3	0x3d96e3c9	0.07367665
4	0xbd6ef66e	-0.058340482
5	0x3c943614	0.018092193
6	0xbd270d3c	-0.040784106
7	0x3d7a5c4b	0.061123174
8	0xbd028dba	-0.031873442
9	0x3c8f286a	0.017475326
10	0x3d968e25	0.07351331
11	0x3db0badd	0.08629391
12	0xbdbe36cf	-0.09287798
13	0x3cd28251	0.025696905
14	0x3bef72d6	0.0073073907
15	0xbd8cb76e	-0.06870924
16	0x3df75292	0.12076296
17	0xbddbaea5	-0.1072667
18	0x3da82725	0.08210591
19	0xbce36c79	-0.027761685
20	0xbc40bd7d	-0.0117639275
21	0x3bc2f97d	0.0059501515
22	0xbb0768fc	-0.002066194
23	0xbc1deecb	-0.009639452
24	0x3bd8bad5	0.006614069
25	0xbbd27963	-0.006423162
26	0xbe4c4edd	-0.19951959
27	0x3e048d2d	0.1294448
28	0x3a06720a	0.00051286875
29	0xbcb71ca0	-0.022352517
30	0xbce1da0d	-0.027569795
31	0x3d58f614	0.052969053
32	0xbdbd17a4	-0.09233025
33	0x3d8f132d	0.06986079
34	0xbcdf1c81	-0.027235271
35	0xbca215f5	-0.01978586
36	0xbcb1ae6b	-0.021689614
37	0x3d867166	0.06564598
38	0x3d26dc54	0.040737465
39	0xbd39d77a	-0.04537151
40	0xbe2a8b2f	-0.16654657
41	0x3dd3f74e	0.10349904
42	0x3dbf896b	0.09352382
43	0xbd94e7cf	-0.072707765
44	0x3d0d571e	0.03450691
45	0xbd574474	-0.052555516
46	0xbdcdccb0	-0.10048807
47	0x3c96f215	0.01842598
48	0xbd57a748	-0.052649766
49	0x3d1dda24	0.038538113
50	0x3e152363	0.1456428
51	0x3c44469a	0.011979723
52	0xbdc68ea4	-0.09695175
53	0x3cd16105	0.025558958
54	0x3b4c8d63	0.0031212203
55	0x3db4ac25	0.088218965
56	0x3dcf0491	0.10108293
57	0xbd157fe7	-0.03649893
58	0xbd164693	-0.0366884
59	0x3cc3d083	0.023903137
60	0x3cf8a556	0.030352276
61	0xbd5b3864	-0.053520575
62	0x3d289008	0.041152984
63	0xbd773804	-0.060356155
64	0x3cf3e0c2	0.029770259
65	0x3ce204af	0.027590124
66	0xbd39ae1b	-0.045332056
67	0x3d24ec16	0.04026421
68	0xbcf3bbd5	-0.029752651
69	0x3c2c027e	0.010498641
70	0x3d821ba9	0.06352932
71	0xbc00f6a0	-0.0078713
72	0xbbf3645f	-0.0074277367
73	0x3cb4df25	0.02207906
74	0xbc6b1550	-0.014348343
75	0x3d81647b	0.06317993
76	0xbd8f87c1	-0.07008315
77	0x3d713940	0.05889249
78	0xbd053a32	-0.032526202
79	0x3c2cd9e8	0.01055
