backend/ml/research/models/crash300n_survival_lstm.pth (torch, 501087 bytes, 12 tensors)

lstm1.weight_ih_l0 f4 [512, 11]
-0.09810447 -0.08845554 0.034805227 0.062665865 -0.07600356 -0.08783397 -0.050373558 -0.0292816
-0.02345936 0.011611571 -0.08139689 -0.01887287 0.0042910823 -0.025483964 -0.021844074 0.005858314
0.054757062 0.051488988 -0.093700886 0.061699033 -0.08027895 -0.10323024 -0.07365265 -0.11264257
-0.044183664 -0.0900849 0.005060124 0.03405354 -0.037158784 -0.0894043 -0.106702566 0.036512185
-0.114908114 -0.0017948644 0.070446745 -0.041184083 0.07128099 -0.019917496 -0.029614707 -0.044156622
-0.06317085 0.041478403 -0.084131435 0.054671574 0.041173697 0.07302544 -0.006239036 0.0742148
-0.002294499 -0.012563634 -0.098402195 0.028144205 -0.042717278 -0.0019726127 0.058584955 -0.034636967
-0.09189054 -0.11190365 -0.026232874 -0.112783454 -0.021546 0.01607811 -0.025390312 -0.009833107
-0.09606526 -0.12281395 -0.00033293586 0.039009962 0.04158848 0.043688197 -0.08845469 -0.015669575
0.028873358 0.014203366 -0.052955713 0.034052983 0.02676008 0.045609273 0.03520716 -0.0059269927
-0.05922226 -0.040585756 0.086883105 0.06793768 0.065587334 -0.044455044 -0.005285183 0.05460569
-0.09826315 -0.020946767 0.034144778 0.022893924 0.04017817 3.9896033e-05 0.004118576 0.058277227
-0.027550817 0.023618393 -0.010907209 0.024846658 -0.006194078 -0.08420187 0.060678396 -0.06738435
0.039009478 -0.0056912038 -0.017251043 -0.046252694 -0.02747022 0.029838858 0.046140336 -0.035049837
0.0034894436 -0.04667309 -0.042847265 -0.0026516423 -0.083761014 -0.04625204 -0.03007898 -0.06536804
-0.0048566116 -0.07439849 0.034328748 -0.10001115 -0.10461609 -0.07513559 -0.07812288 -0.050337758
0.009258502 -0.10115283 -0.009395271 0.0038264631 0.09354356 -0.06512221 0.0344616 0.062353794
0.013031762 -0.05676071 -0.014880066 -0.023483556 -0.10108848 -0.008261273 0.08970889 -0.079596385
-0.0024461055 -0.018812053 0.021629 0.031687 -0.042875808 -0.04130537 -0.01201079 -0.05021717
-0.094581984 -0.080973856 -0.013459297 0.047192242 -0.022298189 -0.062329527 0.0876675 -0.058079492
0.02803802 -0.024237888 0.049039852 -0.006327114 -0.03608239 -0.078391045 -0.05001192 0.053998496
-0.009333935 -0.0118314605 -0.032279424 0.06960303 -0.024562765 -0.06751579 -0.050111882 0.02068723
-0.08025936 0.024883883 -0.056364696 -0.057429656 -0.07157348 0.055281892 0.00963798 0.022662045
-0.033922512 -0.032817267 -0.09353026 -0.04789752 0.04953298 0.08088091 -0.07087857 -0.044798832
0.05145453 0.039158326 -0.022243045 0.019016143 0.10199152 0.018116415 -0.055613574 -0.057709247
-0.030151274 -0.013849196 0.04984714 -0.07274474 -0.042272106 0.063862756 0.0789085 0.085041665
0.06603996 0.033525337 0.024080822 -0.03514604 0.059182815 0.024516802 -0.068402655 0.004087444
-0.016742578 0.04456182 0.037807614 0.048003007 0.1034778 0.1063773 -0.013438064 0.043757368
-0.04317542 0.085919425 -0.0041182395 0.086029366 -0.011547198 -0.076699905 -0.056425013 0.021975026
0.05965167 0.029746396 0.009683572 -0.007491328 0.07468688 -0.015732754 0.08805637 0.07661083
0.08640327 0.05872754 -0.013081384 -0.008920125 0.038965523 -0.059915375 -0.0646299 -0.11476405
-0.10063655 -0.082035296 -0.12147627 0.02799391 -0.021668965 0.0875342 -0.032771837 -0.03709023
00000000: ffea c8bd 2e28 b5bd ed8f 0e3d f656 803d
00000010: c1a7 9bbd 4ce2 b3bd 8154 4ebd f7df efbc
00000020: d82d c0bc 753e 3e3c 6ab3 a6bd 479b 9abc
00000030: 359c 8c3b bfc3 d0bc 58f2 b2bc 1af7 bf3b
00000040: f148 603d 1ee6 523d 40e6 bfbd 20b8 7c3d
00000050: 4a69 a4bd 606a d3bd 33d7 96bd 26b1 e6bd
00000060: eef9 34bd 6f7e b8bd 66cf a53b ba7b 0b3d
00000070: cf33 18bd 9a19 b7bd e086 dabd cd8d 153d
00000080: f254 ebbd a841 ebba 6246 903d a4b0 28bd
00000090: c5fb 913d 042a a3bc 8b9a f2bc 93dd 34bd
000000a0: b85f 81bd 42e5 293d 1a4d acbd 4def 5f3d
000000b0: c0a5 283d 5d8e 953d d470 ccbb eefd 973d
000000c0: 4e5f 16bb b3d7 4dbc 1787 c9bd ad8e e63c
000000d0: 50f8 2ebd f346 01bb c7f6 6f3d 7edf 0dbd
000000e0: 1c31 bcbd be2d e5bd 53e6 d6bc 03fb e6bd
000000f0: 3d81 b0bc 3eb6 833c 58ff cfbc 0a1b 21bc
00000100: ddbd c4bd e185 fbbd e58d aeb9 e9c8 1f3d
00000110: af58 2a3d 65f2 323d bc27 b5bd 7b5d 80bc
00000120: d287 ec3c 3cb5 683c 17e8 58bd 247b 0b3d
00000130: f537 db3c cad0 3a3d 6235 103d 3837 c2bb
00000140: 0a93 72bd 403d 26bd c5ef b13d e922 8b3d
00000150: a752 863d 7e16 36bd 542f adbb 37aa 5f3d
00000160: 313e c9bd 8e98 abbc 65db 0b3d 0a8c bb3c
00000170: dd91 243d 0a56 2738 1ff5 863b 1ab4 6e3d
00000180: 40b2 e1bc 5c7b c13c 26b4 32bc 388b cb3c
00000190: b1f7 cabb 0872 acbd e989 783d ce00 8abd
000001a0: 67c8 1f3d 477d babb 0f52 8dbc 7773 3dbd
000001b0: 3a09 e1bc 9f70 f43c a6fd 3c3d 6b90 0fbd
000001c0: 26af 643b 482c 3fbd 9d80 2fbd 2dc7 2dbb
000001d0: e58a abbd c772 3dbd 3168 f6bc aedf 85bd
000001e0: 3624 9fbb 3c5e 98bd 4d9c 0c3d a5d2 ccbd
000001f0: f640 d6bd b0e0 99bd e3fe 9fbd f72e 4ebd
00000200: f9b0 173c 3729 cfbd 9fee 19bc 66c5 7a3b
00000210: c493 bf3d cb5e 85bd 9b27 0d3d b166 7f3d
00000220: 2c83 553c eb7d 68bd 85cb 73bc 9660 c0bc
00000230: 7a07 cfbd 4a5a 07bc 4bb9 b73d 6e03 a3bd
00000240: d74e 20bb bc1b 9abc 4d2f b13c 3aca 013d
00000250: 8b9e 2fbd d22f 29bd e8c8 44bc 85b0 4dbd
00000260: 33b4 c1bd 9fd5 a5bd 6284 5cbc a74c 413d
00000270: b1aa b6bc 3f4d 7fbd 058b b33d c3e4 6dbd
00000280: fdaf e53c 898e c6bc 03de 483d ae53 cfbb
00000290: 21cb 13bd 7c8b a0bd 4dd9 4cbd 872d 5d3d
000002a0: 5ced 18bc bed8 41bc 6e37 04bd 098c 8e3d
000002b0: da37 c9bc b845 8abd 1e42 4dbd 4478 a93c
000002c0: 055f a4bd 49d9 cb3c abde 66bd 5c3b 6bbd
000002d0: 1e95 92bd 446f 623d 9ee8 1d3c c1a5 b93c
000002e0: 55f2 0abd 666b 06bd cb8c bfbd 3130 44bd
000002f0: 18e3 4a3d e4a4 a53d c928 91bd fb7e 37bd
00000300: fcc1 523d 7b64 203d 0c37 b6bc bec7 9b3c
00000310: eee0 d03d e068 943c 0fcb 63bd 8860 6cbd
00000320: ceff f6bc bde7 62bc 842c 4c3d 32fb 94bd
00000330: 8425 2dbd 7aca 823d c89a a13d 532a ae3d
00000340: f53f 873d dd51 093d 2545 c53c 4bf5 0fbd
00000350: ae69 723d 76d7 c83c b116 8cbd f7ef 853b
00000360: bb27 89bc 7486 363d 28dc 1a3d cd9e 443d
00000370: 2bec d33d 58dc d93d 532b 5cbc ed3a 333d
00000380: b6d8 30bd 86f6 af3d 4cf2 86bb 2a30 b03d
00000390: 7530 3dbc d714 9dbd ea1d 67bd f804 b43c
000003a0: 4f55 743d b7ae f33c d8a7 1e3c d079 f5bb
000003b0: 6ff5 983d fae1 80bc e656 b43d 24e6 9c3d
000003c0: 33f4 b03d 4a8c 703d 4d53 56bc b725 12bc
000003d0: 509a 1f3d d369 75bd ae5c 84bd 6a09 ebbd
000003e0: 891a cebd 1f02 a8bd 8dc8 f8bd 7c53 e53c
000003f0: 1d83 b1bc 2145 b33d c33b 06bd edeb 17bd

lstm1.weight_hh_l0 f4 [512, 128]
-0.04938553 0.060655802 -0.048535317 0.0006533167 -0.03509864 0.05438194 0.02031122 -0.054598458
-0.077518746 0.09878022 0.01360025 0.060916346 -0.100988925 0.029968798 -0.09788098 0.002345099
0.08748028 -0.10516009 -0.05829583 -0.05308077 -0.09071838 -0.0833981 0.056837335 0.031970095
-0.08807587 0.06965938 -0.03713849 -0.028012093 0.049130764 -0.033018503 -0.074612774 0.058931552
0.06449968 0.010268312 -0.0111927455 -0.035991747 -0.008546712 0.044298377 -0.048811223 -0.00690908
-0.04922786 -0.0386667 -0.012567128 -0.07497089 -0.044443857 0.12523264 0.07983222 0.023631684
-0.0916688 -0.014308536 -0.0031909668 0.011067996 0.0025212055 -0.09769072 -0.048852675 -0.040042717
0.013623475 -0.015423586 -0.041425437 0.09694011 0.029310275 0.016551094 -0.04142445 0.09883788
0.015756588 -0.05967195 -0.03591379 0.01670534 -0.019791929 -0.032567214 0.07106412 0.01740881
0.06486472 -0.0007006036 0.0011107686 0.04725302 0.06826215 0.05857818 0.092420325 -0.06033143
-0.043721862 -0.07932029 -0.019788574 0.01757853 0.0052001476 -0.041008253 -0.025069498 -0.06659122
-0.09018573 0.07223738 -0.0062250057 0.08557795 0.011150907 0.01998387 -0.0056874673 0.02505705
-0.016414274 0.058666706 -0.061893307 -0.023941291 -0.039416835 0.07349228 0.011344582 -0.036681157
-0.033296444 -0.065587245 0.01304 0.06625084 -0.03021817 -0.05669344 -0.09693589 -0.06466944
-0.054945208 0.086684 -0.009255469 0.037969235 0.0024431082 0.047387853 0.07399469 0.016359506
0.070967935 -0.055410225 0.060902964 0.08943123 0.0815098 0.028120153 -0.05774327 0.030615056
0.0030179103 0.02726656 -0.048468232 0.061514284 0.038415115 -0.05887592 0.08601982 0.012468178
-0.07953017 0.005988541 -0.013346842 0.043872073 -0.017820735 -0.10343051 0.05911448 -0.058339685
-0.036984943 0.0058166045 0.010548921 -0.0958147 0.0050466093 0.007860967 0.022721583 0.034257844
-0.0053870743 0.021876497 -0.10005627 -0.05546915 -0.06721537 -0.010749514 -0.0689745 -0.03373889
0.008660146 0.08811398 0.030845702 -0.051462352 -0.005599725 0.09177362 0.082150966 -0.022107061
0.0728999 -0.07387404 -0.04781417 -0.046681385 0.070983596 0.066163495 -0.06144676 -0.00047145726
-0.013417879 0.040493708 0.03407127 0.04332488 -0.031599518 -0.08326378 -0.05562178 0.047128256
0.008096724 0.040302582 0.048919763 0.085006036 -0.034079295 -0.014902606 0.06388937 0.049829256
0.0420709 -0.082552604 0.05737237 -0.08759882 0.10101446 -0.03597428 -0.037847698 -0.05590611
0.022275673 0.005457437 0.08885929 -0.10592621 -0.01754797 0.008733763 0.029580278 -0.04172986
-0.009831623 0.0062946565 0.0136635 -0.02831622 -0.026287638 0.012907347 -0.037100803 -0.055358972
0.034239434 0.014196461 -0.05639019 -0.021447416 0.008592587 0.055106916 0.09983944 -0.06491293
0.043750085 0.08776029 -0.0038813683 -0.027216068 0.078412175 0.030491952 -0.0638874 -0.06702952
0.061186895 -0.05449172 0.028453503 -0.016672058 0.077755064 -0.019702716 -0.061150093 0.08473282
-0.092356324 0.05256799 -0.016751308 0.032900292 -0.067130975 -0.0073245396 0.027627368 0.063330255
0.09258271 -0.015353761 0.029448995 -0.0859919 -0.050203223 0.08099231 0.09705488 -0.02196508
00000000: 7b48 4abd 3872 783d f8cc 46bd 5743 2b3a
00000010: 97c3 0fbd 99bf 5e3d b763 a63c a2a2 5fbd
00000020: 26c2 9ebd 494d ca3d 95d3 5e3c 6b83 793d
00000030: 48d3 cebd 2081 f53c d375 c8bd 3cb0 193b
00000040: dc28 b33d 2c5e d7bd 9cc7 6ebd 396b 59bd
00000050: 8fca b9bd a0cc aabd 44ce 683d 13f3 023d
00000060: 1f61 b4bd 94a9 8e3d 871e 18bd 9e79 e5bc
00000070: 573d 493d 693e 07bd 95ce 98bd 3662 713d
00000080: 6918 843d 6c3c 283c c761 37bc 156c 13bd
00000090: 8207 0cbc 3772 353d 47ee 47bd 9065 e2bb
000000a0: 27a3 49bd f960 1ebd 5be6 4dbc 578a 99bd
000000b0: c30a 36bd fc3c 003e 137f a33d 3c97 c13c
000000c0: dabc bbbd 5a6e 6abc 8a1f 51bb 8a56 353c
000000d0: cf3a 253b 1212 c8bd be19 48bd d503 24bd
000000e0: ff34 5f3c 35b3 7cbc b8ad 29bd 8988 c63d
000000f0: 1a1c f03c 2996 873c afac 29bd 846b ca3d
00000100: f613 813c 936a 74bd 571a 13bd a3d9 883c
00000110: af22 a2bc 3365 05bd 118a 913d ec9c 8e3c
00000120: cbd7 843d b6a8 37ba 3697 913a 628c 413d
00000130: 07cd 8b3d acef 6f3d de46 bd3d 171e 77bd
00000140: b215 33bd ad72 a2bd a61b a2bc d900 903c
00000150: 0066 aa3b 45f8 27bd 8c5e cdbc fa60 88bd
00000160: 4cb3 b8bd 31f1 933d 22fb cbbb 7e43 af3d
00000170: 4bb2 363c 37b5 a33c ef5d babb 7144 cd3c
00000180: 3a77 86bc 804c 703d d683 7dbd 8720 c4bc
00000190: 8c73 21bd 1f83 963d a0de 393c fb3e 16bd
000001a0: da61 08bd 9b52 86bd b9a5 553c 85ae 873d
000001b0: 188c f7bc 6137 68bd 5386 c6bd 6971 84bd
000001c0: 3a0e 61bd 6287 b13d 40a4 17bc a185 1b3d
000001d0: 8e1c 203b c419 423d 878a 973d 5f04 863c
000001e0: a357 913d d5f5 62bd 6375 793d b927 b73d
000001f0: 9cee a63d 3c5c e63c 3584 6cbd 6dcc fa3c
00000200: 22c8 453b 1f5e df3c a086 46bd 67f6 7b3d
00000210: 2b59 1d3d e027 71bd 292b b03d 5447 4c3c
00000220: b7e0 a2bd 863b c43b b6ac 5abc 34b3 333d
00000230: cafc 91bc 60d3 d3bd 0622 723d 98f5 6ebd
00000240: 867d 17bd 3799 be3b 62d5 2c3c 7f3a c4bd
00000250: 075e a53b 49cb 003c 9d22 ba3c f451 0c3d
00000260: 0e86 b0bb 5736 b33c 4dea ccbd 9f33 63bd
00000270: 36a8 89bd bb1e 30bc 8142 8dbd ca31 0abd
00000280: 49e3 0d3c 1a75 b43d 20b0 fc3c 30ca 52bd
00000290: e67d b7bb cff3 bb3d c43e a83d de19 b5bc
000002a0: 8b4c 953d 464b 97bd cbd8 43bd fb34 3fbd
000002b0: d95f 913d ba80 873d 99af 7bbd ec2d f7b9
000002c0: aad6 5bbc bbdc 253d 518e 0b3d 6e75 313d
000002d0: 7f6e 01bd 3386 aabd aad3 63bd 8f09 413d
000002e0: 1fa8 043c 5214 253d 1760 483d a517 ae3d
000002f0: bb96 0bbd 0f2a 74bc 6ed8 823d c319 4c3d
00000300: 8952 2c3d 5711 a9bd 4aff 6a3d 0367 b3bd
00000310: abe0 ce3d c459 13bd 3006 1bbd cefd 64bd
00000320: 797b b63c 4dd4 b23b dcfb b53d d7ef d8bd
00000330: c3c0 8fbc 0f18 0f3c 5752 f23c eeec 2abd
00000340: d114 21bc 6843 ce3b dfdc 5f3c 6bf7 e7bc
00000350: 2c59 d7bc 5679 533c 03f7 17bd 17c0 62bd
00000360: a63e 0c3d 4698 683c 66f9 66bd 7eb2 afbc
00000370: ecc7 0c3c cab7 613d 9f78 cc3d 12f1 84bd
00000380: 4a33 333d abbb b33d 8e5e 7ebb 3bf4 debc
00000390: 9096 a03d 42ca f93c 66d7 82bd c646 89bd
000003a0: 1c9f 7a3d b632 5fbd 5217 e93c d793 88bc
000003b0: 0c3e 9f3d 9767 a1bc 8578 7abd 6788 ad3d
000003c0: 5025 bdbd 8851 573d 0a3a 89bc 75c2 063d
000003d0: f77b 89bd b102 f0bb ca52 e23c 4bb3 813d
000003e0: 019c bd3d 578e 7bbc 053f f13c 851c b0bd
000003f0: e5a1 4dbd 4cdf a53d b5c4 c63d 1df0 b3bc

lstm1.bias_ih_l0 f4 [512]
-0.09558761 0.03789777 0.047113895 0.04426093 0.072644025 -0.001361019 -0.026924115 0.027651891
0.00023867092 0.03928887 0.014792323 -0.069584444 0.01120275 -0.044000972 0.037100807 -0.08297262
-0.079528116 0.050327525 0.015562446 0.022083493 0.09449112 0.08794417 -0.112062365 0.015042729
0.060691223 0.050916974 0.068378225 -0.053032275 -0.04773928 -0.049176957 -0.08087525 -0.049356595
-0.01126644 -0.0144166155 0.029066402 0.031830598 -0.031326447 -0.01743285 -0.020556718 0.0490821
-0.049713597 0.06424926 -0.09510393 -0.07171345 -0.030853834 0.079930164 -0.027957845 -0.020580206
-0.0829049 0.06705635 -0.009811763 -0.020850686 -0.018328039 -0.009668477 0.003274576 0.0455646
-0.08924888 -0.008093195 0.0530488 -0.025836626 -0.1033742 -0.0047702915 -0.050610933 -0.03819216
-0.06939054 0.023538217 -0.06994411 0.029140996 -0.03960496 0.0569703 0.046751816 0.01741584
0.012792562 0.035393044 0.05063718 0.072553284 -0.07792574 0.062029865 -0.053062502 -0.03892011
-0.023723803 -0.058103427 -0.04185761 -0.001332937 -0.038990483 0.06397148 0.0297752 -0.01253615
-0.028285831 0.02007483 -0.030959295 0.05242761 -0.048826557 -0.019265769 0.02446904 0.12986709
-0.037736997 0.02251055 0.065035306 0.05550094 0.054431185 0.048064925 0.04279274 -0.022547802
-0.070100255 0.07898256 -0.0013425648 -0.088239364 -0.048349157 0.0073340926 -0.07883488 -0.067275956
-0.079778895 0.04577896 0.0010710771 -0.047372263 0.04658917 -0.034352455 -0.064611524 0.007020444
-0.026642408 -0.03988689 -0.06539403 0.016626691 0.10206518 -0.065864176 -0.06517591 -0.090774514
-0.007632101 -0.09575115 0.05027508 -0.04338091 -0.09745069 -0.03544212 -0.07652546 -0.08028805
-0.07702468 0.059650756 0.05270061 -0.12953222 0.058372196 -0.002344634 -0.00042031956 -0.031407103
-0.09711165 0.039938595 -0.08851959 0.00868744 -0.018311048 -0.08079265 0.006344122 -0.00013982053
0.013550069 -0.094229706 -0.08108935 0.031728853 -0.024830768 0.026499143 -0.062046908 -0.047545627
0.00070258894 0.056095462 0.056000568 -0.06286398 -0.09433008 -0.088483624 -0.035334665 -0.091449924
-0.066150315 0.062370393 -0.019335693 0.020629985 0.02445208 -0.081507035 0.048771434 0.06142558
-0.042387687 -0.03796945 0.017165584 0.06784513 0.041843165 -0.10108517 0.005007853 0.016869003
-0.062042862 -0.010268494 0.048024446 -0.05242828 0.030130394 0.042401172 -0.002762528 0.031043664
-0.08819802 -0.07904666 0.03404154 0.06830764 -0.035433814 -0.01491067 -0.09133 0.016404448
-0.02943305 0.0051619913 -0.09139421 -0.06723726 -0.09461138 -0.02763339 -0.109148234 0.02445259
-0.025281707 0.01988898 -0.04206674 -0.06423245 -0.03756038 0.012322316 -0.09403522 -0.052902937
0.060199223 -0.11974263 -0.016301952 0.08945857 0.02495858 0.079812974 0.010984123 -0.009043054
0.044095285 0.056921642 -0.06762354 -0.07572808 0.055944838 -0.025403475 -0.08874964 0.016115265
-0.034466527 -0.05401608 -0.038560264 0.026076032 -0.093068175 0.024154648 -0.078774564 -0.03577932
0.031364225 -0.050071154 -0.09908458 -0.055462133 -0.061995152 0.09623025 0.034328252 -0.010134901
-0.070054516 -0.024529032 -0.03633167 -0.0981632 0.053663377 -0.07349184 -0.061038986 0.0004544711
00000000: 70c3 c3bd b13a 1b3d 80fa 403d f34a 353d
00000010: 64c6 943d 3864 b2ba f68f dcbc 3886 e23c
00000020: bd43 7a39 5eed 203d 805b 723c 4a82 8ebd
00000030: bd8b 373c 5d3a 34bd 04f7 173d 8ded a9bd
00000040: a3df a2bd 3c24 4e3d a1f9 7e3c 71e8 b43c
00000050: 8f84 c13d 131c b43d f480 e5bd c775 763c
00000060: 5c97 783d 518e 503d e209 8c3d 5f38 59bd
00000070: 438a 43bd c76d 49bd eca1 a5bd 242a 4abd
00000080: e096 38bc ab33 6cbc aa1c ee3c cd60 023d
00000090: 2950 00bd 56cf 8ebc 9066 a8bc 500a 493d
000000a0: 7ca0 4bbd 1e95 833d d9c5 c2bd 80de 92bd
000000b0: 2ec1 fcbc 6db2 a33d da07 e5bc d297 a8bc
000000c0: 0bca a9bd d754 893d 84c1 20bc 0fcf aabc
000000d0: af24 96bc 8868 1ebc 459a 563b f2a1 3a3d
000000e0: 1ec8 b6bd 5299 04bc b349 593d 55a7 d3bc
000000f0: dab5 d3bd 1b50 9cbb 694d 4fbd 626f 1cbd
00000100: a11c 8ebd 38d3 c03c dc3e 8fbd 19b9 ee3c
00000110: cf38 22bd b059 693d d57e 3f3d aaab 8e3c
00000120: e597 513c 4cf8 103d ef68 4f3d d196 943d
00000130: 8897 9fbd 0713 7e3d 1158 59bd b16a 1fbd
00000140: 6c58 c2bc dcfd 6dbd e372 2bbd f2b5 aeba
00000150: 7cb4 1fbd 7b03 833d 1feb f33c 6d64 4dbc
00000160: b0b7 e7bc f873 a43c 599e fdbc 55be 563d
00000170: 5bfe 47bd 3fd3 9dbc 4c73 c83c e1fb 043e
00000180: 1c92 1abd 0c68 b83c 3b31 853d f454 633d
00000190: 3cf3 5e3d badf 443d 7147 2f3d 2bb6 b8bc
000001a0: b990 8fbd 9cc1 a13d 00f9 afba d7b6 b4bd
000001b0: c409 46bd d452 f03b 2e74 a1bd fac7 89bd
000001c0: 1e63 a3bd b882 3b3d 6263 8c3a 6b09 42bd
000001d0: 49d4 3e3d 29b5 0cbd 0c53 84bd c10b e63b
000001e0: 2e41 dabc 7060 23bd 4eed 85bd b334 883c
000001f0: 8d07 d13d cce3 86bd f37a 85bd fde7 b9bd
00000200: b416 fabb 2e19 c4bd 3eed 4d3d 2eb0 31bd
00000210: 3a94 c7bd c22b 11bd 61b9 9cbd 106e a4bd
00000220: 1ebf 9dbd 5a54 743d 98dc 573d 18a4 04be
00000230: af17 6f3d 6ea8 19bb 565e dcb9 bca4 00bd
00000240: 79e2 c6bd a796 233d c249 b5bd c455 0e3c
00000250: 0d01 96bc 9e76 a5bd 5ae2 cf3b ca9c 12b9
00000260: 1c01 5e3c 81fb c0bd 2c12 a6bd 1df6 013d
00000270: e569 cbbc bb14 d93c e624 7ebd 34bf 42bd
00000280: f22d 383a 5bc4 653d da60 653d d5be 80bd
00000290: 2130 c1bd e736 b5bd 15bb 10bd 194a bbbd
000002a0: d179 87bd 1978 7f3d e365 9ebc 3700 a93c
000002b0: ba4f c83c 29ed a6bd 8ec4 473d 6499 7b3d
000002c0: b69e 2dbd db85 1bbd d79e 8c3c 63f2 8a3d
000002d0: bd63 2b3d be05 cfbd ea18 a43b dd30 8a3c
000002e0: a820 7ebd 2f3d 28bc 48b5 443d 09bf 56bd
000002f0: 04d4 f63c daac 2d3d 870b 35bb 484f fe3c
00000300: 2aa1 b4bd 37e3 a1bd 246f 0b3d e0e4 8b3d
00000310: 0c23 11bd e24b 74bc 390b bbbd 9f62 863c
00000320: 941d f1bc ec25 a93b e32c bbbd b0b3 89bd
00000330: 9cc3 c1bd 6b5f e2bc 1c89 dfbd cc50 c83c
00000340: 951b cfbc 37ee a23c 2d4e 2cbd 4e8c 83bd
00000350: ead8 19bd 8ae3 493c 8a95 c0bd c0b0 58bd
00000360: 7693 763d a03b f5bd ac8b 85bc 0e36 b73d
00000370: f075 cc3c fc74 a33d c0f6 333c 5129 14bc
00000380: 429d 343d ab26 693d 367e 8abd 5317 9bbd
00000390: 6a26 653d f31a d0bc 5fc2 b5bd 2904 843c
000003a0: c62c 0dbd f73f 5dbd 5ef1 1dbd 679d d53c
000003b0: 879a bebd f8df c53c 8f54 a1bd 568d 12bd
000003c0: c677 003d 6917 4dbd dbec cabd 432c 63bd
000003d0: a1ee 7dbd 5e14 c53d c89b 0c3d db0c 26bc
000003e0: be78 8fbd 1cf1 c8bc 84d0 14bd ca09 c9bd
000003f0: 21ce 5b3d e482 96bd 0404 7abd 1446 ee39

lstm1.bias_hh_l0 f4 [512]
0.040641636 0.05751889 -0.11968739 -0.09637257 -0.05172234 -0.04999097 0.078045614 0.0040138527
0.030335376 0.06292946 -0.06579556 -0.023571726 -0.04978377 -0.062211383 0.03438109 -0.02044862
0.04693437 0.06866943 0.0075549185 -0.021144232 -0.052785795 0.0454458 -0.013413694 0.012230168
0.034093056 -0.036132015 0.0701046 -0.09613923 -0.03842339 -0.021879276 -0.10558312 -0.08587654
-0.00018524007 0.026191983 0.043393876 -0.06813007 0.06469921 0.027155899 -0.11482366 0.032360762
-0.02290936 0.059478518 -0.08125473 -0.06071418 0.06852492 -0.07300754 -0.10806892 0.02618204
-0.004517139 -0.03574362 0.05015577 -0.08506367 -0.022290591 -0.07646489 -0.06341557 -0.0868666
-0.080618694 0.11049232 0.021243703 0.05631039 -0.046906102 -0.07554884 -0.020161914 0.059282552
-0.07570922 -0.056525003 -0.02274973 -0.03895042 0.047198106 -0.022025155 -0.032330994 -0.04847283
-0.089664534 -0.10223997 -0.07418744 0.044143714 -0.06117096 -0.095194556 -0.037041783 -0.05875159
0.04170468 -0.05605773 -0.06190951 0.04279358 -0.050104015 0.00018169021 -0.088826135 0.010694127
0.08737574 -0.0020866082 -0.027366726 0.021755729 -0.0029348563 -0.033525337 -0.00919177 0.050793447
0.07177358 -0.023792516 0.046435893 0.052916545 0.059595693 -0.033162475 0.047891904 -0.037924852
-0.026989264 -0.021225804 0.070320316 -0.019023033 -0.09062553 0.06647641 -0.07045777 -0.07141342
-0.08797005 0.04143478 -0.09060107 0.08670023 0.0306978 0.011932704 0.040638544 0.02248858
-0.025440566 0.025137907 0.02485408 0.008126421 -0.06381767 -0.08791694 -0.022086991 0.03548297
-0.0038094409 1.4406745e-05 -0.045556936 -0.08119751 0.06842977 0.028842485 0.07427599 -0.0548146
0.07590362 0.014153942 0.015071656 -0.00066027214 -0.036477823 -0.05311059 0.0084215 -0.0044068783
-0.046132192 0.01588581 0.08140571 -0.075628586 -0.012068585 -0.05629196 0.019336384 0.056127083
-0.03759885 -0.056437686 0.013936659 0.011617259 -0.07834858 0.03344735 0.019055812 -0.016081411
0.020734781 0.036693808 -0.03567134 -0.012336554 0.04020569 -0.03331404 0.043143254 0.053501
0.060475852 -0.058850255 -0.01875124 -0.0756638 0.04349669 -0.012177063 -0.09067909 -0.065031186
0.037576046 -0.060336467 -0.03663747 -0.08543535 0.03486686 -0.008874349 0.0464217 0.0011757894
-0.062120825 -0.05548727 -0.052447833 -0.012771956 -0.06096769 -0.024942508 0.04540994 0.03653998
0.017045645 -0.023413694 -0.05961103 0.031715475 0.070382595 0.026504718 0.0098884795 -0.076701105
-0.11247829 -0.029851612 0.011715667 -0.019628601 0.006918067 -0.002328702 0.0036723444 -0.1008752
0.026631216 0.036505077 0.07136225 -0.017421817 -0.00093597255 -0.0037229564 0.00013098965 -0.08729145
-0.018072423 0.044594727 -0.02341825 0.012526096 -0.0969916 0.017938439 -0.08907986 0.090500616
-0.086527586 -0.045341317 -0.08048227 -0.027979452 0.0139991585 -0.09541053 -0.07976682 -0.020443844
0.05171897 0.026144814 -0.0017052726 0.035882134 0.05990721 -0.021289987 -0.07876996 -0.07708398
0.0063259504 -0.046278436 -0.06361591 0.0017283901 -0.08003225 -0.018390022 -0.040375058 0.040289093
-0.008922274 0.07785505 -0.030454125 -0.10508022 0.08517859 -0.06323076 -0.055423975 -0.07787685
00000000: d877 263d ed98 6b3d aa1e f5bd fb5e c5bd
00000010: ceda 53bd 55c3 4cbd 61d6 9f3d a386 833b
00000020: e581 f83c 29e1 803d d3bf 86bd 7e19 c1bc
00000030: 11ea 4bbd 5dd1 7ebd 30d3 0c3d dd83 a7bc
00000040: 413e 403d 8fa2 8c3d 408f f73b ab36 adbc
00000050: eb35 58bd 6025 3a3d 1cc5 5bbc 0b61 483c
00000060: 29a5 0b3d 2aff 13bd 0093 8f3d a5e4 c4bd
00000070: d861 1dbd 2b3c b3bc f63b d8bd 0ae0 afbd
00000080: 013d 42b9 9290 d63c c7bd 313d c787 8bbd
00000090: 0581 843d 0c76 de3c ab28 ebbd b88c 043d
000000a0: 69ac bbbc bf9f 733d e168 a6bd 6faf 78bd
000000b0: cb56 8c3d fa84 95bd 3d53 ddbd b87b d63c
000000c0: 8204 94bb e767 12bd 2370 4d3d dd35 aebd
000000d0: c29a b6bc a099 9cbd 06e0 81bd 1ee7 b1bd
000000e0: 6a1b a5bd cc49 e23d 4607 ae3c b9a5 663d
000000f0: 9d20 40bd 5ab9 9abd 992a a5bc 43d2 723d
00000100: 6f0d 9bbd c386 67bd a45d babc 7a8a 1fbd
00000110: cd52 413d 196e b4bc 816d 04bd 728b 46bd
00000120: 0aa2 b7bd 3063 d1bd 96ef 97bd 0ad0 343d
00000130: 678e 7abd 5df5 c2bd 20b9 17bd 82a5 70bd
00000140: 87d2 2a3d ca9c 65bd d494 7dbd 5248 2f3d
00000150: de39 4dbd 1884 3e39 7aea b5bd 6b36 2f3c
00000160: 0df2 b23d 7abf 08bb 2f30 e0bc 1239 b23c
00000170: b856 40bb dd51 09bd 1499 16bc ca0c 503d
00000180: 07fe 923d 86e8 c2bc 9033 3e3d 05bf 583d
00000190: 9d1a 743d 60d5 07bd 4d2a 443d 1757 1bbd
000001a0: 9718 ddbc bde1 adbc 1904 903d 31d6 9bbc
000001b0: e199 b9bd c924 883d 2a4c 90bd 3341 92bd
000001c0: a429 b4bd 84b7 293d 0e8d b9bd e48f b13d
000001d0: f479 fb3c 6381 433c 9a74 263d f839 b83c
000001e0: bc68 d0bc 03ee cd3c c99a cb3c ae24 053c
000001f0: d7b2 82bd cc0d b4bd c7ef b4bc 9756 113d
00000200: d0a7 79bb 80b4 7137 e999 3abd e14a a6bd
00000210: e824 8c3d 1347 ec3c 031e 983d 4685 60bd
00000220: 5b73 9b3d efe5 673c 1bef 763c 1d16 2dba
00000230: c569 15bd 7d8a 59bd 55fa 093c 9367 90bb
00000240: 1cf5 3cbd f522 823c 09b8 a63d 29e3 9abd
00000250: 50bb 45bc 6692 66bd 5667 9e3c 83e5 653d
00000260: 4001 1abd 342b 67bd 9656 643c 5156 3e3c
00000270: 3875 a0bd 1700 093d ef1a 9c3c 2abd 83bc
00000280: fddb a93c 3f4c 163d 1c1c 12bd 421f 4abc
00000290: b9ae 243d 4e74 08bd fbb6 303d dd23 5b3d
000002a0: 87b5 773d f70c 71bd 339c 99bc 9ff5 9abd
000002b0: 9629 323d 4e82 47bc f5b5 b9bd 122f 85bd
000002c0: 57e9 193d 5f23 77bd 2c11 16bd bbf8 aebd
000002d0: 8dd0 0e3d b865 11bc ae24 3e3d f21c 9a3a
000002e0: 6872 7ebd 9f46 63bd 8ad3 56bd 7741 51bc
000002f0: 42b9 79bd 3b54 ccbc c6ff 393d f2aa 153d
00000300: 4fa3 8b3c 13ce bfbc b22a 74bd 16e8 013d
00000310: c024 903d 6c20 d93c 4a03 223c 7815 9dbd
00000320: 055b e6bd 5e8b f4bc 12f3 3f3c 29cc a0bc
00000330: f4b0 e23b 239d 18bb b7ab 703b a897 cebd
00000340: b529 da3c 5986 153d 5f26 923d 33b8 8ebc
00000350: 0e5c 75ba d8fc 73bb 445a 0939 dcc5 b2bd
00000360: 9e0c 94bc f6a8 363d a1d7 bfbc 413a 4d3c
00000370: 88a3 c6bd a2f3 923c 806f b6bd 6358 b93d
00000380: 6035 b1bd d1b7 39bd e3d3 a4bd 2a35 e5bc
00000390: ba5c 653c 9966 c3bd c95c a3bd d979 a7bc
000003a0: 45d7 533d a62d d63c 7483 dfba 25f9 123d
000003b0: 4361 753d 5768 aebc 2552 a1bd 35de 9dbd
000003c0: eb49 cf3b 758e 3dbd 0f49 82bd 268b e23a
000003d0: f3e7 a3bd aca6 96bc 5160 25bd 2d06 253d
000003e0: bb2e 12bc 7872 9f3d ee7a f9bc 4c34 d7bd
000003f0: 1d72 ae3d 217f 81bd 4004 63bd e67d 9fbd

lstm2.weight_ih_l0 f4 [256, 128]
0.12989828 0.094723985 -0.022347886 -0.024187427 -0.011595429 -0.11238923 0.13404064 0.03245472
-0.0044737165 0.12109957 0.12786295 -0.022903537 -0.10640308 0.021756072 0.041678328 0.11762021
-0.068929344 -0.01638784 0.057202697 0.059738822 0.013464665 0.075899035 -0.060555562 -0.057256635
0.07969115 0.04261983 -0.1308017 -0.080710925 -0.051921025 0.051204376 -0.13985275 0.086193934
-0.02472303 0.07852488 -0.076668605 -0.037638467 0.05990336 0.07408687 -0.062670074 0.095186755
-0.069516025 -0.07644068 0.09110638 0.04534743 -0.0057279677 0.028336274 0.13706283 0.08146143
-0.10026427 0.078933366 -0.13250208 -0.062149018 0.00905831 -0.005067463 0.15238033 -0.027728008
-0.0012051398 0.028763669 -0.0824636 0.12890968 0.11223373 0.024456553 0.1581033 -0.039528426
0.07126973 -0.059542034 0.101646155 -0.032469727 0.11393839 0.104009494 0.084570915 -0.112108
0.05245367 0.038407743 0.13626371 0.08149166 0.1117074 -0.057709165 -0.0035563842 -0.12377879
0.14538634 -0.107614785 -0.026312696 -0.034861073 0.07087687 0.00081425207 0.12306875 0.13257064
0.059452694 -0.13591386 0.048027012 0.090688735 0.014644878 -0.024853267 0.08528506 0.025116418
-0.018309819 -0.037870843 0.100917034 -0.091280356 0.028130516 0.074350424 -0.050910812 -0.10031255
-0.034555234 -0.06592969 0.087536626 0.011931483 -0.023459362 -0.11507356 0.12579376 -0.08688441
-0.09960308 0.01395714 -0.09231038 -0.030649891 -0.15983579 0.039746642 -0.02197557 0.053108577
0.043625243 0.15452649 0.086958535 0.002837547 -0.009502755 -0.034580056 -0.060004033 0.042897575
-0.0047323965 -0.061441783 0.05058401 0.090089396 -0.14122023 -0.07142965 -0.0100981565 -0.0007761197
0.012744043 0.054810017 -0.017936058 0.06497416 0.039116338 0.04789938 0.045148563 0.09856819
-0.065229714 -0.116438955 0.007967417 0.06424424 0.03326613 -0.019262752 -0.05518771 -0.009675066
-0.027673755 -0.11240138 -0.01966193 -0.014428956 -0.12809584 -0.0065478026 -0.048961297 -0.07790845
0.08401902 0.029913453 0.08571297 0.024259057 0.08759471 0.08456518 -0.018390784 -0.083175585
0.021151954 0.0097082835 0.11426349 0.099014215 0.06216313 -0.09550873 -0.05853597 0.13312043
-0.103239514 -0.0928693 0.015272999 0.10069698 0.078476384 0.05556453 -0.042064983 0.039345857
-0.02069549 -0.056820653 0.0024434864 0.041825723 0.09814444 0.049317323 0.062615395 -0.01597799
-0.021343464 -0.02367502 0.05179333 0.020931855 -0.072303854 0.1408789 0.13299486 -0.055436682
-0.02300546 -0.018586004 0.09538257 -0.092171945 -0.14012316 -0.078439884 -0.07744163 -0.011834407
0.11586305 -0.090538435 -0.10078973 -0.028063292 -0.078476936 -0.037754215 0.12597348 0.009823112
0.054426618 -0.026220033 -0.064740635 -0.10219946 0.13479698 0.12595257 -0.074732915 0.08875164
0.05135269 -0.06530986 -0.10846397 -0.07229622 0.04635221 -0.02341952 0.08558904 -0.024363682
-0.062366482 -0.10506948 0.07407997 0.05098746 -0.12290885 -0.06738265 -0.0066866325 0.12480576
-0.046675384 0.08056748 0.041352335 -0.0625538 0.08535281 -0.015070433 -0.046846557 -0.12097697
-0.0058457395 0.11789839 0.013836471 -0.04755293 -0.074632525 0.07085745 0.06481224 0.0419061
00000000: 0e04 053e a6fe c13d ea12 b7bc b624 c6bc
00000010: c1fa 3dbc 532c e6bd f341 093e 3eef 043d
00000020: 4198 92bb 0d03 f83d 81ee 023e 33a0 bbbc
00000030: dce9 d9bd ca39 b23c e5b6 2a3d dde2 f03d
00000040: d42a 8dbd cb3f 86bc 604d 6a3d b2b0 743d
00000050: e69a 5c3c f470 9b3d 1c09 78bd ef85 6abd
00000060: 1d35 a33d 2292 2e3d e1f0 05be c54b a5bd
00000070: 24ab 54bd aebb 513d 8f35 0fbe 7286 b03d
00000080: f487 cabc a7d1 a03d 6e04 9dbd cb2a 1abd
00000090: 3a5d 753d dbba 973d 2b59 80bd 46f1 c23d
000000a0: 6b5e 8ebd ee8c 9cbd fb95 ba3d 3abe 393d
000000b0: adb1 bbbb 7921 e83c 335a 0c3e 40d5 a63d
000000c0: 5b57 cdbd d1a7 a13d a0ae 07be f88f 7ebd
000000d0: 4e69 143c f60c a6bb 9709 1c3e d925 e3bc
000000e0: c8f5 9dba c9a1 eb3c ade2 a8bd e600 043e
000000f0: ccda e53d 1c59 c83c d5e5 213e 8fe8 21bd
00000100: ddf5 913d 59e2 73bd dc2b d03d fafe 04bd
00000110: 8858 e93d ee02 d53d 8433 ad3d e198 e5bd
00000120: a9d9 563d 7051 1d3d b788 0b3e 19e5 a63d
00000130: d9c6 e43d 7260 6cbd 3a12 69bb bc7f fdbd
00000140: 28e0 143e 2465 dcbd b98d d7bc 7cca 0ebd
00000150: e427 913d 8873 553a 780b fc3d 99c0 073e
00000160: ab84 733d 012d 0bbe f9b7 443d 04bb b93d
00000170: 12f1 6f3c 1499 cbbc efa9 ae3d f2c0 cd3c
00000180: 79fe 95bc 751e 1bbd 97ad ce3d 32f1 babd
00000190: f871 e63c 0945 983d db87 50bd ab70 cdbd
000001a0: ca89 0dbd 2506 87bd 6746 b33d 447c 433c
000001b0: d92d c0bc b0ab ebbd 14d0 003e 74f0 b1bd
000001c0: b3fc cbbd 7dac 643c 390d bdbd 7b15 fbbc
000001d0: feab 23be 60cd 223d 1c06 b4bc 6188 593d
000001e0: 62b0 323d 313c 1e3e 5117 b23d 24f6 393b
000001f0: 71b1 1bbc d1a3 0dbd cac6 75bd 5eb5 2f3d
00000200: 3812 9bbb 61aa 7bbd 2e31 4f3d ca80 b83d
00000210: 099c 10be b549 92bd bd72 25bc 8374 4bba
00000220: 64cc 503c 7880 603d a4ee 92bc 2c11 853d
00000230: 7438 203d 2432 443d b3ed 383d 1fde c93d
00000240: 2897 85bd 8c77 eebd c589 023c 7c92 833d
00000250: 1142 083d ebcc 9dbc 820c 62bd 2b84 1ebc
00000260: 12b4 e2bc b232 e6bd 0e12 a1bc 6e67 6cbc
00000270: 8e2b 03be f38e d6bb a48b 48bd 778e 9fbd
00000280: 2a12 ac3d 0f0d f53c 488a af3d eeba c63c
00000290: db64 b33d 8230 ad3d 45a8 96bc f657 aabd
000002a0: dd46 ad3c 7e0f 1f3c fa02 ea3d f7c7 ca3d
000002b0: c49e 7e3d 159a c3bd 6ac3 6fbd b950 083e
000002c0: 3d6f d3bd 4232 bebd 9a3b 7a3c 383a ce3d
000002d0: 3ab8 a03d a297 633d 554c 2cbd 1f29 213d
000002e0: 9789 a9bc c6bc 68bd e622 203b 7351 2b3d
000002f0: f4ff c83d f600 4a3d 803c 803d 46e4 82bc
00000300: 7dd8 aebc 1ef2 c1bc 3e25 543d 4879 ab3c
00000310: 0b14 94bd 8f42 103e ce2f 083e 9311 63bd
00000320: f275 bcbc ad41 98bc f057 c33d a5c4 bcbd
00000330: 727c 0fbe 17a5 a0bd b899 9ebd 1ae5 41bc
00000340: 9b49 ed3d 376c b9bd d96a cebd fde4 e5bc
00000350: 84b8 a0bd 2aa4 1abd 31ff 003e 1ef1 203c
00000360: 72ee 5e3d 65cb d6bc bd96 84bd f34d d1bd
00000370: 3808 0a3e b6f9 003e 920d 99bd 6bc3 b53d
00000380: 3357 523d 2dc1 85bd 5c22 debd 0a10 94bd
00000390: d1db 3d3d 4bda bfbc 4e49 af3d 5896 c7bc
000003a0: ff73 7fbd ab2e d7bd 3db7 973d 3ad8 503d
000003b0: a3b7 fbbd eaff 89bd 8a1b dbbb 2a9a ff3d
000003c0: b02e 3fbd 9000 a53d 1161 293d 351c 80bd
000003d0: 74cd ae3d fae9 76bc 2de2 3fbd c6c2 f7bd
000003e0: 9e8d bfbb b674 f13d 5eb2 623c dcc6 42bd
000003f0: f0d8 98bd b61d 913d 48bc 843d bba5 2b3d

lstm2.weight_hh_l0 f4 [256, 64]
-0.07136526 0.010671379 0.0010986943 -0.026144382 0.049347088 0.05293982 0.028125878 -0.052253988
-0.08290624 -0.082245275 0.06498018 0.13342051 0.07020421 0.15832111 -0.03018577 0.05871078
0.10693374 -0.021839846 -0.037091717 0.13538393 -0.0024199819 0.1711438 0.02334929 -0.1413306
-0.167597 0.1610735 0.058261704 -0.1394911 -0.018386312 0.112516224 0.013019653 0.08204371
0.12125167 0.007514178 0.039029848 -0.07590309 -0.1586018 0.1627719 -0.01022727 0.01244108
-0.03021837 0.075100705 -0.14940749 -0.07812866 -0.010974024 0.005044482 -0.042792194 -0.107194915
0.044811513 -0.07788108 0.12416156 -0.057310835 -0.066059545 0.11045159 -0.028582403 -0.077086724
0.040913988 -0.042880863 -0.10766169 -0.0122298505 0.017228745 0.13086541 -0.085516624 0.03397668
-0.07047805 -0.10061248 0.03351589 -0.043828916 0.12902679 -0.046473593 0.012242476 0.09546105
0.023497732 -0.07563265 -0.1362289 -0.019356363 -0.10149392 -0.073707625 -0.12303621 -0.10356666
-0.055271715 -0.020177793 0.07578916 -0.07003622 -0.09116147 -0.037037402 -0.066448145 -0.11989839
-0.080796726 0.11683308 0.02369825 -0.0738871 -0.08537394 -0.0479718 0.02137086 -0.008428131
0.015184216 0.06041896 -0.010458302 -0.036173392 -0.13705699 0.020765092 0.030269774 -0.04904974
0.10094515 -0.049631137 0.063787706 0.06942045 -0.10057049 0.0968797 -0.085073546 0.059187174
0.12985612 -0.056964315 -0.069174185 -0.08510005 -0.069102876 -0.02043946 0.0096957795 0.07068388
-0.066219665 -0.038390826 -0.10897141 0.05871279 0.047754712 0.119445845 -0.11856337 -0.025910025
0.07326667 -0.04117817 0.018039536 0.07591636 -0.13227199 0.03431511 0.0023583365 -0.09362926
-0.015772248 -0.022922236 0.074575044 0.06117116 -0.10092915 0.04256179 0.024844915 0.010721093
-0.022829609 0.030993413 -0.02991141 -0.15548037 -0.01330346 0.008270197 0.014767907 -0.044746846
0.014356317 0.012963705 -0.11777969 0.118813775 -0.020277962 -0.12572521 -0.024052134 0.088013776
-0.0363741 -0.011899361 0.015455223 0.14405955 0.010922497 -0.01472732 -0.03826327 -0.07205015
0.038695574 -0.007288244 0.04574898 -0.09360889 -0.092928454 -0.110680155 -0.061118074 0.09671089
0.010507061 -0.04232989 -0.0030816412 -0.06248783 -0.070139736 -0.12917627 0.10529081 0.034916796
-0.10298596 -0.027093688 0.119030744 0.012126407 0.13759038 0.10455618 0.084316656 0.12679403
0.05609489 0.10073051 -0.0491145 -0.03598757 0.037574414 0.038245853 -0.046306737 -0.076026425
-0.1376126 -0.03166833 -0.02288621 -0.0032801665 -0.04541119 0.13636836 -0.09229354 -0.108643696
0.10745891 0.12860677 0.15488783 0.16653328 -0.08640147 -0.062580265 0.045267347 0.03736621
-0.07233776 0.081225656 -0.028704504 -0.06083134 0.066023834 -0.09964625 0.09972295 0.14559953
-0.09702009 -0.013327087 -0.1361704 0.053061835 0.021629881 0.083968304 -0.16037703 0.15165243
0.07491033 0.02252951 -0.14769633 -0.11058868 -0.009627902 0.14767875 0.0010247234 0.0018910286
0.06398009 -0.15334305 0.10406927 0.015763793 0.11746718 0.025041569 -0.012600993 -0.005126334
0.14677238 -0.11482924 -0.110664725 -0.09860577 -0.04384916 0.12498713 -0.057349678 0.071146846
00000000: f327 92bd 02d7 2e3c 1002 903a be2c d6bc
00000010: 2c20 4a3d 6dd7 583d 3e68 e63c 4708 56bd
00000020: bfca a9bd 3670 a8bd 5414 853d 639f 083e
00000030: 3ac7 8f3d ee1e 223e 2648 f7bc b77a 703d
00000040: 1400 db3d 7ae9 b2bc 7ced 17bd 16a2 0a3e
00000050: 8f98 1ebb 5240 2f3e 0347 bf3c f8b8 10be
00000060: 8c9e 2bbe 74f0 243e d3a3 6e3d c1d6 0ebe
00000070: e49e 96bc e86e e63d 6250 553c 8806 a83d
00000080: cc52 f83d 7e39 f63b c3dd 1f3d 1473 9bbd
00000090: 8368 22be adad 263e 4890 27bc acd5 4b3c
000000a0: 848c f7bc 66ce 993d 47fe 18be eb01 a0bd
000000b0: 65cc 33bc 2f4c a53b de46 2fbd 0289 dbbd
000000c0: 478c 373d 1e80 9fbd 6a48 fe3d c4be 6abd
000000d0: 3a4a 87bd 7134 e23d a525 eabc a5df 9dbd
000000e0: 6d95 273d d8a3 2fbd bb7d dcbd b65f 48bc
000000f0: 4c23 8d3c 9501 063e 5723 afbd 222b 0b3d
00000100: cc56 90bd ea0d cebd f547 093d f385 33bd
00000110: 991f 043e 185b 3ebd ab94 483c 1581 c33d
00000120: 517e c03c 4ae5 9abd 977f 0bbe 3c91 9ebc
00000130: 0bdc cfbd 06f4 96bd 69fa fbbd c21a d4bd
00000140: 9864 62bd e64b a5bc 5937 9b3d 266f 8fbd
00000150: ddb2 babd 88b4 17bd f715 88bd 498d f5bd
00000160: c178 a5bd 2f46 ef3d d522 c23c 1f52 97bd
00000170: 88d8 aebd 147e 44bd f111 af3c 2516 0abc
00000180: 38c7 783c df79 773d 4c59 2bbc 8d2a 14bd
00000190: ab58 0cbe 8e1b aa3c 51f8 f73c 61e8 48bd
000001a0: 55bc ce3d 054a 4bbd 21a3 823d 4f2c 8e3d
000001b0: e7f7 cdbd dd68 c63d 0a3b aebd 406e 723d
000001c0: 01f9 043e 6a53 69bd 32ab 8dbd ef48 aebd
000001d0: cf85 8dbd a870 a7bc 0cdb 1e3c b6c2 903d
000001e0: 2d9e 87bd b33f 1dbd 672c dfbd d37c 703d
000001f0: 729a 433d 06a0 f43d 5ad1 f2bd 4341 d4bc
00000200: d60c 963d 71aa 28bd a6c7 933c 097a 9b3d
00000210: 4f72 07be 008e 0c3d 528e 1a3b b3c0 bfbd
00000220: cd34 81bc 6ac7 bbbc cdba 983d 9c8e 7a3d
00000230: f1b3 cebd 4655 2e3d 9087 cb3c 86a7 2f3c
00000240: 2905 bbbc e6e5 fd3c c608 f5bc 3f36 1fbe
00000250: c1f6 59bc b87f 073c 17f5 713c 7848 37bd
00000260: c236 6b3c b865 543c 7a36 f1bd a354 f33d
00000270: f81d a6bc 1cbe 00be fb08 c5bc 9140 b43d
00000280: 02fd 14bd 8af5 42bc e737 7d3c 5984 133e
00000290: 46f4 323c db4a 71bc f2b9 1cbd 078f 93bd
000002a0: 407f 1e3d 39d2 eebb 4863 3b3d 05b6 bfbd
000002b0: 4651 bebd 47ac e2bd f256 7abd 5c10 c63d
000002c0: cf25 2c3c 1b62 2dbd 5cf5 49bb 3df3 7fbd
000002d0: 6ca5 8fbd c946 04be b5a2 d73d ea04 0f3d
000002e0: 4eea d2bd 95f3 ddbc 64c6 f33d d6ad 463c
000002f0: 7ee4 0c3e 8d21 d63d 36ae ac3d 4bd6 013e
00000300: c1c3 653d cc4b ce3d 492c 49bd b467 13bd
00000310: a1e7 193d afa7 1c3d 22ac 3dbd beb3 9bbd
00000320: 51ea 0cbe a7b6 01bd dc7b bbbc 10f8 56bb
00000330: 1501 3abd 26a4 0b3e 6504 bdbd 9680 debd
00000340: 6b13 dc3d 7eb1 033e ea9a 1e3e b387 2a3e
00000350: 41f3 b0bd 152a 80bd 416a 393d 500d 193d
00000360: d225 94bd a359 a63d b525 ebbc 482a 79bd
00000370: 8137 873d 5513 ccbd 8c3b cc3d 0b18 153e
00000380: 78b2 c6bd db59 5abc 4170 0bbe 5e57 593d
00000390: 2631 b13c 93f7 ab3d e039 24be c64a 1b3e
000003a0: 966a 993d cf8f b83c b53d 17be 517c e2bd
000003b0: 59be 1dbc 1939 173e 0350 863a 64dc f73a
000003c0: fe07 833d f605 1dbe 4522 d53d 1223 813c
000003d0: a292 f03d fa23 cd3c 6574 4ebc cefa a7bb
000003e0: 804b 163e 982b ebbd 30a4 e2bd d2f1 c9bd
000003f0: 2d9b 33bd 41f9 ff3d 7fe7 6abd 70b5 913d

lstm2.bias_ih_l0 f4 [256]
-0.0006243792 0.0157272 0.10991567 -0.07907842 0.037974425 0.066251926 0.104115486 -0.059012055
-0.13075572 -0.057506226 -0.07297171 -0.103999116 -0.00420791 -0.05600518 0.0002061078 -0.14888096
-0.03459981 0.0063849236 -0.09452307 0.04902094 -0.083734185 0.022075752 0.15954585 -0.048980165
0.003579736 -0.06320372 -0.1415185 -0.007675848 -0.051197205 0.048154444 0.13315082 0.06200073
-0.053256687 -0.033559047 0.15917361 0.02331309 -0.019042443 0.019758163 0.08113272 -0.014550159
-0.0026174067 -0.11433172 -0.051501818 -0.019102756 -0.01201963 0.12561429 0.07191963 -0.12904166
-0.04911844 -0.041839104 -0.0126177445 0.04263199 0.092224285 -0.018944304 0.0521692 0.11285981
0.01785564 -0.075567946 0.02494921 0.12761417 -0.12101241 -0.1308509 -0.116865486 0.081844494
-0.11157274 -0.10743536 -0.011014584 -0.15025549 -0.09474764 -0.08943606 -0.07856397 -0.047359966
-0.08941007 0.07879342 -0.14537716 -0.016155051 0.028632704 0.062743604 -0.0406763 -0.07845857
-0.075244896 -0.05383506 0.105533116 0.1157604 -0.065682195 0.11487619 0.14650525 0.08172825
0.027449882 -0.07046983 0.005188826 0.021410596 -0.027920518 -0.09284626 0.07808694 0.052166134
-0.06191383 -0.03819578 0.0031416726 0.06233842 -0.060194653 0.030893108 -0.012830731 -0.15497316
0.027143184 0.0041147345 -0.06299812 -0.07668912 -0.13830242 0.071829885 0.015774667 0.07907797
-0.15107371 -0.13091408 0.04347775 -0.020385372 -0.021716319 -0.1425815 -0.053684965 -0.05710031
-0.07991836 0.14699167 -0.075234726 -0.048376624 -0.02356288 -0.055344895 0.04092864 -0.024753556
-0.108841024 0.13431922 -0.06408258 0.04917389 -0.119588085 -0.07609989 -0.08271194 -0.07922613
0.10344969 0.060249634 -0.09531041 -0.14863005 -0.047501426 -0.032576226 0.048608847 0.060870968
0.03831092 -0.071429364 -0.033837616 -0.08936098 -0.057178196 -0.03858089 0.018675907 0.033300094
-0.050293267 -0.14951064 0.058848485 -0.062477272 0.007837939 0.00987019 -0.042501464 -0.004405653
0.005632221 0.13780037 -0.044486247 0.107409336 0.061071415 -0.13443151 -0.077810496 -0.10312649
0.12908605 -0.07440066 0.13263287 0.022714019 -0.054276604 -0.084411696 0.087470405 0.045742646
0.093863904 0.086860865 -0.043631498 -0.1318215 -0.093670204 0.054575138 0.090241216 -0.015008825
0.052143015 0.007983977 0.106571436 -0.029929461 0.08922846 -0.07855529 -0.034053277 0.03121987
-0.16072041 0.027092613 0.019162392 -0.08972305 0.05816748 -0.027541537 0.0742451 -0.047249626
-0.035970684 -0.164389 -0.038971644 0.0003759376 0.120732434 0.0053117787 0.08598796 0.0029120306
0.018643534 -0.11160987 -0.042339362 0.112081215 -0.032247644 0.012011781 0.03137343 0.1285667
-0.09185967 -0.015603897 -0.048955582 -0.071461074 -0.07757334 -0.13909343 -0.13670129 -0.08172684
-0.114462934 0.13071667 0.073145546 -0.08658236 0.024700595 -0.08052301 -0.021654073 0.061415795
0.06371507 -0.032200713 0.09855257 0.07505348 -0.016845379 -0.057062414 0.0640655 -0.070247255
0.035983987 0.10325458 -0.13572274 -0.054484222 0.09685127 -0.10946502 -0.11738436 0.03172543
0.010743557 -0.03927125 0.050110422 0.06823469 0.02892802 -0.09996868 0.015859451 0.0059675016
00000000: 61ad 23ba 54d6 803c 771b e13d def3 a1bd
00000010: 128b 1b3d 17af 873d 803a d53d a0b6 71bd
00000020: d4e4 05be a68b 6bbd 3172 95bd 7dfd d4bd
00000030: 82e2 89bb b065 65bd a41e 5839 4074 18be
00000040: 88b8 0dbd 9f38 d13b 5095 c1bd 2eca 483d
00000050: d47c abbd 35d8 b43c fd5f 233e 6d9f 48bd
00000060: 019a 6a3b f470 81bd 3aea 10be ae85 fbbb
00000070: 29b4 51bd 983d 453d b058 083e 7af4 7d3d
00000080: af23 5abd 3675 09bd 68fe 223e 18fb be3c
00000090: e6fe 9bbc dfdb a13c e928 a63d ca63 6ebc
000000a0: cc88 2bbb c026 eabd 92f3 52bd 627d 9cbc
000000b0: fbed 44bc 08a1 003e 994a 933d 7f23 04be
000000c0: 6b30 49bd 7b5f 2bbd a8ba 4ebc e29e 2e3d
000000d0: 16e0 bc3d 1631 9bbc 5faf 553d 0b23 e73d
000000e0: fe45 923c 5ec3 9abd 4962 cc3c 4aad 023e
000000f0: 5bd5 f7bd c7fd 05be 2c57 efbd 169e a73d
00000100: 4080 e4bd 1207 dcbd 8476 34bc 93dc 19be
00000110: 0d0b c2bd 412a b7bd 26e6 a0bd 86fc 41bd
00000120: a01c b7bd 725e a13d c0dd 14be 9957 84bc
00000130: 228f ea3c b87f 803d 319c 26bd e3ae a0bd
00000140: ff19 9abd 2782 5cbd bf21 d83d ca13 ed3d
00000150: 6384 86bd 3544 eb3d 7905 163e 2461 a73d
00000160: 93de e03c 7c52 90bd 0707 aa3b 4665 af3c
00000170: 92b9 e4bc 2e26 bebd 0cec 9f3d 28ac 553d
00000180: 5b99 7dbd 2e73 1cbd 85e4 4d3b 9256 7f3d
00000190: ab8e 76bd 8b13 fd3c fd37 52bc 49b1 1ebe
000001a0: 625b de3c e5d4 863b 2905 81bd 2f0f 9dbd
000001b0: 269f 0dbe 8c1b 933d e039 813c a1f3 a13d
000001c0: 11b3 1abe 570e 06be ba15 323d 39ff a6bc
000001d0: 6ce6 b1bc e200 12be c4e4 5bbd 04e2 69bd
000001e0: 3dac a3bd fc84 163e aa14 9abd 9126 46bd
000001f0: f106 c1bc 54b1 62bd caa4 273d f8c7 cabc
00000200: 0be8 debd fa8a 093e ba3d 83bd 906a 493d
00000210: 99ea f4bd 42da 9bbd e164 a9bd 4f41 a2bd
00000220: 6edd d33d 52c8 763d 1b32 c3bd 7a32 18be
00000230: db90 42bd a66e 05bd 121a 473d d653 793d
00000240: e9eb 1c3d 8f49 92bd 5099 0abd e402 b7bd
00000250: af33 6abd ff06 1ebd 37fe 983c ae65 083d
00000260: 5000 4ebd 5119 19be 1c0b 713d 2be8 7fbd
00000270: b36a 003c 94b6 213c 0416 2ebd 4c5d 90bb
00000280: 7e8e b83b 8a1b 0d3e 3637 36bd 6df9 db3d
00000290: 0526 7a3d 6aa8 09be 1c5b 9fbd fb33 d3bd
000002a0: 222f 043e 605f 98bd e9d0 073e c012 ba3c
000002b0: 2551 5ebd 0ae0 acbd af23 b33d a45c 3b3d
000002c0: b83b c03d 1ce4 b13d f1b6 32bd 37fc 06be
000002d0: 2ad6 bfbd 2e8a 5f3d 63d0 b83d 93e7 75bc
000002e0: ea93 553d 3acf 023c 2042 da3d a12e f5bc
000002f0: 69bd b63d 99e1 a0bd 737b 0bbd d0c0 ff3c
00000300: e493 24be 54f1 dd3c 73fa 9c3c b8c0 b7bd
00000310: 0641 6e3d ca9e e1bc d10d 983d d388 41bd
00000320: ff55 13bd 9755 28be bba0 1fbd 7e19 c539
00000330: 9142 f73d 6e0e ae3b 751a b03d c4d7 3e3b
00000340: 53ba 983c b793 e4bd 0a6c 2dbd d68a e53d
00000350: 1b16 04bd 10cd 443c 6d81 003d fda6 033e
00000360: ec20 bcbd 7da7 7fbc a685 48bd 2f5a 92bd
00000370: c5de 9ebd 826e 0ebe 6cfb 0bbe 6760 a7bd
00000380: 8b6b eabd 97da 053e 55cd 953d 1852 b1bd
00000390: e758 ca3c 3fe9 a4bd e263 b1bc 218f 7b3d
000003a0: 0c7d 823d e5e4 03bd eed5 c93d a4b5 993d
000003b0: 52ff 89bc 47ba 69bd c634 833d cbdd 8fbd
000003c0: f263 133d 2377 d33d e7fa 0abe d92a 5fbd
000003d0: f559 c63d 322f e0bd 3667 f0bd 86f2 013d
000003e0: be05 303c e4da 20bd 9640 4d3d a1be 8b3d
000003f0: 74fa ec3c 61bc ccbd aeeb 813c 088b c33b
