backend/ml/research/models/lstm_rich_features.pth (torch, 531413 bytes, 20 tensors)

lstm1.weight_ih_l0 f4 [512, 23]
0	0xbc391386	-0.011296159
1	0x3dbfeb53	0.093710564
2	0x3bb894f1	0.0056329896
3	0x3cccb029	0.024986343
4	0x3d5f8050	0.054565728
5	0x3d46b3cc	0.04851131
6	0xbd9835ad	-0.07432113
7	0xbd814b03	-0.063131355
8	0xbc9e5772	-0.019328807
9	0xbc8be177	-0.017075283
10	0x3917d983	0.00014481512
11	0x3d2b54a6	0.041828774
12	0x3d30ed37	0.043194976
13	0x3d939afb	0.072072946
14	0x3d3bf7ff	0.045890804
15	0xbcfb381f	-0.030666409
16	0x3d7fbc2b	0.06243531
17	0x3d113548	0.035451204
18	0x3c8e39e0	0.017361581
19	0x3d82aea5	0.06380967
20	0xbbfe5baa	-0.007762392
21	0xbda6aaeb	-0.08138069
22	0xbd41ded2	-0.04733164
23	0xbd00731a	-0.03135977
24	0x3cc0c438	0.023531064
25	0x3c3d3589	0.011548408
26	0x3d867a84	0.06566337
27	0xbd4afe7f	-0.049559113
28	0x3d5cb863	0.053886782
29	0xbd4c0d28	-0.049817234
30	0xbd926ad6	-0.071492836
31	0xbda0fb1e	-0.07860397
32	0x3cacda54	0.0211002
33	0xbc90fe80	-0.01769948
34	0xbdadd96e	-0.08488737
35	0xbd62e53d	-0.0553944
36	0xbc13bf0f	-0.00901772
37	0x3c3f1a74	0.011664022
38	0xbc805532	-0.015665624
39	0xbd821278	-0.06351179
40	0xbb9cb74f	-0.0047825943
41	0x3cec5071	0.028846951
42	0xbd98fa97	-0.07469671
43	0x3d071278	0.032976598
44	0x3d2381fb	0.03991888
45	0x3c5c820b	0.013458739
46	0xbca978ca	-0.02068748
47	0x3d3bd4c5	0.04585721
48	0xbd598b20	-0.053111196
49	0x3d7acb54	0.061229065
50	0xbd51a122	-0.05117906
51	0x3bfd82cf	0.007736541
52	0xbdb2c6c6	-0.08729319
53	0xbda191cf	-0.07889139
54	0xbdb29429	-0.087196656
55	0xbc103365	-0.008801316
56	0x3d6c7d8a	0.05773691
57	0xbc6ae506	-0.01433683
58	0xbdaccd2d	-0.08437572
59	0x3affdff5	0.00195217
60	0xbd550355	-0.05200513
61	0x3d19a86e	0.037514143
62	0xbd0308e6	-0.031990908
63	0xbd251a50	-0.040308297
64	0x3d325669	0.04353944
65	0x3d082de3	0.033246886
66	0x3d0d2fd2	0.034469433
67	0x3d154f48	0.03645256
68	0x3d10ea3b	0.03537963
69	0x3da3fde9	0.08007414
70	0x3d6e8374	0.058230832
71	0x3b3efa45	0.0029140871
72	0x3d2ddb9b	0.04244576
73	0x3c8c9c87	0.017164482
74	0xbdc6bfa7	-0.097045235
75	0x3d989bcf	0.07451593
76	0xbc5d18d7	-0.013494692
77	0xbc7563f7	-0.014977447
78	0x3d3ccfba	0.04609654
79	0x3bb51472	0.005526119
80	0x3d75036c	0.059817716
81	0x3d81f08e	0.0634471
82	0x3d6a0907	0.057137515
83	0x3ba8f45c	0.005156083
84	0x3bf2b711	0.007407077
85	0xbd2c20a0	-0.0420233
86	0xbdc68435	-0.09693185
87	0xbbea22f5	-0.0071452805
88	0xbdb3f3eb	-0.08786758
89	0xbd1c5320	-0.03816521
90	0xbc84daf2	-0.016217683
91	0xbd7cb8a7	-0.061699536
92	0x3cb3b797	0.021938128
93	0x3d2d455b	0.04230247
94	0x3cbc8d1c	0.023016505
95	0xbd380bf2	-0.044933267
96	0x3cf10408	0.029420868
97	0xbc20cea2	-0.00981489
98	0xbc886de5	-0.016653964
99	0xbc863687	-0.016383423
100	0x3d004fad	0.031325985
101	0x3cb47ce5	0.02203221
102	0x3d08b6b4	0.033377364
103	0xbca23355	-0.019799868
104	0x3d0d2338	0.034457415
105	0xbd9f6856	-0.077835724
106	0x3ca0e5c5	0.019640813
107	0xbd3fa205	-0.046785373
108	0x3d596a5d	0.05307995
109	0xbcd6877a	-0.026187647
110	0xbd840e68	-0.0644806
111	0xbce2c848	-0.027683392
112	0xbb9a82a6	-0.0047152815
113	0xbcc8687b	-0.024463883
114	0xbb46711d	-0.0030279823
115	0x3ac82ea3	0.0015272688
116	0xbd095bab	-0.033534687
117	0x3c6859c9	0.014181563
118	0xbcda3823	-0.026638096
119	0xbdbb1696	-0.09135167
120	0xbdb142a8	-0.08655292
121	0x3d9a2a19	0.07527561
122	0x3d306c0b	0.043071788
123	0xbdc0d3a2	-0.09415366
124	0x3d85e014	0.0653688
125	0x3d92b3dd	0.071632124
126	0x3d1cf0aa	0.038315453
127	0xbd4856c4	-0.04891087
128	0x3d88ec03	0.06685641
129	0x3d9e7dcf	0.0773884
130	0x3b709c89	0.0036714396
131	0xbdb0f448	-0.08640343
132	0xbd85033e	-0.06494759
133	0x3d067e48	0.032835275
134	0x39dbd72a	0.00041931245
135	0x3ce3fe28	0.027831152
136	0xbda7e672	-0.08198251
137	0xbd1fdca7	-0.03902879
138	0xbb7c3f99	-0.0038490056
139	0xbdaa1438	-0.08304638
140	0xbcbb2663	-0.022845453
141	0x3ca589c7	0.020207299
142	0xbd865aed	-0.065603115
143	0xbd8e2489	-0.06940562
144	0x3d27f1a8	0.041001946
145	0x3d211150	0.03932315
146	0x3bf4d965	0.0074722045
147	0x3c642663	0.013925168
148	0x3d938401	0.07202912
149	0x3c65307b	0.013988609
150	0x3cd254ec	0.02567526
151	0x3c6fd5f3	0.014638412
152	0x3d22bc3c	0.039730296
153	0x3bd6506f	0.00654035
154	0xbd0e4533	-0.034733962
155	0xbd83b831	-0.06431616
156	0x3db063f2	0.08612813
157	0xbc8f2002	-0.017471317
158	0xbd2355e0	-0.03987682
159	0x3db09183	0.08621504
160	0x3d947ba8	0.07250148
161	0x3d6bb5c7	0.057546403
162	0x3c3f57d2	0.011678653
163	0x3d5be561	0.05368555
164	0x3d9d021d	0.07666419
165	0xbbaedc1d	-0.005336298
166	0x3cd39853	0.02582947
167	0xbd495c19	-0.049160097
168	0xbd16a9e5	-0.036783118
169	0x3de61067	0.11233597
170	0x3db982d4	0.090581566
171	0x3bd22409	0.006412987
172	0x3d8b6665	0.068066396
173	0x3d871819	0.06596393
174	0x3d7adb85	0.061244506
175	0xbc89282b	-0.016742786
176	0x3cac5fc8	0.021041766
177	0x3c59ae91	0.013286249
178	0x3d36c1da	0.044618465
179	0x3ddfee52	0.10934128
180	0xbcfaece3	-0.030630535
181	0xbd2ee4d5	-0.0426987
182	0xbd6f2de4	-0.058393374
183	0xbd6837a4	-0.056693688
184	0x3d68c69a	0.056830026
185	0x3aad7f6c	0.0013236827
186	0xbd82e0cf	-0.06390535
187	0xbc497988	-0.012297042
188	0x3d5fc77f	0.054633614
189	0x3d232b17	0.039836016
190	0x3b695c58	0.003560802
191	0xbd8db57d	-0.06919382
192	0xbd991759	-0.07475156
193	0x3c84e89d	0.0162242
194	0xbd8d11b6	-0.06888144
195	0x3cae7b36	0.021298986
196	0x3d2448f9	0.040108655
197	0x3d930500	0.07178688
198	0x3d22e8af	0.039772686
199	0x3d7c643b	0.061619025
200	0xbd0b3ee9	-0.033995543
201	0x3c426351	0.011864499
202	0xbd09c5a4	-0.03363575
203	0xbd13ff02	-0.036131866
204	0xbbe4d0f0	-0.006982915
205	0xbd744d34	-0.05964394
206	0xbdc2e3e7	-0.09516125
207	0x3c8184b5	0.01581035
208	0xbd917c65	-0.071038045
209	0xbd7d36dc	-0.061819896
210	0x3d133754	0.035941437
211	0xbd3355d3	-0.04378302
212	0x3c88e4c2	0.016710643
213	0xbc4cc31b	-0.012497689
214	0x3d204864	0.039131537
215	0x3b52fb3e	0.003219321
216	0xbda59bd9	-0.08086366
217	0xbcd015d7	-0.025401039
218	0xbc8e56cf	-0.017375378
219	0xbd7f60fb	-0.062348347
220	0x3d791484	0.06081058
221	0xba49deb8	-0.0007700729
222	0xbcdfd677	-0.027323944
223	0xbdc6db98	-0.09709853
224	0xbdc90815	-0.09815995
225	0xbd4a2942	-0.049355753
226	0x3d81ef9c	0.0634453
227	0xbcc14b83	-0.023595577
228	0xbd6ba2de	-0.05752837
229	0x3ded53cf	0.11588251
230	0xbd50b0e0	-0.05094993
231	0xbd885463	-0.066567205
232	0x3d4c1a70	0.0498299
233	0xbcd670e7	-0.026176883
234	0xbd9c8b26	-0.07643728
235	0xbdca9e90	-0.09893525
236	0xbd06af55	-0.032882053
237	0xbd3aae1c	-0.0455762
238	0xbc038f6e	-0.008029802
239	0xbd6805c4	-0.056646124
240	0xbd3f6b43	-0.046733152
241	0xbca85ff7	-0.020553572
242	0x3d144d27	0.03620639
243	0xbd52d561	-0.051473025
244	0xbd91aef2	-0.07113446
245	0xbcf79714	-0.030223407
246	0xbd563965	-0.05230083
247	0xbdcc34b9	-0.099709935
248	0x3b892c07	0.0041861567
249	0xbd6aa3e2	-0.057285197
250	0x39e369a4	0.00043375522
251	0x3d5fe7ef	0.05466455
252	0x3d326aaa	0.043558754
253	0x3d34507f	0.04402208
254	0x3cdf85a6	0.027285408
255	0xbb6983ca	-0.003563153

lstm1.weight_hh_l0 f4 [512, 128]
0	0x3c939a86	0.018018018
1	0xbdb61072	-0.088898554
2	0x3c759ef5	0.014991512
3	0x3d043295	0.0322748
4	0x3cc1f873	0.02367804
5	0x3d0d7664	0.034536734
6	0xbdb9bf28	-0.09069663
7	0x3cb327f0	0.02186963
8	0x3c97ffbb	0.018554559
9	0x3cee0311	0.029054197
10	0xbdb9c381	-0.090704925
11	0xbc4e9b71	-0.012610302
12	0x3c8e8e33	0.01740179
13	0xbb20b2f0	-0.0024520718
14	0xbb8d0bc9	-0.0043043834
15	0x3d61f04c	0.055160806
16	0xbd9f076d	-0.07765088
17	0xbdb4b654	-0.08823839
18	0xbcec1090	-0.028816491
19	0xbd5001b1	-0.050782863
20	0x3c8c0028	0.017089918
21	0xbcc0cbdd	-0.02353471
22	0xbd5ec19b	-0.054383855
23	0xbd74b869	-0.05974618
24	0x3da4c8fb	0.080461465
25	0x3d08c12e	0.033387356
26	0x3cd95275	0.026528576
27	0x3d1e6c88	0.038677722
28	0x3d865621	0.065593965
29	0xbd821978	-0.06352514
30	0x3d1c5391	0.038165633
31	0xbd995f2a	-0.07488854
32	0x3d9a7f5f	0.07543825
33	0xbd8423e1	-0.06452156
34	0x3c2f887d	0.010713694
35	0x3d29389f	0.041313764
36	0x3ddbe007	0.10736089
37	0x3d5580ee	0.05212491
38	0x3c22cab7	0.009936026
39	0x3c8b6bb5	0.017019132
40	0xbcbc4f9e	-0.022987183
41	0x3d27a857	0.040932026
42	0x3d854353	0.06506982
43	0x3c33936b	0.01096044
44	0x3d722ed8	0.059126705
45	0x3d7c84d6	0.06165012
46	0x3da37504	0.07981303
47	0xbd6e7285	-0.058214683
48	0x3d2fb552	0.04289753
49	0x3d8a45ba	0.067515805
50	0x3da877cc	0.082259744
51	0xbd8e963b	-0.06962248
52	0xbc2e6f98	-0.010646723
53	0x3caa8470	0.020815104
54	0xbce88468	-0.028383449
55	0x3d6a6442	0.05722452
56	0x3d1dc514	0.038518026
57	0x3da70444	0.081551105
58	0xbd19a8d8	-0.037514538
59	0xbb69c5b6	-0.0035670823
60	0x3d46c45e	0.048527114
61	0xbdaa4beb	-0.083152615
62	0x3de732ad	0.112889625
63	0xbcc62986	-0.024189722
64	0xbce84dba	-0.028357375
65	0x3d0137e0	0.031547427
66	0x3d75d507	0.06001761
67	0x3daeb1ae	0.085299835
68	0x3d7883ec	0.060672686
69	0x3d82332a	0.06357415
70	0x3cb642a0	0.022248566
71	0xbd3b9d14	-0.0458041
72	0x3c9dd0ec	0.01926466
73	0xbd4dc1a9	-0.050233517
74	0x3cd2b423	0.025720662
75	0xbd955d1f	-0.07293152
76	0x3d3aad44	0.045575395
77	0x3cd00253	0.025391733
78	0xbd5103aa	-0.051028885
79	0x3c90af5b	0.017661741
80	0x3d80118e	0.06253348
81	0x3db27352	0.08713402
82	0x3da1d271	0.07901467
83	0xbdf82d44	-0.12118009
84	0x3d9e4495	0.07727925
85	0xbc23ca5b	-0.009996976
86	0x3d8446a1	0.06458784
87	0xbc8932b7	-0.016747816
88	0x3cc1e24a	0.023667473
89	0xbd6676a2	-0.05626548
90	0x3d3b5ac0	0.045740843
91	0xbd2ad1f0	-0.04170412
92	0xbd886d72	-0.066615
93	0xbd2761a4	-0.0408646
94	0x3c8bcf3f	0.017066596
95	0x3db331d4	0.08749738
96	0xbccc75c3	-0.024958497
97	0x3d42d3a9	0.047565136
98	0x3c6a6448	0.0143061355
99	0xbd3c205e	-0.045929305
100	0x3cbf27d6	0.023334425
101	0xbbe06a6d	-0.0068486244
102	0xbdac18c9	-0.08403165
103	0xbdd7a97f	-0.10530376
104	0xbd51f868	-0.05126229
105	0x3bd30c03	0.006440641
106	0x3d02c184	0.031922832
107	0x3bb218fa	0.0054351063
108	0x3d44d1cf	0.04805165
109	0xbbef9a2b	-0.0073120794
110	0x3bef79d2	0.0073082233
111	0x3dcd9391	0.10037912
112	0x3d36e46a	0.044651426
113	0xbcdd9272	-0.02704737
114	0xbc837f4c	-0.01605191
115	0xbd55f9a1	-0.052240018
116	0x3d97be2c	0.07409319
117	0xbc311d28	-0.010810174
118	0x3d3e28a0	0.04642546
119	0x3dc428cf	0.09578096
120	0x3ceca7ce	0.02888861
121	0x3d8448c5	0.06459192
122	0x3cb44fa0	0.022010624
123	0xbd5592a3	-0.052141797
124	0x3d756b17	0.059916582
125	0x3cebd554	0.028788246
126	0x3d0d9f24	0.034575596
127	0xbd8cec4c	-0.068810076
128	0x3d8dfd95	0.069331326
129	0xbdbcd6d8	-0.09220666
130	0x3c1fe1cf	0.009758427
131	0x3d8ddfa9	0.069274254
132	0xbd25fcf0	-0.040524423
133	0x3c8295d9	0.015940594
134	0xbcfa72b7	-0.030572278
135	0x3da7067f	0.08155536
136	0x3b7d5182	0.0038653319
137	0x3d983fab	0.07434019
138	0x3d653794	0.055961207
139	0x3db0a7b4	0.08625737
140	0xbd9802d8	-0.074224174
141	0xbd085ad6	-0.033289753
142	0xbd70fe28	-0.058836132
143	0xbd32d143	-0.0436566
144	0x3d644dd6	0.055738293
145	0xbdae00f6	-0.08496277
146	0x3cea2400	0.02858162
147	0x3daf1520	0.08548951
148	0x3d84e667	0.06489258
149	0xbcd8ab7e	-0.026448961
150	0x3a672328	0.00088171894
151	0xbdb0270b	-0.08601197
152	0x3dcdfedc	0.10058376
153	0x3cb77051	0.022392424
154	0xbdba4a73	-0.09096231
155	0x3d5c85d1	0.053838555
156	0xbd27446d	-0.04083674
157	0xbd6d73a1	-0.0579716
158	0x3cc4f1b7	0.02404104
159	0xbd281cfe	-0.041043274
160	0xbc16a2d6	-0.009194097
161	0x3cba053c	0.022707574
162	0xbb79bc92	-0.0038106781
163	0x3ba77888	0.005110804
164	0x3d644cc5	0.055737276
165	0x3d7ec41a	0.062198736
166	0xbd07c5f3	-0.033147763
167	0xbd8b3590	-0.067973256
168	0x3bafc3fa	0.0053639384
169	0xbd898457	-0.06714695
170	0xbd423afe	-0.04741954
171	0x3ba4f568	0.0050341375
172	0x3d14ea8b	0.03635649
173	0xbc1b6a30	-0.009485766
174	0xbd6e11d6	-0.05812248
175	0xbd7ec1f3	-0.062196683
176	0xbb2b9593	-0.0026181682
177	0xbd1f1ecb	-0.038847726
178	0x3cfb6a45	0.030690322
179	0x3deaaf2b	0.11459192
180	0xbcbd6eff	-0.023124216
181	0x3d1d9ed6	0.038481556
182	0x3cc2fcb9	0.023802148
183	0xbd2f99db	-0.042871337
184	0xbb632b69	-0.0034663326
185	0x3ce3a756	0.027789753
186	0xbd786257	-0.06064066
187	0x3d9c7131	0.07638777
188	0xbd32bd0d	-0.043637324
189	0x3d05a49c	0.032627687
190	0x3dada77d	0.084792115
191	0xbd81f361	-0.06345249
192	0x3dd9f231	0.106418975
193	0x3c59e0fb	0.013298268
194	0xbd65e5ad	-0.05612724
195	0x3d5e6927	0.0542995
196	0x3d2506a9	0.040289555
197	0x3d440ea3	0.04786552
198	0x3da8df63	0.08245733
199	0x3d9f1f22	0.0776961
200	0x3d920446	0.07129721
201	0xbd886e1b	-0.06661626
202	0x3be4a0c2	0.0069771716
203	0x3d4e5e5e	0.050382964
204	0x3b3f31c0	0.002917394
205	0x3c84ff23	0.01623494
206	0x3db17336	0.08664553
207	0xbd354d2a	-0.044263043
208	0x3c212893	0.009836334
209	0x3d8907a4	0.066909105
210	0x3ddcb3be	0.107764706
211	0xbd22250b	-0.03958611
212	0xbd69ea3e	-0.057108156
213	0xbdb73576	-0.08945744
214	0x3c13d898	0.009023808
215	0xbc95e6d3	-0.018298542
216	0x3cdbc802	0.02682877
217	0x3d88f525	0.066873826
218	0xbd5f3f5d	-0.054503787
219	0xbdb67b9e	-0.08910297
220	0xbdced269	-0.10098726
221	0x3d14fb9c	0.036372766
222	0x3c157762	0.009122701
223	0x3dcc8498	0.09986228
224	0x3c2c6f9e	0.0105246585
225	0xbd890c0b	-0.0669175
226	0xbd37620b	-0.044771235
227	0x3b252855	0.0025201042
228	0xbd420ef2	-0.047377534
229	0x3d22d541	0.039754156
230	0x3daae4b9	0.08344407
231	0x3d52fa53	0.05150826
232	0xbd7646c6	-0.06012609
233	0xbd0e2c38	-0.03471014
234	0x3d1b79d1	0.03795797
235	0xbda5bccd	-0.080926515
236	0x3ce5e738	0.028064355
237	0xbcf20af3	-0.029546237
238	0x3d52f419	0.05150232
239	0xbc230669	-0.009950259
240	0xbd8b096e	-0.06788908
241	0xbd7f5e01	-0.06234551
242	0xbcfa2284	-0.030534036
243	0x3bbbb4cf	0.005728341
244	0x3c7c7eb2	0.015411066
245	0x3cadacd2	0.021200571
246	0x3d97b480	0.074074745
247	0xbd6d8f36	-0.057997905
248	0x3d8f96a6	0.07011156
249	0x3d389464	0.04506339
250	0x3d388e3a	0.045057513
251	0x3c2e5b5d	0.0106419
252	0x3d8b0bed	0.06789384
253	0x3d0c62b8	0.034273833
254	0xbc45707d	-0.012050745
255	0xbd8db3d0	-0.06919062

lstm1.bias_ih_l0 f4 [512]
0	0x3c961e33	0.018324947
1	0xbd195508	-0.037434608
2	0xbc29c1ff	-0.010361194
3	0x3daaeffb	0.08346554
4	0x3d716498	0.058933824
5	0x3b9a898b	0.0047161034
6	0xbd5ceff9	-0.053939793
7	0xbd927572	-0.07151307
8	0x3db7ed03	0.08980753
9	0x3cb1b773	0.02169392
10	0x3b152519	0.0022757708
11	0xbdb08f59	-0.086210914
12	0xbd9e99fa	-0.077442124
13	0x3c9a4092	0.018829618
14	0x3d6dd980	0.058068752
15	0xbd6b2048	-0.057403833
16	0x3d822140	0.06353998
17	0xbd430754	-0.04761441
18	0xbd826720	-0.06367326
19	0x3d922fc2	0.07138015
20	0xbd40f14f	-0.04710513
21	0xbddcecf9	-0.107873864
22	0xbdd700be	-0.104981884
23	0xbd4d74f5	-0.050160367
24	0x3cd1db3b	0.025617233
25	0xbcdaefee	-0.026725736
26	0xbd621db0	-0.055204093
27	0x3cf6f5c0	0.03014648
28	0xbdc8783b	-0.09788557
29	0xbdb225a4	-0.08698586
30	0x3caeb47b	0.021326294
31	0xbceaed71	-0.028677674
32	0x3cdeca7f	0.027196167
33	0xbd8f8a9b	-0.07008859
34	0x3ce7cb58	0.028295204
35	0x3d835335	0.06412355
36	0xbcbeb5dc	-0.023280077
37	0xbd007928	-0.031365544
38	0x3d9b4d30	0.07583082
39	0xbca6a6ed	-0.020343268
40	0xbd3fd8ad	-0.046837498
41	0xbd86716d	-0.06564603
42	0x3b7c430a	0.0038492107
43	0x3cbdc3b1	0.023164602
44	0xbd0679d0	-0.032831013
45	0xbd3906a9	-0.045172367
46	0x3d2df625	0.04247107
47	0xbdadb15d	-0.08481095
48	0xbcbedba4	-0.023298092
49	0x3cdbeffb	0.02684783
50	0xbd8dd93f	-0.06926202
51	0xbdcdee0f	-0.10055172
52	0x3d2562e3	0.04037751
53	0xbb3c7b28	-0.002875993
54	0xbc592a7c	-0.013254758
55	0xbb97510b	-0.0046178154
56	0xbda58934	-0.0808281
57	0x3c9147ad	0.017734373
58	0xbcc8adb3	-0.024496889
59	0xbcde34a6	-0.027124714
60	0xbdcadc5f	-0.09905314
61	0x3c970a9d	0.018437678
62	0xb99cb0a6	-0.00029886252
63	0x3d7b8863	0.061409365
64	0xbca64e4d	-0.020301009
65	0xbd8319ab	-0.0640138
66	0x3d37d5dd	0.04488169
67	0xbcc7d867	-0.02439518
68	0xbcf1be40	-0.029509664
69	0x3ad146e8	0.0015966566
70	0x3cbf2b15	0.023335973
71	0x3d482a79	0.04886863
72	0x3c6694f4	0.014073599
73	0x3bb427dd	0.005497916
74	0xbc39bb56	-0.011336168
75	0x3cb3ba9f	0.021939574
76	0x3d000cac	0.031262085
77	0x3d8c4b15	0.06850258
78	0xbc958059	-0.018249677
79	0xbc00c40c	-0.007859241
80	0xbd364e21	-0.044508103
81	0x3d1aa5f8	0.037755936
82	0x3b5d35f5	0.0033754085
83	0x3bf2334d	0.0073913694
84	0xbd30eacb	-0.043192666
85	0x3cfcc449	0.030855315
86	0x3d0ea1a9	0.03482214
87	0x3d2818dc	0.041039333
88	0xbdff5f56	-0.12469356
89	0x3d33fed4	0.043944195
90	0x3dbde4d5	0.09272162
91	0xbd484b21	-0.048899774
92	0xbdaeb446	-0.08530478
93	0xbb7989bf	-0.0038076488
94	0xbd406e51	-0.046980206
95	0xbd984cf8	-0.074365556
96	0x3c166f94	0.009181876
97	0x3d940223	0.0722697
98	0xbd8c1385	-0.068396606
99	0xbdb139ed	-0.086536266
100	0xbd0995a6	-0.03358998
101	0xbd08192f	-0.033227142
102	0x3db526e6	0.0884531
103	0x3d5b5816	0.053550802
104	0xbc90dfe6	-0.017684888
105	0xbdb35cc5	-0.08757929
106	0xbdb10db8	-0.08645195
107	0x3c882121	0.01661736
108	0xbd90dac7	-0.070729785
109	0xbca72da6	-0.020407509
110	0xbd1e99cb	-0.038720887
111	0xbdc9cf00	-0.09853935
112	0x3c863323	0.016381806
113	0xbc84b028	-0.01619728
114	0x3d33133b	0.04371951
115	0xbd8ca875	-0.06868068
116	0x3d667dcd	0.056272317
117	0xbd9932e0	-0.07480407
118	0x3dd33001	0.103118904
119	0xbd3cf2cf	-0.046129998
120	0xbcde8367	-0.027162267
121	0xbd9b3468	-0.07578355
122	0xbdc935d2	-0.098247185
123	0x3d15845d	0.036503185
124	0x3cfa2247	0.030533923
125	0xbd53d6cd	-0.051718522
126	0xbcdb5237	-0.026772602
127	0x3c606d3c	0.0136979185
128	0x3d218dfa	0.03944204
129	0xbdc1e6ea	-0.094678715
130	0x3d4a87f9	0.04944608
131	0xbb32487b	-0.0027203846
132	0x3d49cc88	0.04926732
133	0xbd1c6372	-0.038180776
134	0xbd5d74ef	-0.054066595
135	0xbcd44b48	-0.025914803
136	0x3bb075e2	0.0053851465
137	0x3d7191f6	0.05897709
138	0x3d1e7497	0.038685407
139	0x3c68373e	0.014173327
140	0x3d97adbd	0.07406185
141	0x3d3fe760	0.046851516
142	0x3c90fa4a	0.017697472
143	0x3b2ad332	0.0026065824
144	0xbd495446	-0.049152635
145	0x3d85c173	0.06531038
146	0x3c8c74d9	0.017145561
147	0xbc3ab1da	-0.011394942
148	0xbde0f4a8	-0.109841645
149	0xbd50654b	-0.05087785
150	0xbdb1b31a	-0.08676739
151	0x3b4cc3f9	0.0031244738
152	0x3d3bae06	0.04582026
153	0xbcfbfe28	-0.03076084
154	0x3cf74697	0.030185027
155	0xbc594eb4	-0.013263393
156	0xbc42335e	-0.011853067
157	0x3cacf00f	0.021110563
158	0x3d853f4e	0.06506215
159	0x3d2188b0	0.039436996
160	0xbbaca1bf	-0.005268305
161	0x3c2e29e4	0.010630105
162	0x3bd47fcb	0.0064849607
163	0x3c8e1136	0.017342191
164	0x3ce2e7da	0.027698446
165	0xbd5dcc89	-0.054150138
166	0x3cdc337b	0.026880017
167	0xbd2d24eb	-0.042271536
168	0x3ca4a7b1	0.020099493
169	0xbd0d15e9	-0.034444723
170	0x3c8352a4	0.016030617
171	0x3d5dc7b1	0.05414552
172	0xbd2fd70f	-0.042929705
173	0x3c900efe	0.017585274
174	0xbd3f3d6c	-0.046689436
175	0xbb9f4203	-0.004860164
176	0xbd857e76	-0.06518261
177	0xbd94eb07	-0.072713904
178	0xbd98d8df	-0.0746324
179	0x3c8b457f	0.017000912
180	0xbd3dc5a1	-0.04633105
181	0xbd49ad85	-0.049237747
182	0xbd9344b3	-0.07190838
183	0x3d8b6b79	0.06807608
184	0xbdea1038	-0.11428875
185	0xbdbb4be6	-0.09145336
186	0xbcdfc4c2	-0.027315501
187	0xbdb1ede3	-0.086879514
188	0x3d04ebc5	0.03245141
189	0xbd43b747	-0.04778221
190	0x3d27417f	0.040833946
191	0xba335c03	-0.0006842019
192	0xbce47d76	-0.027891856
193	0xbc07ad4c	-0.008281063
194	0xbd1d1e83	-0.038359176
195	0x3db54bbc	0.08852336
196	0x3b985830	0.0046491846
197	0xbcb6ee61	-0.022330465
198	0xbd81e558	-0.06342572
199	0x3d0de29f	0.03463995
200	0xbd5e2390	-0.054233134
201	0x3d792002	0.06082154
202	0x3d85a296	0.065251514
203	0x3d5d73d1	0.05406553
204	0x3d2dcfec	0.042434618
205	0xbcc0a0f4	-0.023514248
206	0xbdc92c4d	-0.09822903
207	0x3d464aa6	0.048411034
208	0xbda41596	-0.0801193
209	0xbdc1c6fb	-0.09461781
210	0xbd3320fa	-0.04373262
211	0xbd8c6022	-0.068542734
212	0x3cb8238c	0.022477888
213	0x3cdd6ca3	0.027029341
214	0xbd93f4de	-0.07224439
215	0xbca9733d	-0.020684833
216	0xbcb6d8cb	-0.022320172
217	0xbdd72d19	-0.105066486
218	0xbd741fe5	-0.05960073
219	0x3d848dbd	0.06472347
220	0x3c27eafc	0.010248896
221	0x3cd73da6	0.026274513
222	0xbc838a3c	-0.016057126
223	0x3d3ac57f	0.045598503
224	0x3d54b771	0.051932756
225	0xbdca3d42	-0.09874965
226	0x3d66e037	0.05636617
227	0xbdc5791f	-0.09642243
228	0xbcdd0ce7	-0.026983691
229	0xbd79845c	-0.060917243
230	0xbdaac42d	-0.08338199
231	0xbd8164db	-0.06318065
232	0x3d232540	0.039830446
233	0x3d79fdc7	0.061033037
234	0x3c074342	0.008255782
235	0xbc727bf0	-0.014800057
236	0xbd1d428d	-0.038393546
237	0x3d495940	0.04915738
238	0x3cfb1d30	0.030653566
239	0x3c639138	0.013889603
240	0xbd09e51c	-0.03366576
241	0x3d6248a2	0.05524505
242	0xbda479e3	-0.080310605
243	0xbd852f82	-0.06503202
244	0xbd68c5c8	-0.056829244
245	0x3d92a9fd	0.07161329
246	0x3acda1b0	0.0015688445
247	0xbc4432a7	-0.011974967
248	0xbcb05916	-0.021526854
249	0x3d5fad19	0.05460844
250	0x3cd13f95	0.025543014
251	0x3d7690bf	0.060196634
252	0xbd0266d2	-0.03183634
253	0x3bd1f629	0.0064075184
254	0xbd87787e	-0.06614779
255	0xbd4877f2	-0.048942514

lstm1.bias_hh_l0 f4 [512]
0	0x3d518165	0.05114879
1	0x3d16b663	0.03679503
2	0xbd9de90b	-0.07710465
3	0xbd2b8c67	-0.041881945
4	0x3cd134e5	0.025537917
5	0xbc9abe82	-0.01888967
6	0xbd3855bd	-0.04500364
7	0x3bd2c22e	0.0064318394
8	0x3ddba424	0.10724667
9	0xbd918243	-0.071049236
10	0x3d13ff01	0.036131863
11	0xbd5aa4b8	-0.053379744
12	0xbcd9362c	-0.026515089
13	0xbda5c50d	-0.08094225
14	0xbdac66af	-0.08418023
15	0x3d2c737d	0.042102326
16	0xbd9c197d	-0.07622049
17	0xbd4f9c62	-0.050686248
18	0xbd745387	-0.05964997
19	0x3c1206f6	0.008912792
20	0xbdf232c9	-0.11826093
21	0xbbb9f8c3	-0.0056754067
22	0xbd83530d	-0.06412325
23	0xbb9c8b77	-0.0047773677
24	0xbd84d443	-0.06485798
25	0xbdabd387	-0.08389955
26	0x3d2a0b30	0.041514575
27	0xbdec5f4a	-0.115416124
28	0xbd5006a1	-0.05078757
29	0xbbfd7edd	-0.0077360705
30	0x3b941cae	0.0045200204
31	0x3c8cd05d	0.0171892
32	0xbc3d1bff	-0.011542319
33	0x3d1a97b6	0.03774234
34	0xbd84f510	-0.064920545
35	0xbdac79ec	-0.08421692
36	0x3d6de2b6	0.058077537
37	0xbc61f622	-0.013791593
38	0xbd1ef6b7	-0.038809504
39	0xbd3ff30c	-0.046862647
40	0x3d726a76	0.05918356
41	0x3cbc04ca	0.022951502
42	0xbc4f0b69	-0.012636998
43	0xbc811363	-0.015756315
44	0xbd820d0f	-0.06350147
45	0x3c63ad01	0.013896228
46	0xbca8e1bd	-0.020615453
47	0xbd783cd7	-0.060604896
48	0xbd665796	-0.056235872
49	0xbdf87107	-0.12130933
50	0xbda0c125	-0.078493394
51	0xbd36b25d	-0.044603694
52	0x3c1f3ee2	0.009719582
53	0xbd0299c0	-0.03188491
54	0xbda9f730	-0.082991004
55	0xbddf9a7d	-0.10918138
56	0x3c482f82	0.012218358
57	0xbd2c0989	-0.04200128
58	0x3adcf2da	0.0016857043
59	0xbcfda51a	-0.030962516
60	0xbd3a4d50	-0.045483887
61	0xbdb9d489	-0.09073741
62	0x3c9b24e0	0.018938482
63	0x3b36c6a4	0.0027889395
64	0xbd8ec824	-0.069717675
65	0x3d55a84c	0.052162454
66	0xbd53aa3c	-0.05167602
67	0x3c4e5aa6	0.012594854
68	0xbbfaa8b2	-0.0076495046
69	0x3d1a4482	0.03766299
70	0xbda4c1bf	-0.08044767
71	0x3d08aa02	0.033365257
72	0x3cc1c67d	0.023654217
73	0x3d5e9a39	0.054346297
74	0xbd05ed1b	-0.032696825
75	0x3dbab14f	0.0911585
76	0x3d3cc2a3	0.046084058
77	0xbdc07895	-0.09397999
78	0x3cb6de30	0.022322744
79	0xbd1937ec	-0.037406847
80	0xbd9cdecd	-0.076596834
81	0xbc8efe4f	-0.017455248
82	0xbdc23688	-0.09483057
83	0xbd4ad8b2	-0.049523063
84	0xbd00d7ed	-0.031455923
85	0xbda676ad	-0.08128104
86	0x3d24317e	0.040086262
87	0x3d945eb1	0.072446235
88	0xbc739c2b	-0.014868776
89	0xbd69e502	-0.057103164
90	0x3a460a60	0.00075546466
91	0x3da1d8c6	0.079026744
92	0xbdd5fc4a	-0.10448511
93	0xbd2b917f	-0.041886803
94	0xbcc287af	-0.02374634
95	0xbc861fc1	-0.016372563
96	0xbd122db9	-0.035688136
97	0xbca75d24	-0.020430155
98	0xbe06f3c1	-0.13178922
99	0xbbd1b1a6	-0.006399351
100	0xbcba1b6c	-0.022718154
101	0x3d4e652b	0.05038945
102	0x3a880fe0	0.0010380708
103	0xbcff1158	-0.0311362
104	0xbc3d44b8	-0.011552028
105	0xbd1dcd4e	-0.038525872
106	0x3b164367	0.0022928359
107	0xbc313d57	-0.010817847
108	0xbdbb0d6e	-0.09133421
109	0xbd09ad37	-0.033612456
110	0x3d89d665	0.06730346
111	0x3d239821	0.039940003
112	0xbda337c8	-0.07969624
113	0xbd1a5bbf	-0.037685152
114	0xbdac7bd6	-0.08422057
115	0xbd14e71b	-0.03635321
116	0x3d73ebb9	0.059550975
117	0xbc42aafd	-0.011881587
118	0xbc851798	-0.016246602
119	0x3d5e1bec	0.054225847
120	0xbd844fce	-0.06460534
121	0xbd99e42d	-0.07514224
122	0x3d29bad5	0.041437943
123	0xbca8628e	-0.020554807
124	0xbd537e2a	-0.05163399
125	0xbdb29b0b	-0.08720978
126	0xbe05b266	-0.13056335
127	0xbdba22ba	-0.09088655
128	0xbd337579	-0.043813203
129	0xbb9d93ee	-0.0048088944
130	0xbd46077a	-0.048346974
131	0x3db404d7	0.087899856
132	0x3cdd88b2	0.02704272
133	0x3d40f84c	0.047111794
134	0x3d911486	0.07083993
135	0xbdb190ad	-0.08670173
136	0x3d9fd127	0.078035645
137	0xbbc17711	-0.0059040864
138	0xbd2fe5a6	-0.04294362
139	0x3ddf3f0f	0.10900699
140	0x3c008950	0.007845238
141	0x3c7b785b	0.015348519
142	0x3bbe8e8d	0.005815333
143	0xba6705d5	-0.000881282
144	0xbcfd8074	-0.03094504
145	0xbca7d8e0	-0.020489156
146	0xbc2f7145	-0.010708158
147	0xbd12b36c	-0.03581564
148	0xbdd4c643	-0.10389378
149	0x3c83cadf	0.016087947
150	0xbba7b5e7	-0.00511812
151	0xbb23b68f	-0.002498064
152	0x3ab9bdf3	0.0014170989
153	0x3d289333	0.041156005
154	0x3d05cd37	0.03266641
155	0xbdc94ea8	-0.098294556
156	0x3ab598a2	0.0013854692
157	0x3c549b48	0.012976475
158	0xbcd264e8	-0.025682881
159	0xbd85cdaf	-0.06533372
160	0xbd817caa	-0.06322606
161	0x3d3b56a2	0.045736916
162	0xbc0ed80d	-0.008718503
163	0xbd1815d0	-0.037130177
164	0x3d31f607	0.04344752
165	0xbd967112	-0.07345785
166	0x3d81efac	0.06344542
167	0xbdabe5f2	-0.08393468
168	0xbb884065	-0.004158067
169	0xbda9161e	-0.08256172
170	0xbcaf4924	-0.02139718
171	0xbcd9f82f	-0.026607601
172	0x3d893617	0.0669977
173	0x3c90513d	0.017616862
174	0x3cc1394a	0.023586888
175	0xbdcc893a	-0.099871114
176	0x3c1a2dd7	0.009410343
177	0x3d82f13f	0.0639367
178	0x3d172ca7	0.03690782
179	0xbca288db	-0.019840648
180	0xbd817ae3	-0.06322267
181	0x3d1ef3ee	0.03880685
182	0xbab9277a	-0.0014126145
183	0x3d37a18f	0.04483181
184	0xbc88c54a	-0.016695637
185	0xbd5b2044	-0.053497568
186	0x3d06b867	0.032890704
187	0x3d37b167	0.04484692
188	0xbd2fa27e	-0.042879574
189	0x3d8521e9	0.065006085
190	0x3c906383	0.017625576
191	0x3d7472e3	0.059679877
192	0x3a20574c	0.0006116524
193	0x3d7c3161	0.06157053
194	0xbd8f38c0	-0.06993246
195	0x3d5321af	0.051545795
196	0x3bf13edf	0.007362231
197	0xbd7fdbd6	-0.06246551
198	0xbd1f9be7	-0.03896704
199	0xbdcca5a3	-0.0999253
200	0xbd3d6f6e	-0.046248846
201	0x3d5adac9	0.053431306
202	0xbd559000	-0.052139282
203	0xbd108b36	-0.035289012
204	0xbdc7656e	-0.09736143
205	0xbd9fd362	-0.0780399
206	0xbdb776ab	-0.08958181
207	0x39da6f5d	0.00041663172
208	0x3b5d21fc	0.003374218
209	0x3cfee9b2	0.031117294
210	0xbb9183fd	-0.004440783
211	0xbda497ed	-0.0803679
212	0x3cc30597	0.023806376
213	0x3d33bab9	0.043879244
214	0xbc043075	-0.008068194
215	0xbcd5bae9	-0.026090102
216	0x3bb25fd5	0.005443553
217	0xbdb3bc03	-0.08776095
218	0x3da949d3	0.08266034
219	0x3d7904b2	0.060795493
220	0x3d61dbe0	0.05514133
221	0xbda855ca	-0.08219488
222	0x3d8cce1b	0.06875249
223	0x3d38942a	0.045063175
224	0xbd6d585a	-0.057945587
225	0x3ccf26b8	0.025287017
226	0xbd0c9cb2	-0.034329124
227	0xbdaa0adc	-0.083028525
228	0xbda4d829	-0.08049042
229	0xb9ebf342	-0.00045003934
230	0xbc1198f0	-0.008886561
231	0x3d6cd992	0.05782468
232	0x3c87274b	0.016498229
233	0xbdbe4228	-0.09289962
234	0x3d881e54	0.0664641
235	0x3dd39c14	0.10332504
236	0x3d707706	0.05870726
237	0xbd9ef7bf	-0.077620976
238	0x3d3dbf59	0.04632506
239	0x3ce54644	0.027987607
240	0x3a69269d	0.00088939985
241	0x3c3813a4	0.011235151
242	0x3d8eadb0	0.06966722
243	0xbde2fc8d	-0.110833265
244	0x3dbe38a1	0.09288145
245	0xbdb5b206	-0.08871846
246	0x3d268114	0.040650442
247	0x3c7f83f1	0.015595422
248	0xbc912c34	-0.017721273
249	0x3d4d807e	0.050171368
250	0xbd87ac4a	-0.066246584
251	0x3c020343	0.007935348
252	0xbd032faa	-0.032027878
253	0xbde285a0	-0.11060643
254	0x3d5d837a	0.054080464
255	0xbd2d4734	-0.042304233

bn1.weight f4 [128]
0	0x3f746cb7	0.95478386
1	0x3f7abcf2	0.9794456
2	0x3f82260c	1.0167861
3	0x3f802c48	1.0013514
4	0x3f7d170e	0.98863304
5	0x3f79e152	0.97609437
6	0x3f820cfe	1.0160215
7	0x3f7b5f31	0.98192126
8	0x3f839fcc	1.0283141
9	0x3f7585dc	0.9590738
10	0x3f8150cf	1.0102786
11	0x3f7eb7b8	0.9949908
12	0x3f79cfe7	0.9758286
13	0x3f8173d4	1.0113473
14	0x3f72104b	0.9455611
15	0x3f760349	0.9609876
16	0x3f7b0af1	0.9806357
17	0x3f7c521c	0.9856279
18	0x3f807fd6	1.0039012
19	0x3f7e4238	0.9931979
20	0x3f7a6bde	0.9782084
21	0x3f7faed1	0.99876124
22	0x3f789f3b	0.97117966
23	0x3f7a990d	0.97889787
24	0x3f753837	0.957889
25	0x3f79e144	0.97609353
26	0x3f7ed357	0.9954123
27	0x3f81ec23	1.0150188
28	0x3f7f9c65	0.99848014
29	0x3f78b364	0.9714873
30	0x3f7e8847	0.9942669
31	0x3f7edf6c	0.99559665
32	0x3f7dbe17	0.9911818
33	0x3f79ce91	0.9758082
34	0x3f7d8553	0.9903156
35	0x3f76b198	0.96364737
36	0x3f7b0b6f	0.9806432
37	0x3f850f8c	1.039537
38	0x3f7c0390	0.98442936
39	0x3f7c9b99	0.98674923
40	0x3f7ab458	0.9793143
41	0x3f7a2af4	0.9772179
42	0x3f7ac973	0.9796364
43	0x3f74d614	0.9563916
44	0x3f7dcd38	0.99141264
45	0x3f819ed9	1.0126601
46	0x3f7a4562	0.9776212
47	0x3f830c5a	1.0238144
48	0x3f81ac2d	1.0130669
49	0x3f8015aa	1.0006611
50	0x3f811cb4	1.0086884
51	0x3f722c76	0.9459909
52	0x3f7bb555	0.98323566
53	0x3f7e3a5e	0.9930781
54	0x3f7d1c29	0.98871094
55	0x3f75d93e	0.9603461
56	0x3f802da3	1.0013927
57	0x3f7c9aa8	0.98673487
58	0x3f7cdae8	0.98771524
59	0x3f79ebd4	0.9762547
60	0x3f77a1f7	0.96731514
61	0x3f77d59c	0.9681032
62	0x3f811935	1.0085818
63	0x3f797dbe	0.9745749
64	0x3f7dc743	0.99132174
65	0x3f7ce10a	0.9878088
66	0x3f7aa3d0	0.9790621
67	0x3f7bd250	0.98367786
68	0x3f7e700e	0.9938973
69	0x3f7bfa48	0.98428774
70	0x3f733377	0.95000404
71	0x3f7bde7e	0.9838637
72	0x3f820454	1.0157571
73	0x3f8011f1	1.0005475
74	0x3f7ae88e	0.980111
75	0x3f7f9053	0.99829596
76	0x3f80ddd0	1.0067692
77	0x3f7d3bc2	0.9891931
78	0x3f80e61f	1.0070227
79	0x3f7be67c	0.98398566
80	0x3f791649	0.9729963
81	0x3f7fbc8d	0.9989708
82	0x3f80559b	1.0026125
83	0x3f78c917	0.9718184
84	0x3f7f05b8	0.996181
85	0x3f7e9b3f	0.99455637
86	0x3f7fb96c	0.99892306
87	0x3f7c16f6	0.98472536
88	0x3f7f729d	0.9978426
89	0x3f7cfd68	0.9882417
90	0x3f804236	1.0020206
91	0x3f7c67cb	0.98595876
92	0x3f80314c	1.0015044
93	0x3f81204b	1.008798
94	0x3f80a52d	1.0050408
95	0x3f76d240	0.96414566
96	0x3f71b547	0.9441723
97	0x3f718461	0.9434262
98	0x3f81a2a8	1.0127764
99	0x3f7e00d3	0.9922001
100	0x3f72051b	0.9453904
101	0x3f73d0e5	0.9524062
102	0x3f7fb18a	0.9988028
103	0x3f72a2c8	0.94779634
104	0x3f79a7a0	0.975214
105	0x3f7accec	0.97968936
106	0x3f836381	1.0264741
107	0x3f82da78	1.0222921
108	0x3f7f3d89	0.9970327
109	0x3f82d48f	1.0221118
110	0x3f8190ca	1.0122311
111	0x3f7db29d	0.9910067
112	0x3f728bf2	0.9474479
113	0x3f79bc04	0.97552514
114	0x3f79103f	0.97290415
115	0x3f7ffd62	0.99996006
116	0x3f7dce38	0.9914279
117	0x3f7d53c0	0.9895592
118	0x3f80a459	1.0050155
119	0x3f820088	1.0156412
120	0x3f77e7fb	0.9683835
121	0x3f7da184	0.9907458
122	0x3f781a55	0.9691518
123	0x3f77b425	0.96759254
124	0x3f76575e	0.9622706
125	0x3f7cf5bd	0.98812467
126	0x3f7ec09a	0.99512637
127	0x3f7da26c	0.9907596

bn1.bias f4 [128]
0	0xbcc3f22e	-0.023919191
1	0x3cfc04ab	0.030763945
2	0x3a8b5895	0.0010631258
3	0xbc8cd009	-0.017189043
4	0xbc85319c	-0.016259007
5	0xbcb4c44b	-0.022066256
6	0xbca4d089	-0.020118969
7	0xbcc0b8d4	-0.023525633
8	0x3be36753	0.0069398074
9	0xbba84e04	-0.0051362533
10	0xbbfb2b74	-0.007665092
11	0xbca662b8	-0.020310745
12	0x3c357299	0.0110746855
13	0x3d018368	0.03161946
14	0xbb893252	-0.004186907
15	0xbce0a838	-0.027423963
16	0xbd1e3d50	-0.03863269
17	0x3bda9e85	0.006671729
18	0xbd09421e	-0.03351032
19	0x3bfeb3f7	0.0077729183
20	0xbba9303c	-0.0051632207
21	0xbc696125	-0.0142443525
22	0x3d018fbb	0.031631213
23	0xbcbd541a	-0.023111392
24	0xbc4f8d1e	-0.012667922
25	0xbce259cb	-0.027630707
26	0xbc3eb2ad	-0.011639279
27	0x3d068455	0.032841045
28	0x3c5dd689	0.013539919
29	0xbb01a5d6	-0.0019782684
30	0xbc87eea3	-0.016593283
31	0x3a8b10b1	0.0010609833
32	0x3b2f1b99	0.002671933
33	0x3cc897b0	0.024486393
34	0xbc23e70c	-0.010003816
35	0x3bbcebdd	0.005765422
36	0x3cc2573e	0.023723241
37	0xbc11e869	-0.008905509
38	0xbc602ddd	-0.01368281
39	0x3cfdc161	0.030976
40	0x3d744523	0.059636246
41	0xbbb18edf	-0.005418643
42	0xbc203f5a	-0.009780729
43	0x3ca478d7	0.020077152
44	0x3c8da20c	0.017289184
45	0x3c97d875	0.018535832
46	0x3bd0c2eb	0.0063708923
47	0xbbd06113	-0.0063592284
48	0x3c4b43cc	0.012406301
49	0xbc47a5cb	-0.012185524
50	0x3c91966b	0.01777192
51	0x3ca70d71	0.020392152
52	0x3b0bf2e4	0.002135449
53	0x3c9e14fc	0.019297116
54	0xbd376fd4	-0.044784382
55	0x3bf5e229	0.007503767
56	0xbc2c0f38	-0.010501675
57	0x3d33c4dc	0.04388891
58	0x3c6f46e4	0.014604304
59	0x3b350863	0.0027623407
60	0x3cf766e9	0.030200439
61	0xba0758a0	-0.00051630475
62	0x3d08ceb5	0.033400256
63	0xbc93be4e	-0.01803508
64	0xbca766e1	-0.020434799
65	0xbc191534	-0.009343434
66	0xbd1df2e0	-0.0385617
67	0x3c0d3a91	0.00861992
68	0x3b9d9c81	0.0048099165
69	0x3d20b109	0.039231334
70	0x3c23b76d	0.009992463
71	0x3c9d69c1	0.019215466
72	0xbc309466	-0.010777568
73	0xbc7bf4e3	-0.01537821
74	0xbc0b77cd	-0.008512449
75	0x3a5478a6	0.0008105136
76	0xbb9fbaf2	-0.0048745805
77	0xbbd6c86f	-0.0065546553
78	0xbc8a2209	-0.016861932
79	0xbd48f060	-0.049057364
80	0xbcf7a524	-0.030230112
81	0xbd14e1f9	-0.036348317
82	0xbc805be1	-0.015668811
83	0xbcb42b32	-0.021993253
84	0xbb208f2a	-0.0024499395
85	0x3d0198bc	0.0316398
86	0xbc92759e	-0.01787835
87	0xbbc641d9	-0.00605033
88	0xbd20eb58	-0.03928694
89	0xbcd47c46	-0.025938164
90	0x3d7bef44	0.06150748
91	0x3ca754ed	0.020426238
92	0xbc1bbedf	-0.009505956
93	0xba2ae94a	-0.0006519748
94	0x3a024138	0.0004968825
95	0xbc3afc60	-0.01141271
96	0xbca83055	-0.020530859
97	0x3c4b5eaf	0.012412711
98	0xbbe810ec	-0.0070820954
99	0x3b7e1361	0.0038768875
100	0xb9cba83e	-0.00038844527
101	0x3b9bbdce	0.004752851
102	0x3c908e28	0.01764591
103	0x3aaa9ee6	0.0013017326
104	0x3c4648d2	0.012102323
105	0xba1bba19	-0.00059405115
106	0xbb748253	-0.0037309125
107	0x3c842a45	0.016133437
108	0x3c93263c	0.017962568
109	0xbb95d015	-0.0045719245
110	0x3d3c81a8	0.046022087
111	0xbc03702a	-0.008022347
112	0x3cad4f89	0.02115609
113	0xbb296ddc	-0.0025852835
114	0xbc95132b	-0.018197617
115	0x3a96936b	0.0011488026
116	0xbc826fdb	-0.015922477
117	0x3d2dc656	0.042425476
118	0xbd31de62	-0.04342497
119	0xbd18733f	-0.037219282
120	0xb94ae103	-0.00019348045
121	0x39e26283	0.00043179476
122	0x3d45e76b	0.0483164
123	0x3cfb76d9	0.03069632
124	0xbc9e170e	-0.019298103
125	0xbbad06c7	-0.005280349
126	0x3c3e851e	0.011628417
127	0xbb40baa2	-0.0029408117

bn1.running_mean f4 [128]
0	0x3e012b65	0.1261421
1	0xbceecf9c	-0.02915173
2	0x3aea0a85	0.0017855918
3	0xbd10f630	-0.035391033
4	0x3d7f1231	0.062273208
5	0xbdb3c3a2	-0.087775484
6	0xbc09da5a	-0.0084138755
7	0xba812442	-0.0009852725
8	0xbcd69a66	-0.02619667
9	0xbdaab53e	-0.083353505
10	0x3e1895f0	0.14900947
11	0xbc2373d1	-0.009976343
12	0xbd9d2253	-0.076725625
13	0xbd9f313b	-0.07773062
14	0xbe0b7f38	-0.13622749
15	0x3d247811	0.040153567
16	0xbcf87b10	-0.030332118
17	0x3c02b968	0.007978775
18	0x3c51da30	0.012808368
19	0xbddfa6c7	-0.10920482
20	0x3d2e3b4a	0.04253701
21	0xbc401cc2	-0.011725606
22	0xbc8e7213	-0.01738838
23	0xbd7e5ee9	-0.062102232
24	0x3d72af0f	0.05924898
25	0x3c8b2edb	0.016990116
26	0x3d894277	0.0670213
27	0xbd9a5479	-0.07535643
28	0x3e0af3a5	0.13569506
29	0xbdd6aa38	-0.104816854
30	0x3d526ea8	0.05137506
31	0xbcc30370	-0.02380535
32	0xbdf2a71e	-0.11848281
33	0x3dcfc2d8	0.10144585
34	0xbcd54ef3	-0.026038622
35	0xbd9e3e91	-0.07726777
36	0xbc34bd68	-0.011031486
37	0x3e01e0e5	0.12683447
38	0xbacb38ce	-0.00155046
39	0x3ccc3efe	0.02493238
40	0xbdb488e6	-0.08815174
41	0x3d0fa5e2	0.035070308
42	0x3d823ce3	0.063592695
43	0xbb0c6a9e	-0.0021425853
44	0xbcc32428	-0.023820952
45	0x3d8c0574	0.068369776
46	0xbd8a0dc2	-0.06740905
47	0xbcbaaf55	-0.022788683
48	0xbdc84eef	-0.097806804
49	0x3d95aeeb	0.073087536
50	0x3db9f8f8	0.0908069
51	0x3d830d4d	0.06399021
52	0xbcf1c553	-0.029513037
53	0xbd0a4918	-0.033761114
54	0xbc84d8a8	-0.016216591
55	0x3d3b1ccd	0.045681763
56	0x3c8a622b	0.016892513
57	0xbb6090d8	-0.003426602
58	0xbbdbe2ad	-0.0067103715
59	0x3d9bade6	0.07601528
60	0x3ce59630	0.028025717
61	0xbd231141	-0.039811376
62	0x3d5481a2	0.05188144
63	0xbd911b67	-0.07085305
64	0x3d0d8aca	0.034556188
65	0x3bb513b0	0.0055260286
66	0xbc69ed4c	-0.014277767
67	0x3d35508f	0.04426628
68	0xbd1e9f7c	-0.038726315
69	0x3cc8e69b	0.024524024
70	0xbcee16d7	-0.029063625
71	0xbce7aee8	-0.028281644
72	0xbd690a66	-0.056894682
73	0x3c68ebd0	0.014216378
74	0xbc1b504c	-0.0094795935
75	0x3d47d17e	0.04878377
76	0xbc4676e8	-0.01211331
77	0xbd726df6	-0.0591869
78	0xbc54c2e0	-0.012985915
79	0x3e527cb5	0.20555384
80	0xbc0c31fc	-0.008556839
81	0xbceb8989	-0.028752105
82	0x3c31ff59	0.010864102
83	0x3acbb235	0.0015540781
84	0x3db638d8	0.08897561
85	0xbd0b9601	-0.0340786
86	0xbd520d3d	-0.051282156
87	0x3e1313e1	0.14363052
88	0x3e1c0acf	0.15238498
89	0xbd4df2f4	-0.050280526
90	0xbcb3a7a7	-0.021930529
91	0xba847bca	-0.0010107693
92	0xbd88361e	-0.06650947
93	0x3dc9cdb0	0.09853685
94	0x3dd2eb31	0.102987655
95	0x3d82235e	0.06354402
96	0xbda9e308	-0.08295256
97	0x3bf1d426	0.0073800264
98	0xbdaf4e6e	-0.08559881
99	0xbd2de279	-0.04245231
100	0x3c462434	0.012093592
101	0x3d0a43d4	0.033756092
102	0xbd24fd25	-0.04028048
103	0xbd88018e	-0.066409215
104	0xbb952eeb	-0.004552712
105	0xbd9e5d7d	-0.07732675
106	0x3c6bb58f	0.014386549
107	0xbd872ce9	-0.06600363
108	0xbdaefe46	-0.085445926
109	0x3d265635	0.040609557
110	0xbe12905b	-0.1431288
111	0xbd4a14f8	-0.049336404
112	0x3ddb2b84	0.10701659
113	0xbd953818	-0.0728609
114	0x3dd4d20d	0.103916265
115	0xbd74b293	-0.059740614
116	0xbdaf8f49	-0.08572251
117	0x3c6eeffd	0.014583585
118	0x3cef3438	0.029199705
119	0xbd2b3864	-0.041801825
120	0xbb14dad5	-0.0022713442
121	0xbde39566	-0.1111248
122	0x3cc976e3	0.024592822
123	0x3c655a17	0.01399853
124	0xbe0fed1c	-0.14055294
125	0xbd9e0414	-0.077156216
126	0xbbb8d344	-0.005640419
127	0x3bb40dfa	0.00549483

bn1.running_var f4 [128]
0	0x3d372b75	0.04471918
1	0x3d04d910	0.03243357
2	0x3cf1e0d8	0.02952616
3	0x3cbb9cda	0.022901941
4	0x3d84ade4	0.064784795
5	0x3d5a6bab	0.053325336
6	0x3ca372b3	0.019952154
7	0x3cd4c7c0	0.025974154
8	0x3cd0e5f0	0.025500268
9	0x3ca8b2da	0.020593096
10	0x3d054256	0.032533966
11	0x3d449d0f	0.048001345
12	0x3cb8cbd4	0.02255813
13	0x3d1a0e1b	0.03761111
14	0x3d48dd77	0.04903933
15	0x3cc1dcc9	0.023664849
16	0x3d06662b	0.03281228
17	0x3d253670	0.04033512
18	0x3d0916e9	0.033469114
19	0x3d331870	0.043724477
20	0x3c97b3c7	0.018518342
21	0x3caa1a90	0.02076462
22	0x3cf2c23c	0.029633634
23	0x3cfc5645	0.030802855
24	0x3d447864	0.047966376
25	0x3cf19d9b	0.029494097
26	0x3d45e2e2	0.048312075
27	0x3d159f79	0.036529038
28	0x3d13ce82	0.036085613
29	0x3c9fa846	0.019489419
30	0x3d09e31d	0.033663858
31	0x3c86b4a2	0.016443554
32	0x3ced7a34	0.028988935
33	0x3d3b319e	0.045701616
34	0x3c81ebeb	0.015859565
35	0x3d6ac897	0.057320204
36	0x3d4c9504	0.0499468
37	0x3d57544f	0.052570637
38	0x3d461b8f	0.048366126
39	0x3cde1ed0	0.027114302
40	0x3d05f590	0.03270489
41	0x3caf76af	0.021418897
42	0x3cb956d0	0.022624403
43	0x3caef950	0.021359116
44	0x3cf75a06	0.030194294
45	0x3d1d7133	0.038438033
46	0x3caf7d62	0.021422092
47	0x3cfebf57	0.031097097
48	0x3c84bfd5	0.016204754
49	0x3d02a0cd	0.031891633
50	0x3d039295	0.032122213
51	0x3cfffcd2	0.031248484
52	0x3d39ca77	0.0453591
53	0x3ca4cc89	0.020117061
54	0x3c56c034	0.013107348
55	0x3d2b9c0f	0.041896876
56	0x3ca7648f	0.020433692
57	0x3d04a144	0.032380357
58	0x3c3d889c	0.011568215
59	0x3cbb13e5	0.022836635
60	0x3d038f84	0.03211929
61	0x3cfd7329	0.030938702
62	0x3d6001a2	0.054689057
63	0x3d134691	0.03595597
64	0x3d38d816	0.04512795
65	0x3d1cca5d	0.038278926
66	0x3ca5c2f9	0.020234572
67	0x3d482c13	0.048870157
68	0x3c7dd35c	0.0154922865
69	0x3cef16dd	0.029185707
70	0x3cc685f6	0.0242338
71	0x3ca29116	0.019844573
72	0x3c9e5a73	0.019330239
73	0x3cee563f	0.02909386
74	0x3c9770a6	0.018486332
75	0x3d18b26c	0.03727953
76	0x3c46df61	0.012138219
77	0x3cf1ecfe	0.029531952
78	0x3ccd1633	0.025035
79	0x3d23ee19	0.04002199
80	0x3c5ac252	0.013351994
81	0x3cd19243	0.025582438
82	0x3d6c777f	0.057731148
83	0x3d0f574e	0.03499537
84	0x3d4797dd	0.048728812
85	0x3ce387dc	0.027774744
86	0x3cd38cfa	0.025824059
87	0x3daac576	0.08338444
88	0x3d6a93e7	0.057269957
89	0x3c3aec22	0.0114088375
90	0x3d186b62	0.037211783
91	0x3d0f042f	0.0349161
92	0x3d3d0633	0.04614849
93	0x3d40a679	0.04703376
94	0x3cd381bc	0.025818698
95	0x3d37a23f	0.044832464
96	0x3c8ccd0c	0.017187618
97	0x3c90c86d	0.017673695
98	0x3cc9964c	0.0246078
99	0x3c1c8b10	0.009554639
100	0x3c6beca5	0.014399682
101	0x3c713776	0.014722696
102	0x3d3439b5	0.044000346
103	0x3cf12197	0.029434962
104	0x3ccdb559	0.025110887
105	0x3cd11627	0.025523258
106	0x3d5f0e9a	0.054457285
107	0x3d864869	0.0655678
108	0x3d015475	0.031574685
109	0x3c4d804e	0.012542797
110	0x3d5e89c4	0.054330602
111	0x3c9c05dd	0.019045765
112	0x3cbe9932	0.023266409
113	0x3c978fab	0.018501123
114	0x3cb71819	0.022350358
115	0x3c8caec1	0.017173173
116	0x3cb17b2e	0.021665182
117	0x3d0ca403	0.0343361
118	0x3cddacfb	0.027060023
119	0x3c48c1fc	0.012253281
120	0x3c3e2720	0.011606008
121	0x3ce6716b	0.028130254
122	0x3cb23a20	0.021756232
123	0x3ce5f956	0.028072994
124	0x3d0accaf	0.033886608
125	0x3c86ebe1	0.016469898
126	0x3c5c3838	0.013441138
127	0x3cd83eb5	0.026397089

lstm2.weight_ih_l0 f4 [256, 128]
0	0xbc96bb3e	-0.01839983
1	0x3d861a4e	0.06547986
2	0xbcdf7c42	-0.02728093
3	0xbd759972	-0.05996079
4	0xbd8eebee	-0.06978594
5	0x3c459de4	0.01206157
6	0x3d5e43da	0.054263927
7	0xbd6125f7	-0.054967847
8	0x3dc106f0	0.09425151
9	0xbdfd9fb7	-0.12383979
10	0xbd822d9b	-0.06356355
11	0x3dc69455	0.09696261
12	0xbdc565e9	-0.096385784
13	0x3d8de290	0.06927979
14	0xbd39ea7c	-0.045389637
15	0xbe0b5f8e	-0.1361067
16	0xbd985c8f	-0.07439529
17	0xbcc151d0	-0.023598582
18	0xbd72a970	-0.05924362
19	0xbdf24595	-0.11829678
20	0xbd891f9f	-0.06695484
21	0x3df63317	0.12021463
22	0xbde1adc3	-0.110194705
23	0x3dd9e5ea	0.10639556
24	0x3daeec9a	0.08541222
25	0xbd38d4e0	-0.04512489
26	0xbe28e9b9	-0.16495408
27	0xbd9587ad	-0.07301269
28	0xbd44a574	-0.04800935
29	0x3a3a5f04	0.00071094953
30	0xbde427f1	-0.11140431
31	0x3d2da065	0.042389292
32	0xbcb691bb	-0.022286287
33	0xbdb8cf9d	-0.09023974
34	0x3e066cbe	0.1312742
35	0x3dc65811	0.09684766
36	0x3b73d042	0.0037202989
37	0xbd6fbd30	-0.058530033
38	0xbdec2033	-0.11529579
39	0xbde674d9	-0.11252756
40	0xbe066e34	-0.13127977
41	0x3ab8b402	0.0014091732
42	0xbda671e8	-0.08127195
43	0x3de72bf4	0.1128768
44	0xbdf1d7c4	-0.11808732
45	0xbd1f64ba	-0.03891442
46	0xbdf262b5	-0.11835233
47	0x3dd36858	0.10322636
48	0x3da65fd9	0.0812375
49	0x3d243720	0.040091634
50	0xbd2df29b	-0.042467695
51	0xbd0fc461	-0.03509939
52	0xbc8aa406	-0.016923916
53	0xbdd2a5c5	-0.10285524
54	0xbdac9894	-0.084275395
55	0xbcdcfa71	-0.026974889
56	0x3dc2f214	0.09518829
57	0x3d1c6f82	0.03819228
58	0x3d825f95	0.06365887
59	0xbd4a4199	-0.049378965
60	0xbd622547	-0.05521133
61	0xbc029b8a	-0.007971654
62	0xbd2dab62	-0.04239977
63	0x3ddadf34	0.10687104
64	0x3dae060f	0.08497249
65	0x3cb155d7	0.021647377
66	0x3ce64e81	0.028113605
67	0xbd742520	-0.059605718
68	0xbd6d5f13	-0.057951998
69	0x3d34acd3	0.04411013
70	0xbd828cc9	-0.06374509
71	0xbe1ec864	-0.1550613
72	0xbb77a443	-0.0037787117
73	0xbb5dc0e1	-0.0033836889
74	0x3c05c33d	0.008164224
75	0x3d7f1c20	0.06228268
76	0xbdd1fdd4	-0.10253492
77	0xbd62b23d	-0.055345763
78	0xbd460925	-0.048348565
79	0x3d07e853	0.033180546
80	0x3ca06a57	0.019581957
81	0xbc130954	-0.008974392
82	0xbdba4cad	-0.09096656
83	0x3d4bbf00	0.0497427
84	0x3d180261	0.037111644
85	0xbd9990d5	-0.07498328
86	0x3daf6a8b	0.08565243
87	0xbd35ec0d	-0.04441457
88	0x3d701e82	0.058622845
89	0x3d13c196	0.03607329
90	0xbdfeb44a	-0.12436731
91	0x3dada0f0	0.08477962
92	0x3cda42f0	0.026643246
93	0xbc8b7683	-0.017024284
94	0xbc552f6d	-0.0130117955
95	0xbdb09b4b	-0.0862337
96	0xbdb7ace4	-0.08968523
97	0x3dd89a37	0.10576289
98	0xbc85e97d	-0.016346687
99	0x3bb77ddd	0.005599721
100	0xbdf0c225	-0.1175578
101	0xbce76ff1	-0.02825162
102	0xbcd41f9f	-0.025893984
103	0xbe071441	-0.1319132
104	0x3da5ce10	0.08095944
105	0x3d6a9647	0.057272222
106	0x3d82cd40	0.063868046
107	0x3c75621c	0.014977004
108	0x3d504c1b	0.05085383
109	0x3d1e96e6	0.038718127
110	0x3ddb22f8	0.10700029
111	0xbd90c86e	-0.07069479
112	0x3daedd4f	0.08538305
113	0xbd6f5b39	-0.058436606
114	0x3c9949ae	0.018711891
115	0x3c6d9d39	0.014502817
116	0xbc8f5b3a	-0.017499555
117	0x3d44d49b	0.04805432
118	0xba8a372d	-0.0010545008
119	0xbdfd8e5e	-0.1238067
120	0x3daf2c27	0.08553343
121	0x3e074c0f	0.13212608
122	0xbdaa1418	-0.08304614
123	0x3e0fc59a	0.14040223
124	0xbb5e1feb	-0.0033893536
125	0xbde56da2	-0.112025514
126	0xba9eba94	-0.0012110048
127	0x3d315bf5	0.043300588
128	0x3dc95bc7	0.09831958
129	0xbc866130	-0.016403764
130	0x3d28f6ca	0.04125098
131	0x3c2e82de	0.010651318
132	0xbdd5ff5b	-0.10449096
133	0x3cf949d3	0.03043071
134	0xbda37b82	-0.079825416
135	0x3d375cd2	0.044766255
136	0x3dd11a2c	0.1021007
137	0xbda9155d	-0.08256028
138	0xbda8d63e	-0.082439885
139	0x3e08c785	0.1335736
140	0xbc5db1fa	-0.013531202
141	0x3d4deaf3	0.050272893
142	0x3d4a2b14	0.04935749
143	0xbd04deba	-0.03243897
144	0xbcb64cc3	-0.0222534
145	0x3d2364e0	0.039891124
146	0xbda03a5d	-0.07823632
147	0x3df7d346	0.12100844
148	0x3cc4c0f7	0.024017794
149	0xbc8c48eb	-0.017124614
150	0x3c25ca6f	0.010119065
151	0xbcede5ec	-0.0290403
152	0x3c1e308d	0.00965513
153	0x3d870692	0.0659305
154	0xbdbd5d81	-0.0924635
155	0xbe032054	-0.12805301
156	0x3e1823ed	0.14857455
157	0xbd9d4b6f	-0.076804034
158	0x3db18a3a	0.08668943
159	0x3dcc96aa	0.099896744
160	0xbd0c4647	-0.03424671
161	0x3d0b7ca5	0.034054417
162	0xbd540f79	-0.05177257
163	0xbc0a1daa	-0.008429924
164	0x3df56d8b	0.11983784
165	0xbd73d5a6	-0.059529923
166	0x3d298e56	0.041395508
167	0x3d757697	0.05992755
168	0xbda32efd	-0.07967947
169	0xbbea3241	-0.007147104
170	0xbe053ac8	-0.13010705
171	0xbbcf140b	-0.006319528
172	0xbcd643f4	-0.02615545
173	0xbdb74fa5	-0.08950738
174	0x3d8d4055	0.06897036
175	0xbe00338d	-0.12519665
176	0xbd71e1df	-0.059053298
177	0x3dc3b709	0.095563956
178	0x3de2e014	0.11077896
179	0xbd1a9c56	-0.03774675
180	0x3de1798a	0.1100951
181	0x3d8fa932	0.07014693
182	0x3da840ba	0.082154706
183	0xba26f9de	-0.00063696306
184	0xbdeeb227	-0.116550736
185	0x3df6f962	0.12059285
186	0x3c8a5a9c	0.016888909
187	0x3d9a64ab	0.07538732
188	0x3c620b90	0.013796702
189	0xbd290067	-0.04126015
190	0xbce5bf63	-0.028045362
191	0x3dbfc55f	0.093638174
192	0x3d0cb017	0.03434762
193	0xbd921633	-0.071331404
194	0xbd57a593	-0.05264814
195	0xbd26a449	-0.04068402
196	0x39a9486b	0.00032288147
197	0x3b0a3d34	0.0021093609
198	0xbd40d81b	-0.047081094
199	0xbbb8d9e1	-0.0056412076
200	0xbdf1e97c	-0.11812112
201	0x3c2846db	0.0102707995
202	0x39810d3b	0.00024614655
203	0x3cc4c01e	0.02401739
204	0x3dea1252	0.114292756
205	0xbd9630f6	-0.07333557
206	0x3e099eae	0.13439438
207	0xbb05755a	-0.0020364136
208	0x3db93657	0.09043568
209	0x3daf781a	0.085678294
210	0x3df7f56c	0.121073574
211	0x3d8c8911	0.06862081
212	0x3dd92f67	0.106047444
213	0x3d60dfe7	0.05490103
214	0x3dbe5c81	0.092949875
215	0xbd35ee03	-0.04441644
216	0x3d6e6ae0	0.058207393
217	0xbd582444	-0.05276896
218	0xbd8a4dfc	-0.067531556
219	0xbdfad088	-0.122468054
220	0x3dc768e6	0.09736805
221	0x3cd2cfaa	0.025733788
222	0x3d9fee3c	0.078091115
223	0x3e0cfc3f	0.13768099
224	0xbbc80924	-0.0061046053
225	0xbd8c71fe	-0.0685768
226	0x3e0b7686	0.13619432
227	0x3d48bc82	0.0490079
228	0x3d709a10	0.058740675
229	0x3dd05448	0.101723254
230	0xbd1c3ae9	-0.03814212
231	0xbd34fd94	-0.044187143
232	0xbd89abc0	-0.06722212
233	0xbdf3a062	-0.11895825
234	0xbdee76af	-0.11643731
235	0x3d60cb16	0.054881178
236	0x3cd7ce48	0.02634348
237	0xbd030d00	-0.03199482
238	0xbd1d6701	-0.03842831
239	0xbd76c3c0	-0.060245275
240	0x3d7145e5	0.058904547
241	0x3d8eb0bd	0.06967304
242	0x3d8f0845	0.06983999
243	0xbcc247a8	-0.023715809
244	0x3d8cfff9	0.068847604
245	0x3c65d532	0.0140278805
246	0xbd8f97bf	-0.07011365
247	0x3dc15247	0.09439521
248	0xbdc2d45c	-0.095131606
249	0xbdb80054	-0.089844376
250	0xbcef4726	-0.02920873
251	0xbd032789	-0.032020126
252	0xbdb381a6	-0.08764963
253	0x3dd302dd	0.103032805
254	0x3d937836	0.07200663
255	0x3d118153	0.035523724
